backups/2022-05-27/best-model-4.pt (torch, 4687 bytes, 7 tensors)

lstm.weight_ih_l0 f4 [8, 6]
0	0xbebcc3af	-0.36868045
1	0x3dee8c5a	0.11647864
2	0xbe3e33c5	-0.18574436
3	0x3f54daac	0.83146167
4	0x3fa8bd9c	1.3182864
5	0x3d332c7b	0.04374359
6	0xbf50bde3	-0.81539744
7	0x3dc96245	0.098331966
8	0xbbd69e64	-0.0065496434
9	0xbf66e340	-0.90190506
10	0x3f87d0b2	1.0610564
11	0x3ec84d6d	0.3912157
12	0xbec744dc	-0.38919723
13	0xbf159b43	-0.58440036
14	0xbefc041c	-0.49221885
15	0xbe7cb87e	-0.24679753
16	0xbf0acff7	-0.5422358
17	0x3e8a1056	0.26965588
18	0xbe57d7d8	-0.21078432
19	0x3f1808ab	0.59388226
20	0xbc554780	-0.013017535
21	0x3d728c30	0.059215724
22	0xbeeb62e3	-0.45973882
23	0x3f077e55	0.5292714
24	0xbe2a8cba	-0.16655245
25	0xbe0d2932	-0.13785246
26	0xbf826a7a	-1.0188744
27	0xbf4779be	-0.7792014
28	0x3f0b24f9	0.5435329
29	0xbea21a70	-0.31660795
30	0x3f37b809	0.7176519
31	0x3dc66e9d	0.096890666
32	0x3f62efea	0.8864733
33	0x3fd9c6ed	1.7013832
34	0xbd4ee3ed	-0.050510336
35	0x3e8aad12	0.27085167
36	0x3d81873a	0.063246205
37	0xbcc51fc6	-0.024063002
38	0x3f219224	0.6311362
39	0xbd7b6520	-0.061375737
40	0x3ef40f6c	0.47668016
41	0xbe45d5a2	-0.19319776
42	0x3f060734	0.5235474
43	0xbd6c6fd6	-0.057723843
44	0x3e59df6e	0.21276638
45	0x3ee48922	0.44635874
46	0xbd76728b	-0.06016783
47	0xbebc93e4	-0.36831582

lstm.weight_hh_l0 f4 [8, 2]
0	0x3f15fc55	0.58588153
1	0x3f266b0f	0.6500711
2	0x3e8fffcc	0.28124845
3	0x3f14edbb	0.5817525
4	0xbf328b84	-0.69744134
5	0x3e2c8e38	0.16851127
6	0x3f0c3f51	0.54784113
7	0x3f018233	0.50589293
8	0x3c5155c0	0.012776792
9	0xbf2bec0c	-0.67157054
10	0x3f1d98ef	0.61561483
11	0x3ca99720	0.020701945
12	0x3d844830	0.06459081
13	0xbf32924c	-0.6975448
14	0x3ee8f7e6	0.45501631
15	0x3d3c5330	0.04597777

lstm.bias_ih_l0 f4 [8]
0	0x3f94114c	1.1567779
1	0x3ee4db4b	0.44698557
2	0x3e8b94ac	0.27261865
3	0x3decd7e0	0.115646124
4	0x3f9b7e1f	1.2147864
5	0x3f7fc361	0.999075
6	0x3ec18f16	0.37804478
7	0xbeda5638	-0.42643905

lstm.bias_hh_l0 f4 [8]
0	0x3f345c51	0.70453364
1	0xbca1734b	-0.019708296
2	0x3efb8902	0.49127966
3	0xbefdb76a	-0.49553996
4	0x3ea00116	0.31250829
5	0x3d8209c7	0.06349521
6	0xbf06da21	-0.5267659
7	0x3ef221fe	0.4729156

fc_1.weight f4 [128, 2]
0	0xbe8fa84d	-0.2805809
1	0x3e3f2090	0.18664765
2	0xbf150df1	-0.582244
3	0x3f921dca	1.1415341
4	0x3f624772	0.88390267
5	0x3eef9a58	0.46797442
6	0xbec4f460	-0.38467693
7	0x3e9c836e	0.30569023
8	0xbee7166b	-0.4513429
9	0x3eb6779a	0.35638124
10	0x3e0a0878	0.13479793
11	0xbf133d55	-0.5751546
12	0xbeec3527	-0.46134302
13	0x3ed1e6a9	0.40996292
14	0x3e92e2e3	0.28688726
15	0x3e0e029a	0.1386818
16	0x3e9a084a	0.3008445
17	0x3ef16426	0.4714672
18	0xbe90b0c6	-0.28259867
19	0xbf074aa2	-0.52848256
20	0x3eca4e93	0.39513072
21	0x3f5705f1	0.8399344
22	0x3ef1a682	0.47197348
23	0x3e80d82c	0.25164926
24	0xbf0c100b	-0.5471198
25	0x3d326490	0.043552935
26	0x3eefaa3e	0.46809572
27	0x3e9a40e6	0.3012764
28	0xbcecf334	-0.028924562
29	0xbe9d60f8	-0.30738044
30	0x3e91e8d0	0.28497934
31	0x3ef3b2bb	0.47597298
32	0x3ad10800	0.0015947819
33	0xbec9e6d2	-0.39433914
34	0x3dfa5270	0.12222755
35	0x3d199ee0	0.03750503
36	0xbe545f37	-0.20739447
37	0x3f3caa90	0.7369776
38	0x3f006783	0.50157946
39	0xbf7ade6b	-0.9799563
40	0x3f81dff1	1.0146466
41	0x3f7f2cdb	0.9967782
42	0xbecedf07	-0.4040453
43	0xbf22381c	-0.63366866
44	0x3c27211e	0.010200767
45	0x3f6980be	0.9121207
46	0xbdc9f708	-0.098615706
47	0x3eee09f2	0.46491963
48	0xbe47520e	-0.19464895
49	0xbf52db11	-0.8236552
50	0x3f6bac84	0.9206011
51	0xbe662c17	-0.22477756
52	0x3e47440c	0.19459552
53	0x3f022f1b	0.5085313
54	0x3f5de4ac	0.8667705
55	0xbda82c86	-0.08211617
56	0xbe84a019	-0.25903395
57	0x3e328383	0.1743298
58	0x3f38cbd5	0.72186023
59	0x3e691581	0.2276211
60	0xbe9ed3f9	-0.31021097
61	0x3e4e281c	0.20132488
62	0x3e1e821c	0.1547932
63	0x3ed3a86d	0.41339436
64	0xbeba6ebf	-0.36412618
65	0x3eab6e32	0.3348251
66	0x3ed1e374	0.40993845
67	0xbf00475e	-0.501089
68	0xbf0ad9db	-0.5423867
69	0xbece0107	-0.4023516
70	0xbedabae0	-0.427207
71	0x3f1b5fab	0.6069285
72	0xbe360c1c	-0.17778057
73	0xbee1c400	-0.4409485
74	0x3ebe1496	0.3712508
75	0x3e7a837c	0.2446422
76	0x3f0bad99	0.54561764
77	0x3f04aa3c	0.5182226
78	0x3da77df1	0.08178318
79	0x3f1c78d5	0.61121875
80	0x3ed4b3ad	0.41543332
81	0x3eed7508	0.4637835
82	0x3f07e864	0.53088975
83	0x3f726177	0.9467997
84	0xbd43be2d	-0.047788788
85	0x3e72a177	0.23694406
86	0x3f3e8052	0.7441455
87	0xbd2cb741	-0.042166952
88	0xbe9abbee	-0.30221504
89	0xbe47ca41	-0.19510747
90	0xbf04fb97	-0.51946396
91	0x3d966018	0.07342547
92	0x3f530736	0.8243288
93	0x3ecc93e1	0.39956573
94	0x3ef45fe2	0.47729403
95	0xbe4c6ee0	-0.1996417
96	0x3d129fe0	0.035797
97	0x3f04b73f	0.5184211
98	0xbf22c7b0	-0.6358595
99	0x3eb8ccfe	0.36093897
100	0xbe7acabc	-0.244914
101	0x3f49cef1	0.7883139
102	0x3eb4dc9a	0.35324556
103	0x3d70dd7f	0.058804985
104	0xbe215acc	-0.15757293
105	0x3e8aa24a	0.27076942
106	0xbfbb0b7e	-1.4612882
107	0xbeccd0a1	-0.4000292
108	0xbf270bc9	-0.6525236
109	0x3efbc6d3	0.49175128
110	0x3ecb2506	0.39676684
111	0xbdfc6e18	-0.12325686
112	0x3d0cf030	0.03440875
113	0x3e3d42e0	0.18482542
114	0x3e637b10	0.22214913
115	0x3f2f94bf	0.68586344
116	0xbe7b0423	-0.24513297
117	0x3f06afd8	0.52612066
118	0xbe6787b4	-0.2261036
119	0xbdc5dcc0	-0.09661245
120	0xbf57725c	-0.84158874
121	0x3f289a98	0.6586089
122	0xbf048466	-0.51764524
123	0xbf2a92d9	-0.6663032
124	0x3e73469d	0.23757406
125	0x3ef008a8	0.46881604
126	0xbe5d311c	-0.21600765
127	0x3e306130	0.17224574
128	0xbe64be8a	-0.2233831
129	0xbef6adae	-0.48179382
130	0xbe36b9dc	-0.17844337
131	0xbe714f48	-0.235654
132	0x3f1dd36a	0.6165072
133	0x3d43b54a	0.047780313
134	0x3ed784c2	0.42093474
135	0x3e511074	0.20416433
136	0x3e8cc3a2	0.27493006
137	0xbf16ed55	-0.5895589
138	0x3e640579	0.22267713
139	0x3f22638d	0.6343315
140	0x3f55f721	0.83580214
141	0x3f4fe7e3	0.81213206
142	0x3fbd34f9	1.4781791
143	0x3e97e4e5	0.2966682
144	0xbefe3b9b	-0.4965485
145	0x3e415eb9	0.1888379
146	0xbf092232	-0.535678
147	0x3ed6dade	0.41963857
148	0xbf0b316f	-0.54372305
149	0x3ef05b6a	0.46944743
150	0x3ebd9bf7	0.37033054
151	0x3f4bb58b	0.7957389
152	0x3f51b4a7	0.8191628
153	0x3f06d3af	0.52666754
154	0x3e35500f	0.17706321
155	0x3ecb5158	0.39710498
156	0xbea61035	-0.3243424
157	0x3f1fff0f	0.62498564
158	0x3f998b2b	1.1995596
159	0x3d425e62	0.04745329
160	0x3f8a41f3	1.0801376
161	0xbe660b72	-0.22465304
162	0xbe7d8025	-0.24755915
163	0x3eb8c779	0.36089686
164	0x3f159a46	0.5843853
165	0x3f5128d9	0.81702954
166	0x3e87cd90	0.2652402
167	0xbefe881c	-0.49713218
168	0xbe70397e	-0.23459432
169	0xbf2f742b	-0.68536633
170	0x3de399c8	0.11113316
171	0xbf086819	-0.5328384
172	0x3f5f0de9	0.871306
173	0x3e55f2aa	0.2089335
174	0x3f3814b0	0.71906567
175	0x3e81c531	0.25345758
176	0x3e4f127c	0.20221895
177	0xbe1a686c	-0.15078896
178	0x3ef6ecf0	0.48227644
179	0x3ee951cd	0.45570222
180	0x3f2e28f8	0.68031263
181	0x3f01523e	0.50516117
182	0x3e8dc71a	0.27690965
183	0x3e4176b4	0.18892938
184	0xbf1636a4	-0.58677125
185	0xbf028692	-0.5098659
186	0xbf2a5cf8	-0.6654811
187	0x3eb66006	0.35620135
188	0xbf30cc11	-0.6906138
189	0xbec07207	-0.37586996
190	0x3ebd6310	0.3698964
191	0xbecaa2d7	-0.39577362
192	0xbdd79810	-0.105270505
193	0xbe043298	-0.12909925
194	0xbd8a0d29	-0.06740791
195	0xbdf2a65b	-0.11848136
196	0xbeee42aa	-0.46535236
197	0x3f6d43c6	0.9268154
198	0xbe4a5430	-0.19758677
199	0x3e91df7a	0.28490812
200	0xbe837683	-0.25676355
201	0xbde325b2	-0.11091174
202	0x3e062880	0.13101387
203	0xbe6ecd12	-0.23320416
204	0x3cfbd3fe	0.030740734
205	0x3d8acd31	0.067774184
206	0xbe94e3c3	-0.29080018
207	0xbefd2db2	-0.49448925
208	0x3fc36586	1.5265357
209	0x3fa08acc	1.2542357
210	0xbee579f8	-0.44819617
211	0xbf4a5b2b	-0.7904536
212	0xbf0d0e67	-0.551001
213	0x3d834488	0.06409556
214	0xbf0bc3a6	-0.5459541
215	0xbcb604e0	-0.022219121
216	0x3f023fc0	0.50878525
217	0x3edd2c31	0.43197778
218	0x3e62cae8	0.22147715
219	0x3e6f2ab4	0.23356134
220	0x3f5eca06	0.87027013
221	0x3f156ada	0.5836617
222	0xbe1050a0	-0.14093256
223	0xbdf49400	-0.11942291
224	0x3e8761f6	0.26441926
225	0x3e5c4a25	0.21512659
226	0x3f3512ef	0.70732015
227	0x3f89fdd6	1.078059
228	0x3f2b69e0	0.6695843
229	0xbc410786	-0.011781579
230	0xbe9a8db5	-0.3018624
231	0x3cce5d20	0.02519089
232	0xbf059b3c	-0.52189994
233	0x3e6c58f5	0.2308081
234	0x3eb42dc2	0.3519116
235	0xbeaf2fed	-0.34216252
236	0x3eecd986	0.46259707
237	0x3ef999da	0.48750192
238	0x3f300425	0.68756324
239	0x3f6dc6e1	0.9288159
240	0x3f1034d1	0.5633059
241	0x3ea2a8ea	0.31769496
242	0x3c92036e	0.017823901
243	0x3f206bd0	0.6266451
244	0x3ef6bc66	0.48190612
245	0xbe47d398	-0.1951431
246	0xbbd93700	-0.006628871
247	0xbeba030b	-0.36330447
248	0x3e847882	0.2587319
249	0x3defa888	0.11702067
250	0xbe2aa6fc	-0.16665262
251	0xbf228f60	-0.6350002
252	0x3f54f8cd	0.8319214
253	0xbe8346b6	-0.25639886
254	0xbefbad0a	-0.49155456
255	0xbe8a312b	-0.26990637

fc_1.bias f4 [128]
0	0x3e420b58	0.1894964
1	0xbe05b65a	-0.13057843
2	0xbe8a6493	-0.27029857
3	0x3f137ebd	0.5761526
4	0xbf2975c2	-0.6619531
5	0xbf28894a	-0.65834486
6	0x3ce91141	0.02845061
7	0x3e686350	0.22694135
8	0xbf2382ad	-0.6387127
9	0xbeb50660	-0.35356426
10	0x3e331eb4	0.17492181
11	0xbe137ae0	-0.14402342
12	0xbe9ef632	-0.31047207
13	0x3efc79e3	0.49311742
14	0x3e7887ee	0.24270603
15	0xbc92118f	-0.017830638
16	0xbed36961	-0.41291335
17	0xbeadd8e1	-0.33954528
18	0x3f144fbb	0.5793416
19	0x3de5067b	0.11182877
20	0x3f33f2c2	0.70292294
21	0xbf05b515	-0.52229434
22	0xbdfa575d	-0.122236945
23	0xbec9f83c	-0.394472
24	0x3d3d0f0a	0.04615692
25	0x3d7e2486	0.06204655
26	0xbee0f58c	-0.43937337
27	0x3f2b9432	0.67023003
28	0x3e8e8b61	0.27840713
29	0x3e952ce4	0.2913581
30	0xbdc72fd1	-0.09725917
31	0xbef35ffd	-0.4753417
32	0xbf14194f	-0.5785112
33	0xbea07841	-0.31341746
34	0xbd9a5da6	-0.07537393
35	0x3eaac218	0.33351207
36	0xbd1dd630	-0.038534343
37	0xbf0a4c25	-0.5402244
38	0x3ef43886	0.47699374
39	0x3e9b1dbc	0.30296123
40	0xbe01eae0	-0.12687254
41	0xbebbdacf	-0.36690375
42	0x3ee6f72d	0.45110455
43	0x3e1e6de6	0.1547161
44	0x3f2c6234	0.67337346
45	0xbf2981c2	-0.6621362
46	0x3ed9394f	0.42426535
47	0xbece51df	-0.40296838
48	0xbed8d93d	-0.4235324
49	0xbf327624	-0.6971152
50	0xbe747891	-0.23874117
51	0x3d7a5fbf	0.061126467
52	0xbf2b5397	-0.6692442
53	0x3e5ade0b	0.21373765
54	0xbec0f15e	-0.3768415
55	0xbefec719	-0.49761274
56	0xbf0c244e	-0.54742897
57	0xbf05e507	-0.52302593
58	0x3e849d61	0.2590132
59	0xbe715024	-0.23565727
60	0xbe9e63db	-0.3093556
61	0xbe78a846	-0.24282941
62	0xbf2c41e1	-0.67288023
63	0xbf2bcccb	-0.67109364
64	0x3e6dfe15	0.23241456
65	0xbeff82ea	-0.49904567
66	0x3f22a5d2	0.6353427
67	0x3e8e1968	0.27753758
68	0xbf003a1e	-0.5008868
69	0x3f0e65e7	0.5562424
70	0x3f323dfd	0.69625837
71	0xbec5a829	-0.3860486
72	0xbc85a25c	-0.01631277
73	0xbf0196ff	-0.50621027
74	0x3e3f6685	0.18691452
75	0x3e76029b	0.24024431
76	0xbe62df1c	-0.22155422
77	0xbce3bc40	-0.027799726
78	0xbe5dedd6	-0.21672758
79	0xbf0b2f30	-0.5436888
80	0xbee450b4	-0.44592822
81	0x3e0c4ac3	0.13700394
82	0xbdb327b1	-0.08747805
83	0xbebb78a9	-0.36615494
84	0xbf299f68	-0.6625886
85	0xbf03588e	-0.51307
86	0x3f2ad179	0.6672588
87	0x3c411977	0.011785856
88	0xbe63ecee	-0.2225835
89	0xbdfefd61	-0.12450672
90	0x3f358473	0.70905226
91	0xbebb219a	-0.36549073
92	0xbefd6561	-0.49491408
93	0xbf04e6c3	-0.51914614
94	0xbee289a3	-0.44245633
95	0x3ee53a16	0.4477088
96	0xbe67b77a	-0.22628585
97	0x3ea4361c	0.32072532
98	0xbddf6b26	-0.10909109
99	0xbe618306	-0.22022638
100	0x3e8aa85e	0.2708158
101	0xbea89339	-0.32924822
102	0x3b749830	0.0037322156
103	0xbe1cd2f4	-0.15314847
104	0xbec34c49	-0.38144138
105	0xbcbcfbc3	-0.023069268
106	0xbf2a878a	-0.66613066
107	0xbf29837e	-0.66216266
108	0xbd0aa52d	-0.03384893
109	0xbf165612	-0.5872508
110	0x3d71b6a7	0.05901208
111	0xbf1ecd9d	-0.6203249
112	0x3f042960	0.51625633
113	0xbde22f8a	-0.110442236
114	0x3df1eab8	0.11812347
115	0xbeac7fef	-0.33691356
116	0x3ea968c4	0.33087742
117	0xbf22577e	-0.6341475
118	0xbf0f2227	-0.5591149
119	0x3ea6e5bf	0.32597157
120	0xbf278ff1	-0.6545401
121	0x3e5f0a44	0.2178126
122	0xbeaf701b	-0.34265217
123	0xbcafeb40	-0.02147448
124	0xbeb3ac5b	-0.35092434
125	0xbf041e86	-0.51609075
126	0x3f16161d	0.5862749
127	0x3eb5ad74	0.35483897

fc.weight f4 [1, 128]
0	0x3d42bc26	0.047542714
1	0x3f0ff85f	0.5623836
2	0x3f02c98e	0.510888
3	0x3dd64e9f	0.104642145
4	0x3d94b1d3	0.0726048
5	0xbd9031f4	-0.07040778
6	0x3c7121c5	0.014717524
7	0x3dfdd745	0.12394575
8	0xbce2c6d6	-0.027682703
9	0x3db41345	0.08792738
10	0x3e26aef5	0.16277678
11	0x3dfa135e	0.12210725
12	0x3ca29da8	0.019850567
13	0x3e288024	0.16455132
14	0x3df46fa5	0.11935357
15	0x3dd21e91	0.10259736
16	0x3d956443	0.07294514
17	0x3c9bcb24	0.019017763
18	0x3e22a89f	0.15884636
19	0x3d9cefee	0.076629505
20	0x3e5a2633	0.21303634
21	0xb9a8b200	-0.00032176077
22	0x3eb3e52d	0.35135785
23	0xbdb503ac	-0.08838591
24	0x3dadde86	0.084897086
25	0x3e4202a6	0.18946323
26	0xbda304a8	-0.079598725
27	0x3e5b01d7	0.2138742
28	0x3d81257e	0.06305979
29	0x3e132611	0.1436999
30	0x3da044e3	0.07825639
31	0xbb426837	-0.0029664168
32	0x3ca01240	0.019539952
33	0x3d26d7db	0.0407332
34	0x3cdb4eea	0.026771028
35	0x3dc78252	0.097416535
36	0x3da009bf	0.07814359
37	0xbd0c3077	-0.034225907
38	0x3e04ddc1	0.12975217
39	0x3db9cba4	0.090720445
40	0x3da2cc78	0.079491556
41	0xbf637a62	-0.88858616
42	0x3de8195b	0.11332961
43	0x3db77743	0.08958294
44	0x3e3d1847	0.18466292
45	0x3dab9d87	0.08379655
46	0x3df3be57	0.11901539
47	0xbcd4aeea	-0.025962312
48	0xbdaf656c	-0.085642666
49	0xbd23ad53	-0.039960217
50	0xbe9b77bd	-0.3036479
51	0x3d5a2bb9	0.053264353
52	0xbd202205	-0.039094944
53	0xbf0ebc62	-0.557562
54	0xbc923fbf	-0.017852662
55	0x3cebc15c	0.028778724
56	0xb9f9fc00	-0.00047680736
57	0x3d812b1f	0.06307053
58	0x3e0d176e	0.13778469
59	0xbcc7f8b8	-0.02441059
60	0x3c92f056	0.017936867
61	0x3c7d3fa0	0.015457064
62	0xbe0b6665	-0.13613279
63	0xbd575e68	-0.052580267
64	0x3d816d61	0.063196905
65	0x3c83b114	0.016075648
66	0x3e5374ea	0.20650068
67	0x3db75838	0.08952373
68	0x3d88a95d	0.066729285
69	0x3e405484	0.1878224
70	0x3e459ceb	0.1929814
71	0x3fb2feb0	1.3983974
72	0x3d2243eb	0.039615553
73	0xbb9364e0	-0.004498109
74	0x3cb7e57d	0.022448296
75	0x3e363244	0.17792612
76	0xbe9f842d	-0.3115553
77	0x3cf8ea96	0.030385297
78	0x3d057307	0.0325804
79	0xc001e26d	-2.029445
80	0x3f97eb4a	1.186868
81	0x3d61c101	0.055115703
82	0x3e0e3ea5	0.13891084
83	0xbd62a5e6	-0.055333994
84	0xbc7c3350	-0.015393093
85	0xbd835907	-0.06413465
86	0x3e69007c	0.22754091
87	0x3dee7d0c	0.116449445
88	0x3bafda60	0.0053666085
89	0x3d76c7e9	0.060249243
90	0x3e3657fe	0.17807004
91	0xbc082c98	-0.008311413
92	0xbd244850	-0.040108025
93	0xbbba7990	-0.005690761
94	0xbd806180	-0.06268597
95	0x3e1b2db7	0.15154158
96	0x3dab20a7	0.08355837
97	0x3d4bda40	0.049768686
98	0x3ef7ed38	0.4842317
99	0x3cbcdfe4	0.023055978
100	0x3d5a3055	0.05326875
101	0x3d71a952	0.058999367
102	0x3c3f84c5	0.01168937
103	0xbd91485a	-0.07093878
104	0xbfaa4328	-1.3301744
105	0x3db12d2b	0.08651193
106	0x3da27fc3	0.07934525
107	0xbd1bfff4	-0.038085893
108	0x3d8ae4fc	0.067819566
109	0x3cd12d8c	0.025534414
110	0x3e7ac919	0.24490775
111	0xbd32546d	-0.043537546
112	0x3dfe578f	0.12419044
113	0x3e2ede35	0.17076953
114	0x3e1d25e9	0.15346493
115	0x3dad1e21	0.08453012
116	0x3d3e6867	0.046486285
117	0xbc868390	-0.016420156
118	0x3d1b8062	0.037964232
119	0x3e5a0eb0	0.21294665
120	0x3caecde4	0.02133841
121	0x3de903b8	0.113776624
122	0xbcd40b74	-0.025884368
123	0xbd86e5d3	-0.06586804
124	0xbd04a3e0	-0.032382846
125	0xbccc29a0	-0.024922192
126	0x3e5d51f1	0.2161329
127	0x3d2aa045	0.04165675
