backups/2022-05-27/best-model-3.pt (torch, 4623 bytes, 7 tensors)

lstm.weight_ih_l0 f4 [8, 4]
000000 34 b7 6c 3e 8f 3b 59 3d f1 95 8f bf c5 47 07 be
       0.23116761 0.053035315 -1.1217633 -0.13210972
000010 07 dc e1 be 3c f5 c6 bd 8a 49 84 bf a3 3d 85 3e
       -0.4411318 -0.097147435 -1.0334942 0.26023588
000020 10 3b f0 3d f0 50 1b 3d 78 24 9b bd a5 c7 32 3f
       0.11730015 0.037918985 -0.07575315 0.69835883
000030 c1 30 b1 be bc 05 dd be f8 b5 07 be a0 75 a2 3d
       -0.3460751 -0.43168437 -0.1325301 0.079325914
000040 70 5b 5e 3e 04 9e af bd ce 13 f3 bf 69 21 28 bf
       0.21714568 -0.08575061 -1.8990419 -0.6567598
000050 18 fb 88 3e 3d 69 ac be 09 cc a7 3f 26 ff 58 3e
       0.2675407 -0.3367404 1.3109142 0.21191081
000060 c2 fd 02 bf ba 1e b1 bd 89 0a fd be b9 c8 00 3f
       -0.51168454 -0.08648439 -0.494221 0.5030628
000070 56 1a c5 bf 15 ec 8f 3f f5 bd 57 3e eb 7d cd 3d
       -1.5398662 1.1243922 0.21068557 0.100337826

lstm.weight_hh_l0 f4 [8, 2]
000000 f2 d5 ae be c4 88 0d be fc 43 84 3e c0 d0 e3 bd
       -0.34147602 -0.13821703 0.25833118 -0.111238
000010 18 e5 18 be fd e3 2e 3f 18 a9 ba be 78 16 f8 3d
       -0.14931142 0.6831663 -0.36457133 0.121136606
000020 f3 f2 20 3f ea 1b 01 bf 3a c9 9f 3e ce 09 65 be
       0.6287071 -0.5043322 0.3120821 -0.22367021
000030 d1 3d 1b 3f 80 57 aa bd e0 a6 b5 be b7 7f 2e 3f
       0.606412 -0.083174706 -0.35478878 0.6816363

lstm.bias_ih_l0 f4 [8]
000000 5b 57 80 be ec 8a b2 bf 70 b0 d2 be b6 88 23 bf
       -0.25066647 -1.3948646 -0.41150236 -0.6388048
000010 e1 db ee 3f ff 7a 15 be ae 39 c0 3e f4 dc af be
       1.8660852 -0.145977 0.37544006 -0.3434826

lstm.bias_hh_l0 f4 [8]
000000 6b c7 14 bf bf 9d de be 88 f6 14 3e 09 d6 9b be
       -0.5811679 -0.43479726 0.14547169 -0.30436733
000010 e3 49 97 3f 6e 38 36 bf 5e e0 70 3f fb b5 b7 bf
       1.1819423 -0.71179855 0.9409236 -1.4352411

fc_1.weight f4 [128, 2]
000000 c2 40 01 bf 4a a2 aa 3e 54 e8 4e 3e d0 d0 64 3d
       -0.5048944 0.33326942 0.20205814 0.0558632
000010 e5 4c 4d bf bc e4 98 bf 6b 56 28 bf b4 e7 00 3e
       -0.80195457 -1.1944804 -0.65756863 0.12588388
000020 11 92 e1 be e5 4e 1a bf 3e d8 81 3d e3 fc 44 bf
       -0.44056752 -0.60276634 0.06340073 -0.76948375
000030 c8 ba 9a bf 02 eb ae bf 1c b7 d3 bf 20 82 89 be
       -1.2088251 -1.3665469 -1.6540256 -0.2685709
000040 38 92 be 3d f8 f5 b4 bd 9a 98 a5 3e 62 47 2c bf
       0.09305233 -0.08835977 0.32342988 -0.6729642
000050 00 db 1d 3b 80 9f 43 bc 65 f4 1e bf 96 e9 a0 bd
       0.0024086833 -0.011939883 -0.62091666 -0.07857053
000060 c7 a5 0a 3f 40 44 b0 3d 60 9b 10 3e dc d0 0a bf
       0.54159206 0.08606768 0.14121771 -0.54224944
000070 80 cf ec bd fb 34 33 bf 25 c9 9c 3e 7b 9c e0 be
       -0.11563015 -0.70002717 0.3062221 -0.43869385
000080 d2 7a 2d bf d8 e8 16 be 53 30 a8 bf fd 01 e4 be
       -0.67765534 -0.1473726 -1.3139747 -0.44532767
000090 ce 2c f1 bf fc ab 47 bf 45 1d 20 be 16 80 1e 3f
       -1.8841798 -0.779968 -0.15636165 0.61914194
0000a0 00 4a c4 be 38 a6 83 3e c7 4e 39 3e 6f 4f fd 3e
       -0.38337708 0.25712752 0.18096457 0.49474666
0000b0 bf 42 a3 bf 61 36 e2 be 4e f6 4b bf 17 7e 31 bf
       -1.2754744 -0.44182113 -0.79672706 -0.6933302
0000c0 9b b4 2b bf 52 28 27 be fb b9 f4 be d0 cc f8 bd
       -0.6707246 -0.16323975 -0.47798142 -0.1214844
0000d0 11 2e 41 bf 4a ad 69 be 06 dd bc be 21 b0 6c 3f
       -0.75460917 -0.22820011 -0.36887378 0.9245625
0000e0 b5 04 01 3f ba e3 59 3d 60 05 f5 bd a8 04 db bd
       0.5039781 0.053195693 -0.11963916 -0.106942475
0000f0 9b 76 70 3f 88 cc 6b bf df 6c 2e 3f 58 08 bf 3d
       0.9393098 -0.92108965 0.68134874 0.09327763
000100 c0 ad e8 3c 76 69 80 3e 24 55 a0 bf 80 ef 93 bf
       0.028403163 0.2508046 -1.2525983 -1.1557465
000110 44 e2 48 be 3f 20 68 bf cf 91 08 bf 1c 06 aa bd
       -0.19617563 -0.90674204 -0.53347486 -0.083019465
000120 ff 0c 45 bf 08 41 ef be b5 c1 2e bf 47 19 8a bf
       -0.76972955 -0.46729302 -0.68264323 -1.0788964
000130 18 09 9c ba ec e3 18 bf 4c 48 a4 3e f2 20 0a bd
       -0.0011904566 -0.5972278 0.32086408 -0.033722825
000140 40 91 dc be 34 78 d3 be 12 75 ec bf 9b fc d6 be
       -0.43079567 -0.41302645 -1.8473227 -0.41989598
000150 e4 fa cb 3d 03 68 cf be 29 df 0d be ed dc 6d be
       0.09959963 -0.40509042 -0.1385466 -0.23228808
000160 e2 17 1b bf de a2 fb 3e d6 b1 d1 3d c4 5a d0 3e
       -0.6058332 0.49147695 0.10238998 0.4069425
000170 90 3e 22 bf 90 46 3e bd a0 9e 8c bc 86 a0 10 bf
       -0.6337671 -0.046454012 -0.017165482 -0.5649494
000180 25 6c 3a bf c5 0a 1e 3d 19 5b 91 3f b3 69 a5 3f
       -0.72821265 0.03858449 1.1355926 1.2922882
000190 0e 95 a3 3e 56 1b 93 be 05 9f 42 3e e4 77 08 3f
       0.31949657 -0.28731793 0.19005974 0.5330794
0001a0 1c 6d 06 3f da 00 cb bd e8 2d ec be f2 0b 92 3d
       0.5251024 -0.09912272 -0.46128774 0.07131185
0001b0 4b c7 54 3e ab 04 8c be 5e 1b 0c bf 2e 2c 8c bf
       0.20779149 -0.2734731 -0.5472926 -1.0950983
0001c0 19 8f aa bf 37 d9 2a bf ce c8 c0 be 88 28 2c 3e
       -1.332492 -0.66737694 -0.37653202 0.16812336
0001d0 e0 b8 69 3d d4 f0 06 bf 9e ce 82 be 10 97 15 3f
       0.057061076 -0.52711225 -0.2554826 0.5843363
0001e0 dc 71 2d bf 5b ca 86 bf ec 88 b3 bf ff 1c a3 bf
       -0.6775186 -1.0530504 -1.402616 -1.2743224
0001f0 2d ef 97 bf d8 cc b0 bf ee bb 80 bf 74 6e 92 3d
       -1.1869866 -1.3812513 -1.0057352 0.071499735
000200 54 e8 2f bd 81 50 f8 3e eb 24 f5 be 8a cb bd bd
       -0.042946175 0.4849892 -0.4787973 -0.092673376
000210 60 d4 1f bf a8 7f 1a be 74 b3 3e be b4 44 2d be
       -0.62433434 -0.1508776 -0.18623143 -0.1692074
000220 54 48 96 bf f5 f1 8d bd b8 7c d9 bf fc 56 8d bf
       -1.1740823 -0.06930915 -1.6991186 -1.104217
000230 30 1f 9a be 08 6c 1e bd d8 34 53 3e 89 44 0a 3f
       -0.3010192 -0.038677245 0.20625627 0.54010826
000240 e2 0f a1 be 10 d4 58 3e 46 d4 a5 bf 56 de 16 3d
       -0.3145743 0.21174645 -1.2955406 0.03683313
000250 e7 f1 9d be 80 2e 99 3b d4 6e dc be 99 b6 6f bf
       -0.3084862 0.0046747327 -0.43053305 -0.93637997
000260 dd 39 e7 bf 68 cc a2 bd 36 d3 e2 be 81 82 8d be
       -1.8064533 -0.07949144 -0.44301766 -0.2763863
000270 50 98 ef bd 72 82 73 be 47 d4 08 bf 8d c8 c9 3e
       -0.11698973 -0.2378023 -0.5344891 0.3941082
000280 a0 01 30 bf ae 68 d1 be a9 77 77 3c 8e cf 01 bf
       -0.6875248 -0.40900177 0.015104213 -0.5070733
000290 76 56 d4 be 2b 71 39 bd 60 3b 5b be 88 df f7 be
       -0.41472214 -0.04527394 -0.21409369 -0.48412728
0002a0 40 2f a1 be 30 d2 56 3d f8 c8 86 3d 18 8d 0d be
       -0.3148136 0.052446544 0.065813005 -0.13823354
0002b0 2e b8 dc bd d3 a7 5b bf 08 de 35 3e eb 8f 9c be
       -0.10777317 -0.85802954 0.1776048 -0.3057855
0002c0 88 b0 42 3e 1e 71 5e 3f c6 4c 26 bf f4 9f 33 bf
       0.19012654 0.86891353 -0.64960897 -0.70165944
0002d0 02 90 bb 3e 40 5e 07 bf e5 35 b4 3f fc 49 58 bf
       0.36633307 -0.5287819 1.4078947 -0.8448789
0002e0 1a a5 ec be 79 58 98 bf 2e 92 0b bd 2e 65 92 be
       -0.46219712 -1.1902 -0.034074955 -0.2859282
0002f0 fc be 29 be 8a b2 0d bf 07 0c 7e bf 5a 5c 90 bf
       -0.16576761 -0.55350554 -0.992371 -1.1278183
000300 fd cd c2 be 3d 91 08 bf 42 81 9f 3e 3c ec 63 3e
       -0.38047782 -0.53346616 0.31153303 0.22258085
000310 68 94 cf bd 72 8f e5 be 4e 04 24 bf 3b d9 42 be
       -0.10135728 -0.44836003 -0.6406907 -0.1902818
000320 c8 33 f8 be da ac 0e bf 44 f8 44 3e d0 08 11 bf
       -0.48477006 -0.557325 0.19235331 -0.5665407
000330 25 02 17 bf 4f a9 23 bf d4 6a 0e bf 78 39 85 bf
       -0.5898765 -0.6393022 -0.55631757 -1.0408163
000340 22 26 c9 be 6a 75 99 bf 5a 4c 4d bf 43 07 93 bf
       -0.39286906 -1.1988957 -0.8019463 -1.1486591
000350 a0 20 02 be bc 1c 11 bf 61 b4 e1 be f8 b0 9c 3d
       -0.12707758 -0.5668447 -0.4408293 0.076509416
000360 d2 88 55 be ca fb 7d be 08 00 5b be e3 3c 15 3f
       -0.20852974 -0.24803081 -0.2138673 0.5829603
000370 58 84 d8 bd 77 7e e7 be 76 10 18 3e 0a 57 f7 3d
       -0.105721176 -0.45213673 0.1485003 0.12077148
000380 52 c5 dc 3e d0 7c 78 3d a7 75 47 bf 24 5d 19 3f
       0.43119293 0.060665905 -0.779139 0.59907746
000390 1d f3 86 bf 91 c7 3e be 55 07 93 bf fe 63 bd bf
       -1.0542942 -0.18630816 -1.1486613 -1.479614
0003a0 37 23 c9 be 92 4a cd 3e c0 f1 45 bc 9c 87 57 be
       -0.3928468 0.40095955 -0.0120815635 -0.21047825
0003b0 30 dc ed bd 82 c6 c4 3e c3 a9 c6 bf 1d 55 ae bf
       -0.11614263 0.384327 -1.5520557 -1.3619725
0003c0 c3 49 83 bf 4b de 0e 3e c1 43 34 bf d6 2a d5 3e
       -1.0256885 0.13951986 -0.70415884 0.41634244
0003d0 c5 5c fb be d0 4f 32 bd f1 7f 9e 3d 3a f6 85 ba
       -0.49094215 -0.043533146 0.07739247 -0.0010220476
0003e0 a0 6c 81 bd d4 57 55 3e e2 21 b7 be be cd 86 bf
       -0.06319547 0.20834285 -0.35768038 -1.0531538
0003f0 91 a4 2a bf 2b f8 70 3e bb dc cf bf d4 7c a6 be
       -0.6665736 0.23532169 -1.6239237 -0.3251711

fc_1.bias f4 [128]
000000 fe e3 64 be 88 82 46 be f6 ca 25 bf 06 d6 47 3f
       -0.22352597 -0.19385731 -0.6476282 0.7806095
000010 36 0b 31 bf 6c b2 18 bf 2e 56 3f bf e0 1d 68 3e
       -0.6915773 -0.5964725 -0.74740875 0.22667646
000020 e0 ce 78 be 12 6b dd be f6 6f 0b bf 72 cf 05 bf
       -0.24297667 -0.4324575 -0.54467714 -0.5226966
000030 72 98 1c bf 8e 6e 7c be 3b 08 10 bf 63 57 18 bf
       -0.61170113 -0.24651548 -0.5626256 -0.5950834
000040 02 c8 cd be 57 8c 38 3e 66 5f 84 3e ae 80 52 bf
       -0.40191656 0.18022285 0.25854033 -0.822276
000050 84 98 63 be ed 24 e0 3e 3f b9 26 bf 17 16 42 bf
       -0.22226149 0.43778172 -0.65126413 -0.75814956
000060 94 88 05 3f c0 f2 f9 bd 68 9e 2d bf 36 5d 48 3f
       0.52161527 -0.12204504 -0.67819834 0.7826723
000070 cb 6f 15 3f 22 74 b7 be 96 1a ab be 46 c7 2d bf
       0.5837371 -0.3583079 -0.3341872 -0.6788219
000080 e3 f0 15 bf de de 3e bf 48 d7 39 bf 8e 2d 98 3c
       -0.5857069 -0.7455882 -0.7259412 0.01857641
000090 3b ea ce be 8a 20 04 bf f2 13 e2 3e 75 2c 1c 3e
       -0.4041308 -0.5161215 0.44155842 0.15251334
0000a0 a6 67 bd be ac 62 84 3d b3 80 83 3e 1f 6e 03 bf
       -0.3699314 0.06464133 0.25684127 -0.51339906
0000b0 dd 5f f7 be 77 2a 51 3d bd c1 eb bd b5 a9 84 be
       -0.48315325 0.05106589 -0.11511562 -0.25910726
0000c0 07 d1 ee be 8a 2f 14 bf e2 f1 2a bf 28 6f 93 bf
       -0.4664385 -0.5788504 -0.66775334 -1.1518297
0000d0 b3 51 12 3f a5 78 44 3f 1d d1 0e bf 61 c1 fc be
       0.57155913 0.7674659 -0.5578783 -0.49366286
0000e0 c4 1a 41 bf e8 8d 8f be 26 96 b7 be 2c cb 2e 3f
       -0.75431466 -0.28037953 -0.35856742 0.68278766
0000f0 82 6d 74 3e 4c fd 21 bf fb c1 97 be 27 39 fc be
       0.23869899 -0.63277125 -0.29640183 -0.49262354
000100 4b 94 6c bf c4 5b 97 bf ab a0 22 bf 14 6e 6d be
       -0.9241378 -1.182488 -0.6352641 -0.23186523
000110 d7 9f 27 3d 7b d9 6e 3e 7f f5 08 bf 40 cd 8d 3e
       0.04092392 0.2332515 -0.534996 0.27695656
000120 75 2f 1b bf 59 1a 00 bf 03 fc 10 bf 3d 96 e0 be
       -0.6061929 -0.50040203 -0.5663454 -0.43864623
000130 00 7f 7d 3e 18 60 c7 be 89 4d e2 be 51 fc 00 3f
       0.24755478 -0.389405 -0.4419978 0.50385004
000140 0f ee 03 bf db 09 f7 be 54 1f 69 3d 5a 53 0e bf
       -0.51535124 -0.48249707 0.056914642 -0.55595934
000150 0d 36 19 bf 93 a8 21 bf 1a 54 26 bf 9a f2 22 bf
       -0.598481 -0.6314785 -0.6497208 -0.6365143
000160 dd 7e 21 3f e0 a9 e7 bc 23 c9 08 bf 23 26 93 be
       0.63084203 -0.028279245 -0.5343191 -0.28740034
000170 79 af 31 bf b1 da 86 bf 28 6d a3 bd 7d 72 b2 3e
       -0.69408375 -1.0535489 -0.07979804 0.34852973
000180 6a f4 01 bf c6 28 34 bf e3 df 08 bf 7f 70 b6 be
       -0.5076357 -0.70374715 -0.53466624 -0.35632703
000190 6b 11 5a bf 54 91 22 bf 3c 59 6a be df db 3b bf
       -0.8518283 -0.63503003 -0.22885603 -0.7338237
0001a0 d9 73 26 bf b3 f0 12 be 98 d5 86 bd d7 98 b4 be
       -0.6502052 -0.14349632 -0.065837085 -0.35272858
0001b0 59 34 39 bf 01 62 1b bf e4 dc 17 be dd d3 36 3f
       -0.723455 -0.6069642 -0.14830357 0.7141703
0001c0 64 af ba be 0b 31 17 bf b8 2d 14 3e 15 19 26 bf
       -0.36461937 -0.5905921 0.14470565 -0.6488202
0001d0 ce ce bb 3e 44 54 c8 be dd d8 86 be b3 ba 37 bf
       0.36681217 -0.3912679 -0.2633733 -0.71769255
0001e0 fa a3 0a bf 40 f1 8a be 53 dd 68 bf 05 80 3e bf
       -0.5415646 -0.27137184 -0.90962714 -0.7441409
0001f0 02 fe aa be 92 d8 31 bf 2c f0 07 bf ed 88 29 bf
       -0.33396918 -0.69471085 -0.5310085 -0.6622456

fc.weight f4 [1, 128]
000000 28 7c 06 3d 60 c7 b9 bc 8f d3 04 3f cf b4 cb 3e
       0.03283325 -0.022678077 0.5188531 0.39786384
000010 82 84 e1 3e f3 af b6 be ba 14 cd 3e 46 bf 8e 3e
       0.44046408 -0.35681114 0.40054876 0.27880305
000020 b2 a4 94 bd 6a 09 a2 bd 03 f5 90 3d ae 9b 0b 3f
       -0.07257976 -0.07911952 0.07077982 0.54534423
000030 b0 3f 55 bc 59 8b 8f 3d 4b 6f b2 3d 2e b8 9b be
       -0.013015673 0.07009 0.08712634 -0.30413955
000040 eb 30 9a 3d 48 91 87 3e e0 f8 91 3e 0b 02 f0 3d
       0.075288616 0.26478028 0.2851019 0.1171914
000050 f0 78 da 3b f4 5b 92 3e c2 45 f9 3e 7f 64 d6 3e
       0.006667249 0.2858578 0.48686033 0.41873547
000060 e2 ce 8e 3e 1a e1 ec bc 62 37 ec 3e c6 f3 ce 3e
       0.27892214 -0.02891593 0.46136004 0.4042036
000070 51 fa a7 3e f4 72 96 3c 97 8b 78 3d e8 83 3d bc
       0.32808164 0.01836536 0.06068 -0.011567093
000080 4d bb 16 bd e2 30 c0 3e a1 1b cc 3e db 3a b2 3d
       -0.036799718 0.37537295 0.3986483 0.08702632
000090 33 17 0f 3f 56 fd 03 3f f6 c3 78 3e 1b 0c 02 3e
       0.55894774 0.51558435 0.24293503 0.1269993
0000a0 d7 b2 a7 3d 7c a4 8d 3e 97 d5 31 3e f7 81 0e 3f
       0.08188408 0.27664554 0.17366634 0.5566706
0000b0 66 b1 73 3d 90 cd 34 3d a0 92 a7 3e 24 31 8a bd
       0.059495352 0.044141352 0.32729053 -0.06747654
0000c0 9c 26 13 3f 3a 38 07 bf a8 6b 85 bd 8b 62 8d 3e
       0.5748079 -0.5282017 -0.065146744 0.27614245
0000d0 9f b9 af 3e cf 4f cb 3e 62 5d d5 be d0 28 06 3f
       0.34321305 0.39709327 -0.41672808 0.52406025
0000e0 05 d8 dd 3e 70 f4 ad bc ca 9e 7d 3d 47 f6 b9 3e
       0.43328872 -0.021234721 0.06191901 0.36320707
0000f0 5d 31 80 3e c2 1b 97 3e fd 6b 60 3e 38 27 0c 3f
       0.2503766 0.29513365 0.21916194 0.54747343
000100 27 6d 93 3e 80 e7 32 bf a0 3b 86 3c 51 52 82 3d
       0.28794214 -0.6988449 0.016385853 0.06363357
000110 37 8c fc 3d 80 8b 8d 3e c3 62 0d 3f 24 24 55 3e
       0.12331431 0.27645493 0.55228823 0.20814568
000120 3f f4 af 3d ee 8b 0f 3f d5 24 a6 3d a7 a7 99 3e
       0.08591508 0.5607289 0.08112494 0.3001072
000130 27 2a a4 3e 8e 84 73 bd 4d 29 13 bd 31 44 a3 3e
       0.3206341 -0.059452586 -0.03592806 0.31887963
000140 cf 6a 0f 3f bf 71 26 bf b3 ad ae 3d dc 23 a7 bd
       0.5602235 -0.6501731 0.08529224 -0.081611365
000150 41 65 8f 3d d6 c2 4f 3d 45 d9 09 3f 8c 80 99 bd
       0.070017345 0.05072292 0.5384715 -0.074952215
000160 89 cd b9 3e 28 22 ed bc 18 79 37 bc cc 43 51 bf
       0.36289623 -0.028946951 -0.011198305 -0.81744075
000170 3e a8 a3 3e da 74 93 be 27 b0 9a 3d f4 d7 8d 3e
       0.31964296 -0.28800088 0.0755313 0.27703822
000180 32 9c 4b 3d 53 a1 a9 3d 10 eb db bb 2f 51 a0 3e
       0.049709506 0.08282723 -0.0067113712 0.31311938
000190 95 59 20 bf 54 9a 87 bd a0 0a 3d 3b 95 f9 c5 3e
       -0.6263669 -0.06621233 0.0028845444 0.38666978
0001a0 5f 96 e4 3e 35 91 84 3e 48 79 49 3c 3e 6c 5f bd
       0.44645974 0.25892034 0.012296982 -0.054546587
0001b0 f8 2e 12 3f 1b 7d 76 be 9c 18 10 bd c2 09 c8 3e
       0.5710292 -0.24071161 -0.03517972 0.39069945
0001c0 80 bf 75 bd 07 a0 38 be bb b6 86 3e 1c 1d 83 3e
       -0.05999708 -0.18029796 0.26311287 0.25608146
0001d0 37 26 83 3e 30 e6 ab bc 70 8e ad 3b 4f 4d b2 3e
       0.25615093 -0.020983785 0.005296521 0.34824607
0001e0 18 82 d4 be 52 d8 93 bd 15 dd 41 3f 64 05 18 3f
       -0.41505504 -0.07218994 0.7572797 0.59383225
0001f0 7e a6 7c bd 54 07 df 3e d4 cc 75 be 68 a5 c6 3e
       -0.061682217 0.43560278 -0.24003917 0.3879807
