backups/2022-05-27/best-model-8.pt (torch, 4623 bytes, 7 tensors)

lstm.weight_ih_l0 f4 [8, 4]
00000000: 6d25 2d3e 9ed6 363e abc9 c5bc 4ad3 05be
00000010: 39b8 a73f 92c3 06be f6f3 cc3d bd81 883c
00000020: bad6 a0be d834 483e 0ba3 1a3f 2b89 1d3f
00000030: f7bd 23bf f0ac 27bd c720 fbbe c0b4 e9bd
00000040: 6105 a23e a3b3 5b3d 0841 e2be eb06 063f
00000050: f2cc edbe 75d1 b9be fa76 0fbf dcec 87bf
00000060: 57e7 80be a3c9 32be bd3c 10bf 945e 3a3e
00000070: 97c3 dfbf 4f02 27bf a794 a43f b1b7 4abf
0.16908808 0.17855307 -0.024144014 -0.13068882 1.3103095 -0.13160542 0.10007469 0.016663427
-0.31413823 0.19551408 0.60405034 0.61537427 -0.6396174 -0.04093641 -0.49048445 -0.114114285
0.3164473 0.05363811 -0.4419024 0.52354306 -0.46445423 -0.36292616 -0.5604092 -1.0619159
-0.25176498 -0.17459731 -0.5634268 0.18200141 -1.7481564 -0.652379 1.2857865 -0.7918654

lstm.weight_hh_l0 f4 [8, 2]
00000000: 47fc 8ebe 783b fa3d b467 bdbe 9bd4 03bf
00000010: c44c 10be b755 303f f478 483e d891 1b3e
00000020: 90a6 1c3d 1395 333f ed14 2a3f 207e 6cbe
00000030: 640e 51be 6065 d6bd 3f6c 093f 58d1 11be
-0.27926847 0.12218374 -0.36993182 -0.51496285 -0.14091784 0.6888079 0.1957739 0.15192354
0.038244784 0.70149344 0.6643818 -0.23094988 -0.20415646 -0.104685545 0.53680795 -0.14240015

lstm.bias_ih_l0 f4 [8]
00000000: d918 c2be cbe5 13bf 2488 2dbe 004f d83b
00000010: 70ef 463f fbeb ecbe 6338 b2be bcdd 593d
-0.37909582 -0.5777251 -0.16946465 0.0066012144 0.777091 -0.4627379 -0.34808645 0.053189978

lstm.bias_hh_l0 f4 [8]
00000000: b292 01be 2409 de3d e0a4 01be a0fa 36bd
00000010: 500c 173e be4d 1e3f 912c a6be 0122 303e
-0.12653616 0.10841587 -0.12660551 -0.04467261 0.1475079 0.61837375 -0.32455876 0.17200471

fc_1.weight f4 [128, 2]
00000000: c139 0abf 0c43 8abd 2c57 fdbe dc17 213e
00000010: 6865 2dbf 6c0f 38be 066f c33e c9d6 c2be
00000020: cb30 12bd ac4b 1ebe 3ffc b1be d8e8 88bd
00000030: 99d8 f83c 3aa1 f6be ae19 113e 18a9 44be
00000040: f7df 9a3e 0e95 0f3f 9b05 c33e 076f 353e
00000050: c955 2c3f 7ad7 fe3e 2628 37bf 385d e6be
00000060: 43b2 2d3f 80d3 1cbf 0070 b8bc 2021 cd3c
00000070: 4853 083e 4173 13bf 0082 3dbe 5093 963d
00000080: 9e95 28bf a498 bb3e 4a91 d93f 8b6a f33e
00000090: 9086 30bf 70c8 9c3d e035 f13c 7c5f 49be
000000a0: 08b3 b9be 62b8 8a3e 8c55 edbd d839 513d
000000b0: db83 cbbe d7b3 c1bf 576b 45bf 8ffe 093e
000000c0: 249a 7cbf 632a a4be 1931 df3d e3fd 843e
000000d0: 1855 e03d 5052 8d3e 42d3 87be 509b 4cbf
000000e0: 9ced 53be 109f 1ebe 5f3d c7be 5229 223f
000000f0: 8a09 e3bd f8fa 20bf 1e44 d73e e626 a3be
00000100: 984e da3d bad1 bc3e d512 1b3f a3b0 123f
00000110: 88ba 50bc b9e6 df3e f070 553d e030 81bd
00000120: 5677 0d3d 081f 6ebd b1f6 37bf cde1 4e3e
00000130: b85d 7cbe a205 cd3e 15b4 a63f f749 e1be
00000140: e585 babe 7368 87be 22f1 033f 7de4 f1bd
00000150: eba8 cb3d 083a 78bf 6d8b 0f3f b311 f2be
00000160: b01a 353d f180 cdbe 7d82 a5be 7889 5fbe
00000170: 32c8 33bf e6e5 453e b64e f23f 9291 2e3f
00000180: 090a 1cbf 041d 08bf 4b00 98bd cf0f f4be
00000190: 3850 343f a17a 24bf dd36 d43c 395c 34be
000001a0: 768b 26bf cc98 933d 241a 0fbf 152f 113f
000001b0: eb0a 4fbf 79f8 733e 8dd3 2fbf ca46 02bf
000001c0: 40ad da3d 4027 30be a08c bfbd 1668 af3e
000001d0: b609 2c3e 4ab9 693e 37d6 d5bd f003 d5be
000001e0: 1e0b 9ebe 9a48 913e 7347 51be 32ae aabe
000001f0: 9218 78bf f287 a13c d48d 24bf f6e1 00bf
00000200: 8647 ffbe 8d5b 08bf 20ca c4be 7174 1ebf
00000210: 0072 40bd 2c8d 33be 75d6 08bf 62c2 c63f
00000220: edff 67bf 5421 813e 2dc0 81be 0260 f53e
00000230: f258 2ebf a1d3 90be 0666 17be cd7b a63e
00000240: 518b d63e 20c8 e4bc a077 e3bc 0bc3 d6be
00000250: 3505 3cbf 4861 a03c c6c5 17bc e2f9 85bf
00000260: 8bda 833e 6087 803e ee24 3ebf 8851 0b3f
00000270: 4cc8 bf3d b4f3 3a3e a5dc a7be 1bd5 2d3d
00000280: 9102 7bbe e281 09be 458f 303e 85de 813e
00000290: 5d47 ba3f 7a3d 2d3f fd87 e5bd d5d9 a4bd
000002a0: bf89 6abc a928 ecbe d7df 21bf 8f3a a3be
000002b0: 096b 9dbd 8b4b a0be 3696 a7bf 4383 0c3e
000002c0: ec48 27bf 40c7 dc3c 17d7 013e 83df 81be
000002d0: 82b6 a7be 292c ae3e 99ae de3e be30 91bc
000002e0: d984 d0be 5b11 57bf 13b7 f0be 8bbc 21bf
000002f0: 8348 0cbf 424a ad3e ca5c 4cbe 9597 b43e
00000300: 0473 f8be c86e 6d3e b78a e8bd 3828 fc3e
00000310: fe3a 36bf dea4 a93e e93d 15be 230a 06bf
00000320: 5aa7 34bf 7a09 32bf 161f c7be ee9d e83b
00000330: 38ca 41be b3d3 143f b27f f1be d8e9 843e
00000340: 01f3 93c0 b1ef 963e 8cb9 8f3e ae05 423d
00000350: 58c7 b03d c627 3ebf d10a ecbd 3087 58bc
00000360: c38f 5dbf eb56 1dbf 7b63 d9bf a468 353e
00000370: 89e2 2e3f bd82 b9be 2f8a a7be 8298 ffbe
00000380: 72b0 b7be 00dd 633e f325 123f bc32 253e
00000390: 061a f93e 46c9 19bf 1a77 9abe 2c1f 2a3e
000003a0: a5c7 1f3f 8628 87be c8cf a7bd eba1 1b3f
000003b0: 4281 88be 5a1b fc3e 30e8 043d a08f 54be
000003c0: b9d1 b33e a82c 29bf 61fd 593f 2af4 10bf
000003d0: 2347 7ebd a92b 4e3e 3efa 053f d3df 383d
000003e0: 0b40 80bf 5676 21bf d958 d5be 67c5 a2be
000003f0: 9cd5 733e 80b0 b73e cb35 1bbf 983b 233d
-0.53994375 -0.067510694 -0.4948057 0.15731758 -0.6773286 -0.17974633 0.38170642 -0.38054493
-0.035691064 -0.15458554 -0.3476276 -0.066850364 0.03037672 -0.4816988 0.14169952 -0.19205129
0.30248997 0.56086814 0.38090214 0.17718135 0.673184 0.4977377 -0.71545637 -0.44992995
0.6785013 -0.61260223 -0.022514343 0.02504021 0.1331302 -0.5759774 -0.18506622 0.073523164
-0.658533 0.36639893 1.6997464 0.47542223 -0.68955326 0.07655418 0.029444635 -0.1966533
-0.36269403 0.27093798 -0.115885824 0.051080555 -0.39749035 -1.5133008 -0.7711691 0.13476013
-0.986727 -0.32063589 0.108980365 0.2597495 0.1095373 0.27601862 -0.26528364 -0.7992449
-0.2069611 -0.15490365 -0.3891401 0.633443 -0.11085804 -0.6288295 0.42044157 -0.31865615
0.10659522 0.3687876 0.6057561 0.57300776 -0.012739785 0.43730715 0.05210966 -0.0630815
0.034537636 -0.058135062 -0.71860796 0.20203324 -0.24645126 0.4004336 1.3023707 -0.44001743
-0.36430278 -0.26446876 0.51539814 -0.11811159 0.09944328 -0.9696355 0.5607212 -0.47279128
0.044214904 -0.40137437 -0.32326117 -0.21829784 -0.7022735 0.1932598 1.8930271 0.6819087
-0.6095281 -0.53169274 -0.07421931 -0.4766831 0.70434904 -0.64249617 0.025905067 -0.17613305
-0.6505655 0.07206878 -0.5589926 0.56712466 -0.80876034 0.23825254 -0.68682176 -0.50889266
0.10677576 -0.17202473 -0.09352994 0.342591 0.1680058 0.22824588 -0.10441249 -0.41604567
-0.30867857 0.28375703 -0.20437412 -0.33336025 -0.9691249 0.019718144 -0.6427891 -0.5034479
-0.49859256 -0.53264695 -0.3843546 -0.61896425 -0.04698372 -0.17534322 -0.53452235 1.5528071
-0.90624887 0.2522074 -0.2534193 0.4792481 -0.6810447 -0.2828646 -0.14785013 0.32516328
0.41903165 -0.027927458 -0.027767003 -0.4194568 -0.73445445 0.019577637 -0.009263461 -1.0466883
0.25752673 0.25103283 -0.742751 0.5442128 0.093643755 0.18257028 -0.32785526 0.04243956
-0.24512698 -0.13428453 0.17242153 0.2536508 1.4553028 0.6767193 -0.11207578 -0.08049361
-0.014315068 -0.4612477 -0.6323218 -0.31880614 -0.07686431 -0.31307635 -1.3092716 0.13721947
-0.65345645 0.026950479 0.12679707 -0.25365838 -0.3275643 0.34018067 0.43492582 -0.017723437
-0.40726355 -0.8401086 -0.47014675 -0.6317832 -0.54798144 0.33845717 -0.19957271 0.35271898
-0.4852525 0.23186791 -0.11354583 0.49249434 -0.71183765 0.33133596 -0.14574398 -0.5235922
-0.7056786 -0.6954571 -0.38890904 0.007098905 -0.18924797 0.5813553 -0.47167736 0.2595966
-4.6234136 0.29479745 0.2807125 0.047368698 0.08631772 -0.7427944 -0.115255006 -0.013215825
-0.8654749 -0.6146075 -1.6983484 0.17715698 0.68314415 -0.36232558 -0.32722613 -0.49921042
-0.35876805 0.22252274 0.57089156 0.16132635 0.48652667 -0.60072744 -0.30168992 0.16613454
0.6241401 -0.26398104 -0.08193928 0.6079394 -0.26661116 0.49239618 0.032447994 -0.20757914
0.35120943 -0.66083765 0.8515225 -0.56622565 -0.06207956 0.20133843 0.52334964 0.04513533
-1.0019544 -0.6307119 -0.41669348 -0.3179123 0.23811954 0.35876846 -0.60628957 0.039851755

fc_1.bias f4 [128]
00000000: 96ca b43e 0f86 e4be e4fb cdbe 0941 fd3e
00000010: 379c 96bd 3a4c 6dbe b24f ec3e 6307 ed3e
00000020: 3f02 913e 9672 243f b399 31bf de83 0c3e
00000030: 7281 00bf 16e0 fdbe 6088 d4bd d8b2 f0be
00000040: 6886 743e e897 1bb9 0fcb a9be 8804 23bf
00000050: 4d3a bcbe 651b 993e adde 593e 38d7 5f3e
00000060: db17 003f eea5 67be 3c1a 1fbe b790 1b3f
00000070: ac80 16be 099c 96be 7877 99bd 0398 8cbe
00000080: 7dad 8abe eabf 25bf 26ab 213f c063 a3bd
00000090: b63f 70bb 5fe8 123e d63c 14bf 2dd9 0dbe
000000a0: f0f9 2abf 8ef4 75be 2104 953e 6bc3 28bf
000000b0: 68bf a4be 8e8e 23bf f66f 563e badb 4ebe
000000c0: f270 5dbe 9ced 033e b73c adbd 53e7 1f3f
000000d0: a2c1 3a3e 1fd1 b6be cf5d 253e e445 2abf
000000e0: c956 24bf 3b88 e7be a2bc c43e 1789 433f
000000f0: 87e7 7b3d 6564 823e 4d7c 683e f127 3c3f
00000100: 980f 79be 58b5 d33e a5d9 07bf cb47 d93d
00000110: e71d b03e dc1e febe 011d 28bf 5a85 c8bd
00000120: b334 54be 60e1 73be 4a22 9b3e ba0f e63e
00000130: eefc a63b 339b ea3e 7684 9ebb 5e76 483e
00000140: 3de3 da3e 3ee9 f9bd b424 e0bb 413c 99bd
00000150: e161 fa3d 9034 293f 3c48 1c3f afb4 5d3d
00000160: 342d e7be 9aa2 473e 4bbc 3bbe bd77 383f
00000170: d993 1a3f 8c69 09bf 5076 f3be 510e 4dbe
00000180: 7312 0a3f 17f1 283f 940d ca3e 3cb9 ec3e
00000190: 0606 efbe d237 963e 2325 d0be 8016 6fbe
000001a0: e12e 453e f184 2c3f 9220 d13e d88c eb3e
000001b0: 1007 3f3f ef72 903d 2d4a debe 508c 883e
000001c0: f86a 0fbf d072 f5be b0e6 a1be 0171 c4be
000001d0: 5823 22bf ac04 c8be da4f d13e 317d ccbe
000001e0: db70 273f e3bc 793d ee83 9e3e ebbf 423f
000001f0: 20d7 443e 10ce 23bf 85b2 b53e 10da 8c3e
0.3531081 -0.4463353 -0.4023124 0.4946368 -0.07354014 -0.2317361 0.46154553 0.46294698
0.28322026 0.64237344 -0.6937515 0.13722178 -0.5019752 -0.49585027 -0.10377574 -0.47011447
0.23879397 -0.00014838541 -0.33162734 -0.6367879 -0.3676323 0.29903713 0.2127635 0.21859443
0.500364 -0.22621891 -0.15537351 0.6076769 -0.14697522 -0.2941592 -0.0749349 -0.27459726
-0.27085486 -0.6474596 0.63151777 -0.0797801 -0.0036659068 0.14346455 -0.5790533 -0.13852377
-0.66787624 -0.24019071 0.29104713 -0.65923184 -0.3217728 -0.63889396 0.20941147 -0.20201007
-0.21625116 0.1288361 -0.08458846 0.6246235 0.18237928 -0.35706422 0.16149066 -0.66512895
-0.64194924 -0.45221123 0.38425165 0.7638106 0.0615001 0.2546722 0.22703667 0.73498446
-0.24322355 0.41349292 -0.53066474 0.106093965 0.34397814 -0.4963292 -0.65669256 -0.0979106
-0.20723228 -0.23816442 0.30299598 0.44933873 0.0050960695 0.45821533 -0.004837568 0.19576403
0.42751494 -0.122026905 -0.006840313 -0.07482196 0.122257 0.6609583 0.6104772 0.05412739
-0.45151675 0.19495621 -0.18333547 0.72057706 0.6038185 -0.53676677 -0.47551203 -0.20024993
0.539344 0.65992874 0.39463484 0.46235073 -0.46684283 0.29339463 -0.40653333 -0.23348427
0.19256164 0.6739035 0.40845162 0.46005893 0.7462015 0.07053172 -0.43415967 0.2666955
-0.56022596 -0.47939157 -0.31621313 -0.38367465 -0.6333518 -0.39066064 0.40881234 -0.39939263
0.6540658 0.060971152 0.3096003 0.76074094 0.19222689 -0.639863 0.35487762 0.27510118

fc.weight f4 [1, 128]
00000000: b944 d03d 04d9 83bc 7223 2f3d 1cfa 3a3e
00000010: 0afe 3c3d f6b1 91bd ca8e 3a3e 2744 f83d
00000020: 141f 2b3e 6a6c 453e 2945 adbd 5480 883d
00000030: 48b1 86bd abb6 a7bd 959e 52bd 00b9 263c
00000040: e965 db3d 2a35 44bf 38ee c9bc eae8 773d
00000050: 430e af3d 1771 053e 82fc 823e 603b 9f3d
00000060: b917 fe3d 7972 9dbd 126e 223d 851e 573e
00000070: f6a4 543d bc7e 193d 1283 673c b7e2 853d
00000080: 881d a6bc 7365 a43d 1358 5e3e 7cec be3c
00000090: 361c 86bb b56e fd3c bbf2 a13d e295 08bf
000000a0: 9349 883d 770f 2f3d b36d 803d c2e5 313d
000000b0: 347b bbbc eaab 2f3d 5b59 c53d 045a b2bf
000000c0: d4cc 803c fa46 7f3d 6053 e03e c3b8 1c3e
000000d0: 6a22 7d3d a020 6a3b b403 653d 0272 643d
000000e0: 8851 87bd f8e1 68bc a956 aa3d ea3a 4b3e
000000f0: 2ea4 423d 19ad 9b3d d077 953d d1a0 273e
00000100: 600b fc3b 0676 5b3e 3a50 6a3d a08a 013f
00000110: 601f e53d 73db 883d 30cb d1bc 5fe6 343d
00000120: 93c0 d93c 6536 a43d 3067 513e f643 b03d
00000130: 206c ac3c 83b9 343e af11 093c ba30 083e
00000140: d718 883d 3fe0 523d a79b 24bf d4c7 b03d
00000150: 85b1 353d 5cc0 523e 343f 0b3e dc0e 223e
00000160: ecb6 f83c fa24 873d 7694 0cbd a2df 313e
00000170: 63fe 2f3e b850 3ebd 20cb 40bc 680a a5bc
00000180: 8029 093e b81f 4c3e 797d 563e a21e d63d
00000190: 20ec db3b 4322 553d e2f5 4c3d 4e7e 9bbd
000001a0: 18dd 713f fd76 173e 2321 d53d b045 313e
000001b0: 7bd0 3c3e 895b 6d3e 2b5a 54bd 69d3 033e
000001c0: 2c99 df3c b552 8d3d 53b2 61bd c0c6 033c
000001d0: 102f 87bd 2142 a63d e433 183e 5b78 9ebd
000001e0: 8232 2c3e 67f5 1e3e ae15 1a3e feb5 603e
000001f0: db01 2f3d a4cc 9d3c 98f8 fd3d 1bd1 2d3e
0.10169358 -0.016094692 0.042758413 0.18259472 0.046140708 -0.071140215 0.18218532 0.12122374
0.16711074 0.19279638 -0.08460457 0.06665102 -0.065767825 -0.08189138 -0.051420767 0.010175943
0.10712797 -0.7664362 -0.024649724 0.06052486 0.08547642 0.13031422 0.25583273 0.07774997
0.124068685 -0.076878496 0.039655752 0.21007736 0.05191513 0.03747438 0.014130371 0.06537383
-0.020277753 0.080271624 0.21713285 0.023306124 -0.0040927185 0.030936578 0.07907625 -0.53353703
0.06654658 0.042739358 0.062709235 0.043432005 -0.022885896 0.04288856 0.09636184 -1.393372
0.01572267 0.062323548 0.4381361 0.15304856 0.061800398 0.0035725012 0.055911735 0.05577279
-0.06607348 -0.014214031 0.0831731 0.19846693 0.047519855 0.07601375 0.07298243 0.1636994
0.0076917857 0.21431741 0.057205416 0.5060215 0.11187625 0.066824816 -0.025609583 0.04416501
0.026581084 0.080181874 0.20449519 0.086067125 0.021047652 0.17648892 0.0083660325 0.13299838
0.06645363 0.05148339 -0.64300007 0.08631864 0.04435875 0.20581192 0.13598329 0.15825981
0.030360661 0.065988496 -0.03432127 0.17370465 0.17186885 -0.0464637 -0.011767179 -0.020146564
0.13394737 0.19933975 0.20946302 0.104550615 0.006711498 0.052034628 0.05003918 -0.0759245
0.9447799 0.14791484 0.10406711 0.1731174 0.18438904 0.23179449 -0.051843803 0.12873615
0.027294718 0.06900541 -0.055101704 0.008042991 -0.06600773 0.08118082 0.14863545 -0.077378
0.16816142 0.15523301 0.15047333 0.21944425 0.04272638 0.01926262 0.12400931 0.16974299
