backups/2022-05-27/best-model-6.pt (torch, 4623 bytes, 7 tensors)

lstm.weight_ih_l0 f4 [8, 4]
00000000: 92a3 e4be 2811 38be a455 4b3f 85e1 0b3f
00000010: 7e65 ff3d df7e 90bd 1196 0fbf bfac cebe
00000020: f656 c2be b3cf 1bbf 200c e73c 783e d0be
00000030: ca26 6ebe ac94 17be 2144 243f 406c 97bc
00000040: ca0a 493e 1d95 7abd 90cf 1fbf 13c9 893e
00000050: c4fa 9dbe 320c 283e 822e 14bf 8909 c8bf
00000060: e3e2 82be eb27 323f f45b 97be d8ba 453f
00000070: 7762 6abe f9f7 043d e470 b93e 7f18 85be
-0.44656044 -0.17975295 0.7942755 0.5464099 0.1247053 -0.07055449 -0.5608836 -0.4036617
-0.3795697 -0.608638 0.028204024 -0.4067266 -0.23256984 -0.14802808 0.64166456 -0.018484235
0.19633022 -0.06117736 -0.6242609 0.2691122 -0.3085538 0.16410902 -0.57883465 -1.562791
-0.25563726 0.6959216 -0.29562342 0.77238226 -0.22889124 0.032463048 0.3621894 -0.25995252

lstm.weight_hh_l0 f4 [8, 2]
00000000: e827 933e e093 aebe 2815 8dbd 954a 24bf
00000010: 40ea 6cbc 1a08 be3e 89ea e8be 10de 873d
00000020: d427 38be faf1 24bf 351d 013f 5011 b73d
00000030: 7e98 cc3e d0a1 debd e082 92bc 7b18 233f
0.28741384 -0.34097195 -0.06888801 -0.64176303 -0.014460146 0.37115556 -0.45491436 0.06634152
-0.17983943 -0.64431727 0.5043519 0.08938849 0.39960092 -0.10870707 -0.017884672 0.6370923

lstm.bias_ih_l0 f4 [8]
00000000: ff8b 49bf 7b2e 0c3f 4dc2 063f 6713 263f
00000010: a95e f13e 18cb 763f 088b 0b3e 4ebe 2c3f
-0.7872924 0.54758424 0.5264023 0.64873356 0.47142532 0.96403646 0.13627255 0.6747788

lstm.bias_hh_l0 f4 [8]
00000000: ef71 2fbf 34b3 93be c992 313f 5992 9abe
00000010: 5a5a 023f 0f48 463f 85e9 5c3e e137 91be
-0.68533224 -0.2884766 0.693646 -0.3018978 0.50919116 0.774537 0.21573456 -0.28362945

fc_1.weight f4 [128, 2]
00000000: 3cc2 493e 30f0 113e c96b 1d3f d054 37be
00000010: c371 153f 9857 163e 57f3 dabd 8fd6 a23f
00000020: 5fa2 1abf cca2 513e f3fb 5cbe c490 173c
00000030: 2bff c63e c62d 533e c0e8 1abf 5536 a13e
00000040: 3ddc 17bf 193e 0a3d ec95 6f3e 1dde b3bd
00000050: 9fc1 84be 43f2 f4be 4211 e1bd e686 db3d
00000060: b079 d6bf de43 333f e38f 21be 15ae 60be
00000070: d283 1f3e 6472 893d 0571 53be a001 97bb
00000080: 5b37 0d3e 763a 0b3e f053 18bf 9bb0 babe
00000090: 7809 313f 4a3a e2be 70d9 533e 5c1e 04bf
000000a0: c149 203f 755b 9abe 21c8 2f3f 5e9c f33e
000000b0: 6475 253e 1366 253f 0073 bdbb 8054 f0be
000000c0: 1892 ef3e ec5b d1be 7e09 e5be 197b 87bd
000000d0: 4949 24bf d80e 81bd 7f82 c5be 72fe 0cbf
000000e0: b8fa c83e d54a c93e 7a82 243f 5b59 053f
000000f0: 2a60 a33e e149 14bf 5616 0ebf 427d 3f3e
00000100: b774 0abe 0593 05bf 1f9c 2b3f 1f76 29bf
00000110: 862d b73e 34e0 5e3e f192 dabe d20b de3e
00000120: 6a3d c9be 6824 583e 6224 1fbf a0ca c5bc
00000130: 783d 7fbe 8f91 5f3e cce9 193f 8eb7 02bf
00000140: fbaf c13c 5635 06be 2ffe bdbe 62ee e93e
00000150: 7b88 343f 598e 34bf 0d49 bf3e 9373 fe3e
00000160: c051 a13e 6c61 833d 309a f1be 0078 f2be
00000170: b771 d13d afb2 89be a32b e13e 3bc8 043d
00000180: 54bc b73e 6aa3 883c 40a5 6d3e 253b 0c3f
00000190: adc0 1c3f 6814 0ebf fbc1 66be 88c8 91be
000001a0: 347e 38be 0826 b2bd 1a77 94be 83dd ee3e
000001b0: 0078 bc3e e2fc a4be 3ca7 203f ec96 f1be
000001c0: b1e2 ef3e 08b1 7fbe b7d9 343f 71cd 77be
000001d0: 68a2 21be 6e50 cc3e 57fc 693d 4b1f f6bd
000001e0: 0397 01bf 46ae 4b3e 720a 953e 949a 2fbf
000001f0: ad00 1c3f 65fe 3b3f 5c9b 5cbe 5e28 d1be
00000200: a16a af3e cec9 8bbe e5c6 b7be d0bf 12bd
00000210: 83d4 063f 7c03 0d3e df94 c6bd f788 07bf
00000220: 6eb1 d73d 017b 27bf 6c2c 863e 10d7 933e
00000230: bf76 173f 8828 c1bd 77a5 f03e 23fd 053e
00000240: d41e 38be e5ef 32bf 364b e03a 352d 8b3e
00000250: ff6e 0f3f b0f5 56be f017 2dbd bad9 ca3e
00000260: f232 b4be 9769 afbe 82ab fcbe b5ca 76be
00000270: a9c6 b33e 51c8 1c3f a26a 9cbe def1 afbe
00000280: 0dbe 2a3f 9289 6d3e 4189 87be ccb5 35be
00000290: 8324 9ebe bd33 773e 3b6b 233f 13f5 4ebe
000002a0: ebe2 263f 6aeb 993e 923b c53e 6299 0ebf
000002b0: 4961 533e 876a fc3e 0a82 dd3e 241a 30be
000002c0: 589b d0bd 8afe f3be 2548 1abf 5756 4ebe
000002d0: e424 b6be be9a ddbe 21a3 a6bf db0a b13f
000002e0: 9de0 8039 101e b83e 878c 9abe c745 0f3f
000002f0: f412 d23c a553 f2bd d489 36bf 9207 cebe
00000300: f95c b3be a7b0 6c3e a0e8 6abe d56d 2ebf
00000310: b30a c7be a3cc 23bf b883 91bd 9c80 b2be
00000320: 85a3 08be bdc2 df3e 9a00 db3e 7000 15bf
00000330: 0197 2abf 663a f7be 0d46 1ec0 6c90 2a3e
00000340: a20b 963e 6f09 16bf 98b9 02be 8585 513e
00000350: 7b38 043e e0a0 d93d 8063 a93c ee67 02bf
00000360: 824e 9ebe e8af d4be d4f6 ef3e ce13 2c3f
00000370: f058 e5bd fff5 123f 1a6c af3e f04a 72bd
00000380: 3312 32bf b820 a9bd d95f 1b3f be80 90be
00000390: e7bb 383f 2d8d f3be 4e41 a53e 210b 8abe
000003a0: 808f f23c b0c8 2bbe b7b1 22bf 29ef d4be
000003b0: 2852 b5be 7cb3 12be 8c78 893e e0e4 ba3d
000003c0: 2ec2 6c3e e087 513b e0ef 7f3d 1c8a c5be
000003d0: 86c5 57be a2f0 fc3e 4adf 9d3e 15a5 523e
000003e0: 81b9 a03d c38d 013f 3380 95be 3a25 df3e
000003f0: f187 eebd 6270 f7bd 14e0 473e 9cec 79be
0.19703001 0.1425178 0.6149259 -0.17903447 0.5837671 0.14681852 -0.10690945 1.2721728
-0.6040401 0.20472258 -0.21580486 0.009250823 0.38866553 0.2062293 -0.605114 0.31486765
-0.5932043 0.033750627 0.23397034 -0.08782599 -0.2592897 -0.4784108 -0.1098962 0.10719089
-1.6755886 0.7002543 -0.15777545 -0.21941407 0.15577629 0.067112714 -0.20648582 -0.004608348
0.13790648 0.1359652 -0.5950308 -0.36462864 0.69155073 -0.44185096 0.20688415 -0.51608825
0.6261254 -0.301479 0.6866475 0.47580236 0.16158062 0.6460888 -0.0057815313 -0.46939468
0.46791148 -0.40890443 -0.44733804 -0.06615276 -0.64174324 -0.06301659 -0.38576123 -0.5507575
0.39253783 0.39314905 0.6426159 0.5208947 0.31909305 -0.5792523 -0.5550283 0.18700126
-0.13521086 -0.5217746 0.67035097 -0.66195863 0.3577692 0.21765214 -0.42690232 0.43368393
-0.39304668 0.21107638 -0.6216489 -0.02414447 -0.24925792 0.2183287 0.6012237 -0.5106133
0.023643484 -0.13106284 -0.3710799 0.45689684 0.7052075 -0.70529705 0.3736042 0.4969755
0.31507683 0.06415066 -0.47187948 -0.47357178 0.102267675 -0.26894137 0.43978605 0.032417517
0.3588587 0.016679484 0.23207569 0.5477775 0.612315 -0.5549989 -0.22534935 -0.28473306
-0.18016893 -0.0869866 -0.28997117 0.46653375 0.36810303 -0.32224184 0.6275518 -0.47185457
0.4685264 -0.24969876 0.70644706 -0.24199463 -0.1578461 0.39905113 0.057125416 -0.120176874
-0.5062105 0.19890699 0.29109532 -0.6859524 0.6093853 0.7343505 -0.2154364 -0.4085111
0.3426104 -0.27302402 -0.35893932 -0.035827458 0.5266802 0.1377086 -0.09696364 -0.52943367
0.10531889 -0.65422064 0.26205766 0.28875017 0.5916557 -0.09431559 0.4700124 0.13084845
-0.1798051 -0.698973 0.0017112258 0.27182928 0.5602874 -0.2099216 -0.042259157 0.39619237
-0.35195118 -0.34260246 -0.493496 -0.24100764 0.35112503 0.6124316 -0.30550104 -0.34364218
0.66696244 0.2319701 -0.26471904 -0.17745131 -0.3088723 0.2414083 0.63835496 -0.20210676
0.6519 0.3006242 0.3852201 -0.55702794 0.2064258 0.49300024 0.43263274 -0.17197472
-0.101858795 -0.47655135 -0.60266334 -0.20150124 -0.3557502 -0.4328212 -1.3018533 1.3831438
0.00024581412 0.35960436 -0.3018534 0.55965847 0.025643803 -0.1183236 -0.7130406 -0.4024015
-0.3503187 0.23114263 -0.22940302 -0.6813634 -0.3887535 -0.63984126 -0.071052015 -0.34863746
-0.13343628 0.4370326 0.42773896 -0.5820379 -0.66636664 -0.48286742 -2.4730256 0.16656655
0.2930575 -0.58608145 -0.12766111 0.2046109 0.1291217 0.106263876 0.020677328 -0.50939834
-0.30919272 -0.41540456 0.46868002 0.6721772 -0.11198604 0.5740661 0.34262162 -0.059153497
-0.6955902 -0.08258194 0.60693127 -0.28223222 0.72161716 -0.47568646 0.32276386 -0.26961616
0.029609442 -0.16775775 -0.6355242 -0.41588715 -0.35414243 -0.1432628 0.26849782 0.09125686
0.23120949 0.0031971857 0.062484622 -0.38581932 -0.21071443 0.49402338 0.3083442 0.20570786
0.07847882 0.50606936 -0.2919937 0.4358309 -0.116470225 -0.12081982 0.19519073 -0.24406666

fc_1.bias f4 [128]
00000000: 92ea f4be 8057 a1be e225 7bbe 59b7 41be
00000010: 48d7 09be b3b8 533f 6836 8c3e c404 203f
00000020: 4476 403f 35d0 d13e 527d c63e 0236 c43d
00000030: 5b9c d4bd 1a99 be3e 309e a03e 879e 393f
00000040: 8890 523d 30e8 adbd abd4 2d3f 34a5 46be
00000050: b6c5 c2be 05d4 30bf e7aa 7c3e b0af 9fbe
00000060: 545b 493f a4a7 693e 0020 e5bb 0ae6 b83e
00000070: 3e92 093f 7afc 3b3e e021 0bbf e431 a53e
00000080: 0754 3e3f b26e dbbe 6152 e9be 5df4 143f
00000090: be95 2ebf 9fe1 d7be f1e4 bf3e fda8 51be
000000a0: 074a 013f 54a0 30bf 19a8 0abf b69c 3a3e
000000b0: af70 2c3f 8003 e4bd 833c b83d d7d0 e93d
000000c0: 68a6 453f cc38 1abf 4b0c 5d3e e173 073e
000000d0: d4f7 abbe dea3 c73d 10bc de3e d8c1 6b3e
000000e0: 91d0 c63d 9587 0e3f 8aee 93be cc08 e53e
000000f0: 5b09 643d fcad 34bf b269 063f 804c ccbc
00000100: 2678 b63d 3c43 22be 6972 f83e 86dc ab3e
00000110: 8600 823e 7271 03bf 6332 053e ee25 bc3e
00000120: a73c b6be e93c 083f 750a 2f3f bf68 27bf
00000130: 1e13 fe3e f848 4f3f 096a acbe 16b8 493e
00000140: 1281 1e3f 4dca 2bbf 1a29 963e e450 193f
00000150: 4268 2dbf 60e7 5cbe b8b3 683e fe12 053f
00000160: 30ef 3ebd ac50 823e 8307 9e3e 24e4 f5be
00000170: d608 343f 4622 523f c736 863e d47d 12bc
00000180: ef23 4a3f 6d7c b1be 30ae ccbd dac0 61be
00000190: 5098 fe3e e639 17bf b49a 16bf b6f7 dd3e
000001a0: d31a 993e f8d1 ce3e 0f5d f63e e806 dabd
000001b0: c067 1abe fe02 383f a943 c53d cb64 2bbf
000001c0: 34d9 10bf 65e4 eebe da8e 903e 8024 e2bd
000001d0: f5d5 d6be 1e8c bbbe b8b1 9bbe 541e 66be
000001e0: d467 943e ede4 0cbf 80a9 18bf 1a23 cd3e
000001f0: 2b6e 123f 6fb9 20bf e42a a73e 0912 b4be
-0.47835213 -0.3151207 -0.2452617 -0.18917598 -0.1346103 0.82703704 0.2738526 0.6250727
0.7518046 0.40979162 0.38767487 0.09580614 -0.10381385 0.37226182 0.31370687 0.7250752
0.051407367 -0.08491552 0.6790263 -0.19398957 -0.38041466 -0.69073516 0.24674569 -0.31188726
0.7865498 0.22817856 -0.00699234 0.36113006 0.5373877 0.18358031 -0.54348564 0.32264626
0.74346966 -0.4285789 -0.45570663 0.5818537 -0.6819724 -0.42164323 0.37479356 -0.2047462
0.5050358 -0.6899464 -0.54162747 0.18223843 0.6735944 -0.1113348 0.08995917 0.11416786
0.7720704 -0.60242915 0.2158672 0.13227798 -0.33587515 0.09748052 0.43502855 0.23023164
0.0970775 0.5567563 -0.28892928 0.44733274 0.055672985 -0.7057798 0.5250503 -0.024938822
0.08909635 -0.1584596 0.48524788 0.33566684 0.25391024 -0.5134498 0.13007502 0.36747688
-0.3559315 0.5321794 0.6837533 -0.65394205 0.4962396 0.80970716 -0.33674648 0.1969913
0.61915696 -0.6710556 0.29328233 0.59889054 -0.6773721 -0.21572638 0.22724807 0.51982105
-0.046614826 0.25452173 0.30865106 -0.4802562 0.7032598 0.8208355 0.26213667 -0.008941133
0.7896108 -0.34665242 -0.09994161 -0.22046223 0.4972558 -0.5907272 -0.5882981 0.4335305
0.29903278 0.40394568 0.48117873 -0.106458485 -0.1507864 0.71879566 0.09632046 -0.6695067
-0.56581426 -0.46658626 0.28233987 -0.11042118 -0.4196011 -0.36630338 -0.30409026 -0.22472507
0.28985465 -0.55036813 -0.59633636 0.40065843 0.5719935 -0.6278295 0.3264991 -0.3517001

fc.weight f4 [1, 128]
00000000: 724c d8bc 8b46 5dbd 88ee 79bd 7c4d 79bf
00000010: eba1 873d 3bfa d93d af80 9d3c 0025 213e
00000020: 94eb 2a3e c013 133e b38b 043e 7270 6cba
00000030: 9d89 47bf fcf3 083e e630 2c3e 2b3f 2d3e
00000040: d137 893c 8838 1c3c d647 203e eca7 01bd
00000050: a8f5 50bd 38ef 0d3c 7806 f83d 0002 38bc
00000060: 8b64 123e a180 353e 3956 3bbd 5590 273e
00000070: fe2a dd3d 0e28 be3a c180 9e3d 1b13 023e
00000080: cd6b 963d 033f b03d 79d0 953d 90cf bb3a
00000090: f7cf 44bd d2f3 343d 78db e63d 3b4a 5dbe
000000a0: 0381 cc3d 8385 9f3d a9c7 99bd 39b9 343e
000000b0: ff85 273e 1575 a2bd a719 bd3c 0dcf 233d
000000c0: 544a f53d 3b1e acbd 3f3f 0b3d 8798 8b39
000000d0: 90de 22bd 679e 453e 4e43 883d 43bc 463e
000000e0: 8e40 753d ca92 1b3f 68e1 aebc e56e 9f3d
000000f0: 2226 a73d 4bfe 813d a93b d63d 9060 ed3c
00000100: 35c9 fbbb 2c88 903c 7c02 f23d eb50 713d
00000110: 6d8c 433e fb31 813d 4d98 8e3e 572a 403b
00000120: 7ef6 8abd 6d33 e73c c812 3a3e a0fc c1bb
00000130: 8ab0 953d 02d8 2c3e 0387 2ebe 3a6b 383d
00000140: 40a3 373e af17 12bd 5788 a03d dcf5 ab3c
00000150: 1b59 07bd 067c 7f3d 305a 223e 1678 203e
00000160: 028d 0b3d dded 2c3c 4658 0a3e e056 14c0
00000170: 48c6 cc3d 8389 103e 3e6d 093d a88f 13bd
00000180: e28c 1d3e 668b 82bd a2a0 eabc a6e2 1d3d
00000190: 667c fc3d fefa 273d 30d6 61bc 23cb 60bf
000001a0: b570 3e3e 8594 3e3e 2f47 103e 2a10 473d
000001b0: 769e 6f3d e63d 703d f280 03bc 5bc1 983d
000001c0: 5838 11bc f029 a4bb f2ff e23d b2b0 0a3d
000001d0: bb4e 823d ae50 193d e239 4a3d 632f 4ebd
000001e0: 8c5f 843d 05a0 6fbd 4240 6b3d 611f a33d
000001f0: 5388 263e f0df 203c c318 303e 70d2 fc3b
-0.02640364 -0.054022353 -0.061018497 -0.97383857 0.0662268 0.10643431 0.0192264 0.1573677
0.16691428 0.14363003 0.12943916 -0.0009019441 -0.77944356 0.13374323 0.16815528 0.16918628
0.016750248 0.0095349625 0.15652403 -0.031654283 -0.051015526 0.008662991 0.12110609 -0.011230946
0.14296167 0.1772485 -0.045736525 0.16363652 0.10799216 0.0014507787 0.077394016 0.127026
0.0734478 0.086057685 0.07315154 0.0014328826 -0.048049893 0.044177838 0.11272329 -0.21610348
0.099855445 0.07789137 -0.07508785 0.17648782 0.16359709 -0.07932488 0.023083521 0.03999238
0.119770676 -0.084042035 0.033995863 0.00026625788 -0.039763033 0.19298707 0.06653462 0.19407754
0.059876017 0.6077086 -0.021347716 0.07784823 0.0816157 0.06347331 0.10460598 0.028976709
-0.007683898 0.017643057 0.1181688 0.05891506 0.19096537 0.06308361 0.2785057 0.0029322112
-0.06785296 0.028222764 0.18171227 -0.005920008 0.07309063 0.16879275 -0.1704369 0.045024134
0.17933369 -0.035667118 0.07838505 0.020991258 -0.033043962 0.062374137 0.15854716 0.15670809
0.034070022 0.010554758 0.13510236 -2.3178024 0.09998757 0.14114957 0.033551447 -0.036025673
0.15385774 -0.063742444 -0.028641049 0.038546227 0.123284146 0.04101085 -0.013783976 -0.8780996
0.18597682 0.18611343 0.14089654 0.0485994 0.05850073 0.05865278 -0.008026348 0.07458755
-0.008863531 -0.005009882 0.11083974 0.033859916 0.06362673 0.037430458 0.049371608 -0.05033816
0.064635366 -0.058502216 0.057434328 0.079649694 0.16262941 0.009819016 0.17196946 0.007715516
