backups/2022-06-24/best-model-5.pt (torch, 4559 bytes, 7 tensors)

lstm.weight_ih_l0 f4 [8, 2]
000000 32 fd 1f 3e e7 ea cd 3d 07 19 71 be cd aa 99 3e
       0.1562393 0.1005457 -0.23544703 0.30013123
000010 81 8e e3 be 70 1b 53 3e 60 da db 3d a8 22 5d 3e
       -0.4444466 0.20615935 0.10735011 0.21595252
000020 d1 b0 a7 3e 34 c8 85 bc 95 96 d1 3d 8d 62 ef 3e
       0.32752088 -0.016330816 0.10233799 0.46754876
000030 f4 38 26 3f 18 06 33 3f 44 41 4d be 4b 17 94 3e
       0.64930654 0.69931173 -0.20044428 0.2892402

lstm.weight_hh_l0 f4 [8, 2]
000000 b6 ae 55 be 5a 29 d5 be a0 08 0e be 15 19 2a 3f
       -0.20867428 -0.4163311 -0.13870478 0.6644452
000010 36 b7 e0 3e a4 dd 04 bf 48 bd ee bd 80 76 7a 3e
       0.4388978 -0.51900697 -0.11657196 0.24459267
000020 30 b0 1f be 57 25 06 3f b2 94 2c bf d6 9f 09 bf
       -0.15594554 0.52400726 -0.6741439 -0.53759515
000030 94 74 32 be 80 e0 bc 3b e6 d3 ae 3e 51 cf c1 be
       -0.17427284 0.005764067 0.3414604 -0.37853482

lstm.bias_ih_l0 f4 [8]
000000 1d a5 2d 3f e0 d9 b0 bb e8 07 ff bd d2 b0 c7 3e
       0.6783007 -0.0053970665 -0.1245268 0.3900209
000010 ee 6e e6 3d 89 00 4b 3e 94 47 ca 3e a9 45 1d 3f
       0.11251627 0.19824423 0.39507735 0.6143442

lstm.bias_hh_l0 f4 [8]
000000 2a 02 0e 3e d0 f6 c1 3d c5 b2 12 3f 5c 53 30 3e
       0.13868013 0.09470904 0.5730403 0.17219299
000010 15 ef 07 be 4c 28 2f 3f ef 28 33 bf 87 eb 13 3f
       -0.13274796 0.68420863 -0.69984335 0.5778126

fc_1.weight f4 [128, 2]
000000 07 1a 08 bf c7 9f 85 be d3 fe db be 7b 67 c2 bc
       -0.53164715 -0.26098463 -0.42967853 -0.023730984
000010 46 11 ea 3e c5 1d 0a 3c 59 38 ce be 08 3c 36 3e
       0.45716304 0.008429949 -0.40277365 0.17796338
000020 3f 39 3b bf f3 a4 43 be bb cc 38 be ad 72 f3 3e
       -0.73134226 -0.19105892 -0.18046848 0.47548428
000030 f7 c7 14 bf fe 66 56 3f 14 22 13 3f 88 8a 2a 3f
       -0.5811762 0.83750904 0.57473874 0.6661763
000040 3e 6a 3f bf 65 a7 39 be b4 98 34 be 28 4a e6 bd
       -0.7477149 -0.18130262 -0.17636377 -0.11244613
000050 8d 01 ce be 23 78 05 3e 57 7c 12 bf b7 7e 06 bf
       -0.40235558 0.1303411 -0.5722098 -0.525371
000060 00 fa e6 3e e0 af fb 3e 49 c8 ce 3d 32 6d 3e 3f
       0.4511261 0.4915762 0.10096795 0.7438537
000070 4a c4 33 bf ca 07 f2 3e 94 82 b4 be 90 c5 4c bd
       -0.7022139 0.47271568 -0.35255873 -0.049993098
000080 47 cd e9 be 7e 88 23 3f 19 ae d3 3e f5 8e 29 be
       -0.45664427 0.63880146 0.41343763 -0.1655844
000090 77 e5 cb bc 88 ea d1 be 10 75 24 3d 8e 32 0a bf
       -0.02488969 -0.40999246 0.040150702 -0.5398339
0000a0 c0 c9 99 3d 4d 97 a4 be 15 25 be 3e 37 4b 3f bc
       0.07509184 -0.32146683 0.37137666 -0.011675647
0000b0 a4 55 7e be 6f c7 30 3f 5a 91 a2 3e 80 fe 73 3f
       -0.24837357 0.6905431 0.3175152 0.9531021
0000c0 5e 9b 93 3e b4 44 1a 3f 7a 24 ea 3d 31 44 82 be
       0.28829473 0.6026108 0.114327386 -0.2544265
0000d0 02 6c c4 3e be b9 01 bf 57 ad 02 bf de 7b 33 3f
       0.38363653 -0.50674045 -0.51045746 0.7011088
0000e0 00 cc 94 3e 6a 2a a6 3e 59 a1 ab be bf 0b b1 3f
       0.2906189 0.32454234 -0.33521536 1.383171
0000f0 28 a0 9f 3d ec 21 5d 3e 7f f2 83 be e6 e0 1b 3d
       0.07794219 0.21594971 -0.25770947 0.038056277
000100 05 fb 38 3e cc 10 c6 bd 40 e9 f1 3d c8 4e 99 3d
       0.18064506 -0.096711725 0.11812067 0.074857295
000110 d8 b3 b4 3d c5 85 06 3f 04 05 81 be 5f 7b e5 be
       0.08823365 0.52547866 -0.2519914 -0.44820687
000120 9a dc 9a be c5 fd 97 be 49 11 2b bf 6d cb b8 3e
       -0.3024643 -0.29685798 -0.6682325 0.36092702
000130 78 ee 30 3e e5 15 1c 3f d4 7e ea 3e 25 5c 8d be
       0.17278469 0.6097091 0.45799887 -0.27609363
000140 af 13 01 3f 1b 60 2a 3f 00 be 7e 3e b0 48 4c 3e
       0.5042066 0.66552895 0.24877167 0.19949603
000150 56 6b c7 be 2a 06 c0 be de a1 ee 3e e9 73 32 bf
       -0.38949078 -0.37504703 0.4660787 -0.69708115
000160 d6 ab f1 be c1 ca 05 3f e5 e2 1a bf 16 d7 f2 3e
       -0.47201413 0.522625 -0.60502464 0.47429723
000170 6f aa e2 bd a8 57 8a be 8c 1e bf 3e bb 14 d0 be
       -0.11067664 -0.2702 0.37327993 -0.40640816
000180 5c e4 13 3e 78 7d 70 3e 36 f0 16 3f 6e 77 0b 3f
       0.14442581 0.23485363 0.5896028 0.5447911
000190 04 ad b8 3e 36 fa 3d be a2 e8 69 bf 5c ea d7 3d
       0.360695 -0.18552479 -0.91370595 0.105427474
0001a0 a6 4d a7 3e 34 e3 27 bf e1 a3 bc 3e 14 dc 1b bf
       0.3267643 -0.6558106 0.3684378 -0.6088269
0001b0 5b ca 30 3f a2 12 d9 3e 39 a3 ec be af a4 fd 3e
       0.6905877 0.42397028 -0.4621828 0.49539706
0001c0 55 84 22 3f ec 36 8f 3e df f6 39 3e a4 6d d8 3e
       0.6348317 0.2797159 0.1816058 0.4227115
0001d0 09 79 de 3e 7d 09 e6 3e 6b f2 1a bf 15 6d 2f 3f
       0.43451717 0.44929114 -0.6052615 0.6852582
0001e0 12 91 26 bf 70 b6 1c bf f7 d1 92 bd 83 07 1e 3f
       -0.6506511 -0.6121588 -0.07168954 0.6173021
0001f0 84 ab 98 be 0c 3b 14 3e f1 67 c6 3e 63 cd 3e 3f
       -0.29818356 0.1447565 0.38751176 0.74532145
000200 0f 6f a4 be 6a 85 12 bf 73 cd 43 3e a5 d1 53 3f
       -0.3211598 -0.57234824 0.19121341 0.8274177
000210 af 08 1a 3f 7b 46 44 bf 7a e6 08 3f cd a4 81 be
       0.601695 -0.76670045 0.5347668 -0.25321046
000220 3d c3 11 bf ce 8f 9a 3e fb 93 4c 3e 1f c0 54 3f
       -0.56938535 0.3018784 0.19978325 0.83105654
000230 fc a4 82 be bc 59 c2 be 1c 47 e1 be df 16 1b 3f
       -0.25516498 -0.37959087 -0.43999565 0.60581774
000240 b3 8f 33 3f 80 74 63 3c 47 3e 2a bd 0b f7 08 be
       0.7014114 0.013882756 -0.0415633 -0.1337549
000250 20 74 24 3f 53 7c 8b 3e 01 2f 0e 3e 5d ee 1e bf
       0.6423969 0.2724329 0.13885118 -0.62082464
000260 03 b1 1e 3f 8a 5a f1 be 03 1c 99 bc 8c 96 92 bd
       0.6198885 -0.47139388 -0.018690115 -0.07157621
000270 e3 31 e5 bd b0 fc b7 3f 0c fe 02 3e 84 3e 16 3e
       -0.11191156 1.4373989 0.12792224 0.14672285
000280 e5 d9 c0 be b0 b7 83 3e de 0c 02 3f 50 d4 b6 3d
       -0.3766624 0.2572608 0.50800884 0.08927214
000290 7f 22 c2 3e 39 bb 97 be fd b0 23 3f b0 62 78 bd
       0.37916943 -0.29635027 0.6394194 -0.06064099
0002a0 22 54 1d bf c0 26 b6 bc d7 3e 19 3f 6b 71 45 3f
       -0.614565 -0.022235274 0.5986151 0.7712619
0002b0 0f 50 19 bf c5 8d be be e0 50 08 3f e4 0a 0e 3f
       -0.59887785 -0.37217537 0.53248405 0.5548537
0002c0 93 6e a8 3e 71 c4 17 3f cc 4f 3d bf 1d c3 2b 3f
       0.3289686 0.5928412 -0.73949885 0.67094594
0002d0 3a 20 f2 be c4 33 6d be 3e f0 eb 3e 74 8e 43 be
       -0.47290212 -0.23164278 0.46081728 -0.1909731
0002e0 45 ca e9 be e5 7e 1c 3f 68 8a e1 3d 98 9a 29 3e
       -0.45662132 0.61131126 0.11012727 0.16562879
0002f0 92 32 ca be 00 d5 82 3b a4 06 3f be f0 e3 90 be
       -0.39491707 0.0039926767 -0.18654877 -0.28298903
000300 c8 c2 8c 3d 6e a1 c8 be 28 57 df 3e 28 37 4e 3f
       0.06873089 -0.3918566 0.43621182 0.8055291
000310 4b 1d 14 3f 7e ce c1 3e fc 43 36 be e8 64 d3 3d
       0.578572 0.37852854 -0.17799371 0.10321981
000320 54 b3 df 3e e8 36 6e 3e 26 b8 0d bf d8 51 49 3f
       0.43691504 0.23263133 -0.55359113 0.7864051
000330 77 20 9e 3e 12 8d 82 3d de bf a5 3e 80 3a c4 3c
       0.30884144 0.06374563 0.32372946 0.023953676
000340 15 47 e6 3e 86 b7 3c be aa 65 23 bf c0 be bd 3c
       0.44976106 -0.18429384 -0.63827 0.023162246
000350 5c a8 17 3e 22 aa fa 3e 20 8b ee 3c f0 8e 4a bd
       0.14810318 0.48957926 0.029119074 -0.049452722
000360 ef ac 5d 3e 76 b9 c9 be 78 23 11 bf 59 47 04 bf
       0.21648 -0.39399308 -0.56694746 -0.5167137
000370 7c 96 05 be 5a fd c6 3e 03 91 25 bf 9e 9b e5 3e
       -0.13045686 0.38865167 -0.64674395 0.4484529
000380 47 1e a1 be aa 40 d0 3e 1d a3 07 bf e7 30 8d be
       -0.31468412 0.40674335 -0.52983266 -0.27576372
000390 f6 47 e8 3e 1f 63 1e 3f 59 cd 28 be 39 d3 39 3f
       0.45367402 0.61869997 -0.16484584 0.72587925
0003a0 3d 04 0e bf e3 fa d1 be 6a 2e 48 bf cb d1 cb bd
       -0.5547522 -0.41011724 -0.7819582 -0.09952124
0003b0 35 8f 2b bf 11 f0 c0 3f 32 06 b6 3e f1 c4 33 3f
       -0.6701539 1.5073262 0.35551602 0.70222384
0003c0 05 fe a8 3e b8 67 f1 3e ec dc e5 3e c7 f0 2d 3f
       0.33006302 0.47149444 0.44895113 0.6794552
0003d0 44 1e 1c bf 50 65 06 be 28 90 f1 be c3 cc 14 3f
       -0.6098368 -0.13124585 -0.47180295 0.5812494
0003e0 8e 67 bc 3e 84 ed 4d 3f 00 b8 47 3c 22 0e d3 3e
       0.36797756 0.80440545 0.012189865 0.4122172
0003f0 cf 8c 11 3f 8b fc d5 3e 9c c3 34 bf 20 43 ba bd
       0.5685548 0.41794237 -0.70610976 -0.09094834

fc_1.bias f4 [128]
000000 df 2b c9 3e bb 44 e4 3e f4 a8 36 be b0 da 02 bf
       0.39291283 0.44583687 -0.17837888 -0.5111494
000010 29 7e b6 3e 8a 42 cd be 07 7c 08 3f 4a 13 b2 3e
       0.35643128 -0.40089828 0.5331425 0.3478034
000020 2b 31 8e 3e 64 f6 72 be 32 6b 2c 3e 21 b9 87 bd
       0.27771887 -0.23726803 0.16837767 -0.066271074
000030 99 be 83 be ed 8c b8 3e 1a 8a d1 be 45 47 cf be
       -0.25731352 0.36045018 -0.40925676 -0.40484062
000040 f1 0c 11 3f b3 e7 10 3e 1c b6 83 3e 0d 29 90 be
       0.5666037 0.14150886 0.25724876 -0.2815632
000050 52 9a 6d be 36 95 17 3e 7f 94 1d bf c4 9d a1 3e
       -0.232034 0.14803013 -0.6155471 0.31565678
000060 51 c4 08 3e eb 39 d2 3d d0 c7 00 bf 6b 55 72 3e
       0.13356139 0.10264953 -0.5030489 0.23665397
000070 7a 03 3c 3f ce 7d 47 38 bd 42 c3 be 42 ca 0b 3f
       0.73442805 4.7562462e-05 -0.38136855 0.54605496
000080 44 b8 32 3f d8 9a ec be b6 20 ab be 2e 1c 18 3e
       0.6981242 -0.46211886 -0.33423394 0.148545
000090 63 b8 7d 3e df 28 d3 3d 1a b4 ec be 12 16 74 be
       0.24777369 0.1031053 -0.46231157 -0.23836544
0000a0 4e 97 d4 3e 36 a5 f6 be fd db fc b8 52 0e 6f be
       0.41521686 -0.4817292 -0.000120572724 -0.23345307
0000b0 88 15 be 39 af 93 94 be 76 12 58 3e bc ea 43 3f
       0.00036255666 -0.29018924 0.21100792 0.7653005
0000c0 48 92 63 be 8a 49 32 3f e7 90 0f 3e ab 11 ea 3e
       -0.2222377 0.6964346 0.1402012 0.45716605
0000d0 f2 ec ad be 19 8f cb bd 38 a3 0e bf a1 c8 9c 3b
       -0.33969837 -0.09939403 -0.557178 0.004784659
0000e0 06 91 d0 be 82 19 7e 3e 69 0e dc 3e b1 cf ca be
       -0.40735644 0.24814418 0.42979744 -0.3961158
0000f0 03 f4 9f be 96 7f 35 be d5 16 e6 be 9f 40 80 3e
       -0.31240854 -0.17724451 -0.44939294 0.25049302
000100 60 c3 21 bd fe 11 aa 3e 4d 7a 50 be 9e 59 2d 3e
       -0.039492965 0.33216852 -0.20359154 0.16928717
000110 3e ad 84 be c8 ca 5c 3e 3d 7b a2 3d 04 2e db be
       -0.25913423 0.2156173 0.07933662 -0.42808545
000120 cc e6 34 bf 6e 9f f1 3e 09 fa 95 3e 77 09 b5 bd
       -0.7066467 0.47191948 0.29292324 -0.08839696
000130 88 3a 75 be 7e fa 91 3c 31 f4 b7 be 2a af 6f be
       -0.23948109 0.01781964 -0.3592849 -0.23406664
000140 93 93 db be bd e2 f1 3d 4a 56 3c be 28 25 16 bf
       -0.42886028 0.11810825 -0.18392292 -0.58650446
000150 08 95 e8 bd 6b 06 95 3e 1b 57 ff 3e 3e 71 be 3e
       -0.113565505 0.2910646 0.49871144 0.37195772
000160 dc 33 fa be 0f 19 e5 3d 60 e6 22 bf a8 65 25 3f
       -0.4886769 0.1118642 -0.63632774 0.6460824
000170 41 55 de be 52 d0 b5 be 84 5f 0a bf 35 9f e4 be
       -0.4342442 -0.35510498 -0.54051995 -0.44652715
000180 12 90 34 bf c2 37 f6 3e 00 e6 07 bf 97 11 25 bf
       -0.70532334 0.48089415 -0.5308533 -0.64479965
000190 56 4f c6 3e 43 08 a1 3e 31 4b e2 bd 29 75 d2 be
       0.38732404 0.31451616 -0.11049498 -0.4110501
0001a0 9a 7d 09 be 81 50 b4 be 18 64 e0 be e2 69 fb be
       -0.1342682 -0.3521767 -0.43826365 -0.4910422
0001b0 e1 50 22 3f 10 9d 15 bf e2 4f 1c bf 0c 72 73 be
       0.6340466 -0.58442783 -0.6105939 -0.23773974
0001c0 ca 6e 71 be be 7b 22 bf e6 50 28 bf 6b 26 3e 3f
       -0.23577419 -0.63470066 -0.6574844 0.7427737
0001d0 04 21 80 be 9a 73 89 3e 62 ee be be dc a1 09 bf
       -0.2502519 0.2684601 -0.37291247 -0.537626
0001e0 2d 3b e0 3e 78 e1 55 be 80 ba 4f bd f8 12 17 bf
       0.43795148 -0.20886791 -0.05071497 -0.5901332
0001f0 10 90 3a 3e ce a7 21 bf 3c 98 8a be d2 91 a4 be
       0.18219018 -0.63146675 -0.2706927 -0.32142502

fc.weight f4 [1, 128]
000000 cb 31 c1 3d d9 f1 cc 3d f6 03 8c bd 9c cc a2 3c
       0.094333254 0.10007066 -0.06836693 0.019872956
000010 d8 31 bf 3d 18 ce 08 be ae db 51 3e 7f a7 4a 3e
       0.09335679 -0.13359869 0.20493957 0.19790457
000020 89 bb c7 3d 16 b6 f7 bc a6 34 b9 3d 04 ce 89 3c
       0.09752566 -0.030238193 0.09043245 0.016821869
000030 dd 64 2e be 27 97 06 3e ba 21 14 bd e8 1c 19 bd
       -0.17030664 0.13143598 -0.036164977 -0.037381083
000040 84 44 fc 3d d7 21 ab 3d 34 bd 03 3e ac 2d d2 bc
       0.12317756 0.08356064 0.12865144 -0.025656544
000050 fc 6b 9c bc 86 22 fe 3d 36 59 27 3d 5b fd 1a 3e
       -0.01909446 0.124089286 0.040856563 0.1513571
000060 69 12 27 3e 75 ae ad 3d bf 24 92 3d 93 bb 0f 3e
       0.16315617 0.08480541 0.07135915 0.14036398
000070 b8 f2 4b 3e e4 c8 e0 3e 45 38 2f bd 46 c5 03 3e
       0.19916809 0.43903267 -0.042778272 0.12868223
000080 fe cf 3d 3e 77 9d 81 3d ec 91 98 bd bb 3c 9c 3d
       0.18536374 0.06328862 -0.074497074 0.07628771
000090 79 57 c1 3d da 5f d2 3d 59 36 8f 3d 9c 02 47 3c
       0.09440512 0.102721885 0.06992788 0.012146618
0000a0 bf 11 46 3e 3a 2d 41 3d 2b 47 a9 3d 40 92 f1 3c
       0.19342707 0.047162272 0.08265527 0.029488683
0000b0 94 5f d8 3d 68 64 87 bd 8d 2a 19 3e f0 d7 16 3e
       0.10565105 -0.06610948 0.14957638 0.14730811
0000c0 17 bb 45 bd 12 d3 f6 3d 0a a8 99 3d 85 06 87 3d
       -0.048274126 0.12051977 0.07502754 0.065930404
0000d0 29 5f a1 bd 8f ff 47 3d c2 b8 56 3d 21 e3 bd 3d
       -0.078794785 0.048827704 0.052422293 0.09271837
0000e0 52 99 ea bc b4 d2 ba 3d 0b a0 a7 3d 00 1e 1d 3c
       -0.028637562 0.0912222 0.08184823 0.009589672
0000f0 29 6c ac 3d 09 60 88 bd c9 67 4b bd 98 28 2d 3e
       0.084190674 -0.06658942 -0.049659524 0.16910017
000100 c7 72 a3 3d db 45 0e 3e 6f 96 b3 bc 2b d5 fd 3d
       0.079808764 0.13893835 -0.021922318 0.12394174
000110 c0 66 fc 3a ed 6b 35 3e 7c 7d ba 3c c8 38 32 bd
       0.0019256696 0.17716952 0.022764914 -0.043511182
000120 e9 2d b1 3d 67 cc 9b 3d a9 9f 03 3e ca 78 af 3d
       0.08651335 0.07607346 0.12853874 0.085679606
000130 ed 25 80 bd aa c8 a0 3d 5a ae 08 40 00 95 ab b9
       -0.06257234 0.07850774 2.1356416 -0.00032726675
000140 e8 9a 4b bd 9c 0d 97 3d 05 6c 61 3d ce 66 67 3d
       -0.049708277 0.07375643 0.055034656 0.056494527
000150 d7 ce a5 bd 58 12 36 3e 96 02 cb 3d 3f ad 01 3e
       -0.08096092 0.17780435 0.099126026 0.12663744
000160 49 3a 44 bd 3b 16 a1 3d 8a b1 4c bd 57 41 09 3e
       -0.047907148 0.07865568 -0.049974002 0.13403831
000170 14 a9 95 bd c2 01 7d 3d 26 14 57 bd e2 0b 64 3d
       -0.0730764 0.061769255 -0.05250945 0.055675395
000180 30 42 c0 3b dc 1f 4d 3e 69 bb 5e bd 24 91 85 3c
       0.005867265 0.20031685 -0.054377947 0.01630456
000190 a5 7d c6 3d d8 56 fe 3d de c2 1a 3d 7c e9 9b 3c
       0.096919335 0.12418908 0.037783496 0.019032232
0001a0 45 c8 38 bd c9 32 82 3d e9 9c 42 bd 20 eb 12 3b
       -0.045112867 0.06357343 -0.047512922 0.0022417977
0001b0 4a 80 35 3e 0e 9c 12 bd a2 7f 7d 3d c2 9d 36 3d
       0.1772472 -0.035793357 0.0618893 0.044584043
0001c0 84 9a e0 3c f4 ed a9 bd ba 15 1b 3d 91 64 14 3e
       0.027417429 -0.08297339 0.037862517 0.14491488
0001d0 00 4a 2b 3b 9d e8 8c 3d 4f 37 03 c0 f6 04 30 3d
       0.0026136637 0.06880305 -2.0502508 0.04297348
0001e0 04 e5 02 3e ee e6 18 bd 5a 8a 51 3d 6f c9 81 bd
       0.12782675 -0.037329607 0.051157333 -0.063372485
0001f0 9e 62 40 3e 1c 0d 01 3d fa 57 51 be 80 15 49 3c
       0.1878762 0.031506643 -0.20443717 0.012273192
