backups/2022-06-24/best-model-8.pt (torch, 4687 bytes, 7 tensors)

lstm.weight_ih_l0 f4 [8, 6]
0	0xbd24ad4e	-0.04020434
1	0xbfbdd75a	-1.4831345
2	0xbe8f0d6d	-0.2793993
3	0x3fcc8b23	1.5979961
4	0x3f2e96a1	0.6819859
5	0x3f3c1263	0.73465556
6	0x3eaa67fc	0.3328246
7	0x3f2ab3d1	0.6668063
8	0xbe50c7ab	-0.20388667
9	0xbff7b630	-1.9352474
10	0xbe076079	-0.13220395
11	0x3f07a9fe	0.5299376
12	0xbebcd144	-0.36878407
13	0x3f092ebf	0.53586954
14	0x3f28258b	0.65682286
15	0xbe6b4e24	-0.22979027
16	0xbe587390	-0.21137834
17	0xbf200f30	-0.62523174
18	0xbec7b166	-0.39002532
19	0x3e6dfa80	0.2324009
20	0xbe9c457c	-0.30521762
21	0x3f349645	0.70541793
22	0x3f088205	0.53323394
23	0xbe42625c	-0.18982834
24	0x3f346d14	0.7047894
25	0x3fb74017	1.4316434
26	0x3c859e04	0.0163107
27	0x3f1458a9	0.57947785
28	0xbe86f867	-0.2636139
29	0xbf65f1a7	-0.8982186
30	0xbe400298	-0.1875099
31	0xc000939d	-2.0090096
32	0xbf8a27a7	-1.0793351
33	0xc0b34dca	-5.6032457
34	0x3faff08b	1.3745283
35	0x3e4c6e99	0.19964065
36	0xc01d44e8	-2.4573307
37	0x4063b443	3.5578773
38	0x3fb12444	1.3839192
39	0x408b3848	4.3506203
40	0xbdacff95	-0.08447186
41	0xbf06750d	-0.52522355
42	0xbf3f200e	-0.74658287
43	0xbfdfb1bc	-1.7476115
44	0x3edf80a8	0.43652844
45	0xbfecfe23	-1.8515056
46	0xbf455a41	-0.7709084
47	0x3e6342ba	0.22193423

lstm.weight_hh_l0 f4 [8, 2]
0	0x3ea4f07e	0.3221473
1	0x3f15cced	0.58515817
2	0xbebe26a8	-0.37138867
3	0xbf2db451	-0.67853266
4	0x3f126037	0.5717806
5	0xbf002290	-0.5005274
6	0xbf337623	-0.7010214
7	0xbde0cca0	-0.10976529
8	0x3eccb036	0.39978188
9	0x3e9213f6	0.28530854
10	0x3f223279	0.63358265
11	0xbf1e4b32	-0.6183349
12	0x3e570c70	0.21000838
13	0xbe316530	-0.17323756
14	0xbbf36f80	-0.0074290633
15	0x3dc56be0	0.09639716

lstm.bias_ih_l0 f4 [8]
0	0xbeb6104f	-0.35559317
1	0xbf018301	-0.5059052
2	0xbf02bcd6	-0.5106939
3	0x3f07aae9	0.52995163
4	0x3ecbdcd9	0.3981693
5	0x3f437940	0.7635689
6	0x3ee945d9	0.45561102
7	0xbf7d9ae9	-0.990645

lstm.bias_hh_l0 f4 [8]
0	0xbee4d2f5	-0.44692197
1	0xbfad216b	-1.3525823
2	0xbe94b4f6	-0.29044312
3	0x3eb9e2de	0.36305898
4	0x3e9ebdf5	0.310043
5	0x3fa57b25	1.2928206
6	0x3fa0263c	1.2511668
7	0xbdb7bdf8	-0.089717805

fc_1.weight f4 [128, 2]
0	0x3def1ccd	0.11675415
1	0x3e062709	0.13100828
2	0xbe83a609	-0.25712612
3	0xbef4172b	-0.47673926
4	0x3d1b84fb	0.037968617
5	0xbf60044f	-0.87506574
6	0xbf950b74	-1.164412
7	0xbf933094	-1.14992
8	0xbfa69801	-1.3015138
9	0xbe93fcf2	-0.2890392
10	0x3f009597	0.50228256
11	0x3ee3991e	0.44452757
12	0x3e31b0ac	0.17352551
13	0x3f0dbfa3	0.5537054
14	0xbd824811	-0.06361402
15	0xbf516b66	-0.818045
16	0xbf19f126	-0.6013359
17	0xbf16be74	-0.5888436
18	0xbf18920b	-0.59597844
19	0xbe3833aa	-0.17988458
20	0xbf854941	-1.041298
21	0xbf0315c8	-0.5120511
22	0xbf4bc333	-0.79594725
23	0xbf0bb4bc	-0.54572654
24	0xbf8cfda5	-1.1014906
25	0xbf912bac	-1.1341453
26	0x3f30b545	0.69026595
27	0x3f27bd6d	0.65523416
28	0xbe737c64	-0.2377792
29	0xbc4f5fc0	-0.012657106
30	0xbf29fef0	-0.6640463
31	0xbe3c4fdc	-0.18389839
32	0xbf3333e7	-0.7000107
33	0xbf05ab6e	-0.52214706
34	0xbe8a62f7	-0.2702863
35	0xbdef8578	-0.11695379
36	0x3eb05ace	0.34444278
37	0x3f1eb713	0.619981
38	0xbf0fd508	-0.56184435
39	0xbd17b730	-0.037039936
40	0xbf71e48b	-0.94489354
41	0xbf925518	-1.1432219
42	0xbee02f3a	-0.4378603
43	0x3eac1672	0.33610874
44	0xbe9895cc	-0.29801786
45	0xc12a01ec	-10.625469
46	0xbee790fe	-0.45227808
47	0x3f156d5f	0.5837001
48	0xbf01fa84	-0.5077288
49	0x3c76e180	0.015068412
50	0x3daf430f	0.08557712
51	0xbf451dbb	-0.7699849
52	0x3f8e6234	1.1123719
53	0x3f4bc735	0.7960084
54	0xbfc0bf4a	-1.5058377
55	0xbf8c286b	-1.0949835
56	0xbf65c3d4	-0.89751935
57	0xbe279d9c	-0.16368717
58	0x3ec9b196	0.393933
59	0xbedfde0b	-0.43724093
60	0x3d70cc00	0.0587883
61	0xbda86950	-0.08223212
62	0xbeec8b66	-0.46200103
63	0xbeac3aed	-0.33638707
64	0xbf075e3b	-0.5287816
65	0xbf1be247	-0.60892147
66	0x3d92e19a	0.07171936
67	0xbf8aa634	-1.0831971
68	0xbf188998	-0.5958495
69	0xbfa1df9a	-1.2646363
70	0xbcf09d9c	-0.029372029
71	0xbf1eeb2a	-0.6207758
72	0x3f02b2a3	0.5105383
73	0x3f164191	0.58693796
74	0xbf150b39	-0.5822025
75	0xbf57c410	-0.8428354
76	0x3d6675de	0.05626475
77	0xbf93f9dd	-1.1560627
78	0x3e9002ae	0.28127044
79	0xbede12a8	-0.4337361
80	0xbf12f9e9	-0.5741258
81	0xbf97bd34	-1.1854615
82	0x3eabb689	0.335377
83	0x3e1a91d2	0.15094689
84	0xbd871ae8	-0.06596929
85	0xbf4f1662	-0.8089353
86	0x3e97f2e2	0.29677492
87	0xbf1579fe	-0.5838927
88	0xbd14fa2d	-0.0363714
89	0xbee5075f	-0.44732186
90	0xbf1bf74c	-0.6092422
91	0xbe5f1700	-0.21786118
92	0x3f7cd6be	0.9876517
93	0xbf4ed60f	-0.8079538
94	0xbf80da15	-1.0066553
95	0xbf834164	-1.0254331
96	0xbf1c114e	-0.60963905
97	0xbef21294	-0.472798
98	0x3d1f6080	0.03891039
99	0x3e33d9b4	0.17563516
100	0xbe911c21	-0.28341773
101	0x3e84ac78	0.25912833
102	0xbf3357fc	-0.7005613
103	0xbe46ac98	-0.19401777
104	0xbedf536b	-0.4361833
105	0x3ec6c49e	0.38821882
106	0xbef1e5ce	-0.4724564
107	0x3f0c7ef7	0.5488123
108	0xbf4cdec4	-0.80027413
109	0xbfbd8967	-1.4807557
110	0xbf4166d7	-0.75547546
111	0xbf239fab	-0.6391551
112	0xbea45f2d	-0.32103863
113	0xbfa0d1d5	-1.2564036
114	0xbf807777	-1.0036458
115	0xbec34842	-0.38141066
116	0xbeb26ae3	-0.34847173
117	0x3db66a90	0.08907044
118	0xbf800638	-1.0001898
119	0xbd9a8b50	-0.07546103
120	0x3f1fdd9f	0.6244754
121	0x3a450000	0.00075149536
122	0x3ddd65b0	0.10810411
123	0x3f036e0b	0.5133979
124	0xbe8bd249	-0.27308872
125	0x3f0029f1	0.50064
126	0xbf64d269	-0.8938356
127	0xbf6d3e7b	-0.9267346
128	0xbf0c437f	-0.5479049
129	0x3e3434a0	0.175982
130	0xbe5cfd62	-0.21581033
131	0x3f2068d1	0.6265994
132	0xbf5ae405	-0.8550418
133	0xbfb67838	-1.4255438
134	0xbf9734ed	-1.1813027
135	0xbf6c9caf	-0.9242658
136	0xc034a244	-2.822404
137	0xbfba422c	-1.4551444
138	0x3fc5616a	1.5420353
139	0x3c30f7ab	0.010801236
140	0x3fe74542	1.8068011
141	0x3f9db828	1.2321825
142	0xbf6fa73c	-0.93614554
143	0xc0ed9ba9	-7.4252515
144	0xbf29cf46	-0.663319
145	0xbee98f79	-0.45617273
146	0xbe4d246d	-0.20033427
147	0xbfeb74ce	-1.8395021
148	0xbf522be7	-0.8209824
149	0xbf8152f1	-1.0103437
150	0xbe109894	-0.14120704
151	0x3f219ced	0.63130075
152	0xbec1a2d6	-0.37819546
153	0xbe90630c	-0.28200567
154	0x3e8abd82	0.27097708
155	0xbeedd842	-0.46454054
156	0xbfbc19ae	-1.4695337
157	0xbf58ff29	-0.84764344
158	0x3d246dbb	0.04014371
159	0x3d7a39d9	0.061090324
160	0xbf0cdb82	-0.5502244
161	0xbed9d589	-0.42545727
162	0xbfb98586	-1.4493873
163	0xbde89cdb	-0.11358043
164	0xbf752702	-0.95762646
165	0x3f5338f7	0.82508796
166	0x3c9b7a00	0.018979073
167	0xbe836561	-0.25663283
168	0x3eeafcaa	0.45895892
169	0xbe38943c	-0.18025297
170	0xbf1536e0	-0.5828686
171	0xbf1f2e4f	-0.62180036
172	0x3e81dbea	0.25363094
173	0xbdf6f9e0	-0.120593786
174	0xbf0c1db7	-0.5473284
175	0xbf1ee135	-0.6206239
176	0xbed56342	-0.4167729
177	0x3edfd6ca	0.4371856
178	0x3ee7fca2	0.4530993
179	0x3f2a16a3	0.6644079
180	0xbeb77dca	-0.35838157
181	0xbf2f2c6a	-0.68427145
182	0xbe6c1ed8	-0.23058641
183	0xbec1d379	-0.37856653
184	0xbf239002	-0.63891613
185	0xbe1edc64	-0.1551376
186	0x3cd2c980	0.025730848
187	0x3dc92810	0.098220944
188	0xbf2f7a43	-0.6854593
189	0xba801e00	-0.0009774566
190	0xbfb0ee22	-1.3822672
191	0xbf97b0b2	-1.1850798
192	0xbe944ed7	-0.289664
193	0xc073a69a	-3.8070436
194	0xbf93d50f	-1.1549395
195	0xbeae20fc	-0.3400954
196	0xbf3bed77	-0.7340922
197	0xbe0f05e0	-0.13967085
198	0xbefe8107	-0.49707815
199	0xbf321938	-0.6956973
200	0x3e9b26d6	0.30303067
201	0x3ddb6a70	0.10713661
202	0xbf020b12	-0.5079814
203	0xbf9ca9a6	-1.2239273
204	0xc065efe2	-3.5927663
205	0xc01fc1d3	-2.496205
206	0xbf121b49	-0.57072884
207	0xbfaa3e1b	-1.3300203
208	0xbec26a7e	-0.37971872
209	0xbef551df	-0.47914025
210	0x3e807be6	0.25094527
211	0x3e314dc8	0.17314827
212	0xbf093dce	-0.5360993
213	0xbf963884	-1.1735997
214	0xc065fe25	-3.5936368
215	0xc0ea2794	-7.3173313
216	0x3eb4f58a	0.3534358
217	0x3f30d0b3	0.6906845
218	0xbf26d897	-0.6517424
219	0x3f25c34d	0.6475113
220	0xbe3d81d8	-0.18506563
221	0xbee638b3	-0.44965133
222	0xbe8860ec	-0.26636446
223	0xbe3ab0f6	-0.18231568
224	0x3f7b0b99	0.9806457
225	0xbf9b8938	-1.2151251
226	0xbe4b49b9	-0.19852342
227	0xbfc0a008	-1.5048838
228	0xbda89280	-0.08231068
229	0x3e1ab940	0.1510973
230	0xbf02d73f	-0.5110969
231	0xbe976568	-0.29569554
232	0xbf2ca8fa	-0.6744534
233	0xbf70682e	-0.93908966
234	0x3d78ca25	0.060739655
235	0xbf46143f	-0.77374643
236	0x3e291ddc	0.16515297
237	0xbf488b59	-0.7833763
238	0x3ecfd558	0.40592456
239	0xbe5c1d0b	-0.21495454
240	0xbf2b0e3e	-0.66818607
241	0x3f49697c	0.7867658
242	0xbf12de6b	-0.5737063
243	0xbed0ec60	-0.4080534
244	0xbf12dfd5	-0.5737279
245	0xbfe51f18	-1.7900114
246	0x3e3eff7c	0.18652147
247	0x3ea80556	0.3281657
248	0xbebfca81	-0.37459186
249	0xbf5719ae	-0.8402356
250	0xbf0bcf05	-0.5461276
251	0xbfdc105d	-1.7192494
252	0xbe9c6947	-0.3054907
253	0xc080714a	-4.013829
254	0xbe06dd31	-0.13170315
255	0xbf54f06e	-0.83179367

fc_1.bias f4 [128]
0	0xbeaf510f	-0.3424153
1	0xbb854880	-0.0040674806
2	0xbca91c71	-0.020643445
3	0xbedc3471	-0.4300876
4	0xbf01c22f	-0.50686926
5	0xbf2fa1fb	-0.6860654
6	0xbef1b9ad	-0.47211972
7	0x3ca7570b	0.020427248
8	0xbdfa69e8	-0.12227231
9	0xbf284edd	-0.65745336
10	0xbe7c482d	-0.24636908
11	0xbe3a550b	-0.18196504
12	0xbf207e36	-0.6269258
13	0xbf27251e	-0.6529101
14	0xbf14efd9	-0.5817848
15	0xbd2fa320	-0.042880177
16	0xbf2a1a41	-0.6644631
17	0xbe9789d8	-0.29597354
18	0xbed757a8	-0.42059064
19	0xbeba2f70	-0.36364317
20	0xbed04722	-0.4067927
21	0xbea6701c	-0.32507408
22	0x3e7fa70e	0.2496607
23	0xbf1cae3d	-0.61203367
24	0xbf0b18ff	-0.54335016
25	0xbe03a055	-0.1285413
26	0xbf51f519	-0.82014614
27	0xbed1ce9d	-0.40977946
28	0xbee0bf4f	-0.43895957
29	0xbf3152d0	-0.69266987
30	0xbe86e099	-0.2634323
31	0xbec4078e	-0.38287014
32	0xbe2b3730	-0.16720271
33	0xbd71e7f5	-0.059059102
34	0xbeb0973c	-0.34490383
35	0x3e5d352c	0.21602315
36	0xbf177f59	-0.5917869
37	0xbf4083cb	-0.752011
38	0xbe96f893	-0.29486522
39	0xbf20d0d0	-0.6281862
40	0xbecdb228	-0.40174985
41	0xbf1c3e35	-0.6103242
42	0x3caccfe8	0.021095231
43	0xbf032c42	-0.5123941
44	0x3c32cf97	0.010913751
45	0xbced0c40	-0.028936505
46	0x3ed98786	0.4248621
47	0xbf1782f1	-0.59184176
48	0xbee15d81	-0.4401665
49	0xbf087fa0	-0.5331974
50	0xbf1d9638	-0.6155734
51	0xbf0089b4	-0.5021012
52	0xbecef928	-0.40424466
53	0xbee50b5c	-0.4473523
54	0xbf03d1d5	-0.51492053
55	0xbe60f579	-0.2196864
56	0xbf1c9024	-0.6115744
57	0xbeddc748	-0.43316102
58	0xbd721a40	-0.059107065
59	0xbf08f623	-0.53500575
60	0xbef7ce29	-0.48399475
61	0xbf116066	-0.5678772
62	0xbf311494	-0.69172025
63	0xbebf60c7	-0.37378523
64	0xbed40b07	-0.41414663
65	0xbf038e15	-0.51388675
66	0xbf2dc5f2	-0.67880166
67	0xbf010788	-0.50402117
68	0x3eab43c5	0.33450142
69	0xbf5c6363	-0.8608915
70	0xbfa9e739	-1.3273689
71	0x3ea14c10	0.31503344
72	0xbe19c4cc	-0.15016478
73	0xba12f961	-0.00056066184
74	0xbeb6e209	-0.35719326
75	0xbecee676	-0.40410203
76	0xbd5607b0	-0.052253425
77	0xbe92ec83	-0.2869607
78	0xbf0ef34e	-0.55840003
79	0xbf760e28	-0.9611535
80	0xbdaa5f98	-0.08319014
81	0xbeb092a3	-0.34486875
82	0xbf217447	-0.6306805
83	0xbf09f112	-0.5388347
84	0xbeb814d5	-0.35953394
85	0xbcfb6640	-0.030688405
86	0xbe9c0df9	-0.3047941
87	0xbe6e72c8	-0.23285973
88	0xbee2d5c0	-0.44303703
89	0xbf051602	-0.51986706
90	0xbe9d17c2	-0.30682188
91	0xbf05eab4	-0.52311254
92	0xbf1fe4c2	-0.6245843
93	0xbf276e86	-0.6540302
94	0xbf1f76d9	-0.6229072
95	0xbe051d49	-0.12999453
96	0x3db669e5	0.089069165
97	0xbe5602fa	-0.20899573
98	0xbf186c7f	-0.5954055
99	0xbdf16a98	-0.11787909
100	0xbe85dcc2	-0.26144987
101	0x3d6460f1	0.055756513
102	0x3ea47bbc	0.32125652
103	0xbfe55628	-1.7916918
104	0xbeb77a12	-0.3583532
105	0xbea06cf3	-0.31333122
106	0xc02aa620	-2.6663895
107	0x3e98afd2	0.2982164
108	0xbf21ecd9	-0.63252026
109	0xbef92d9e	-0.48667616
110	0xbf33106e	-0.69946945
111	0x3c994919	0.018711613
112	0x3f291f0d	0.66063005
113	0xbedb9838	-0.4288957
114	0xbf09bc3d	-0.53802854
115	0xbf2ea22f	-0.6821622
116	0xbf10d508	-0.5657506
117	0xbf302935	-0.68812877
118	0xbe9b1319	-0.30288008
119	0xbf3e0afb	-0.74235505
120	0xbf1c2696	-0.6099638
121	0xbefd74f1	-0.49503282
122	0xbc1e0042	-0.009643616
123	0xbf19ead7	-0.6012396
124	0xbebe63ae	-0.37185425
125	0x3dd0d1e2	0.10196282
126	0x3dc31d36	0.09527056
127	0x3d106c2d	0.035259414

fc.weight f4 [1, 128]
0	0xbe814a18	-0.25251842
1	0x3d73c472	0.059513517
2	0x3b833f3a	0.00400534
3	0x3f0f3d1e	0.5595263
4	0x3f1229a2	0.57094777
5	0x3da6fbe5	0.08153514
6	0xbc366d88	-0.011134513
7	0x3ce175ea	0.027522046
8	0x3d26cdd6	0.040723644
9	0x3ec7ef0c	0.39049566
10	0xbe184ba6	-0.14872608
11	0xbe8f09dd	-0.27937213
12	0x3f110963	0.5665495
13	0x3d9e8ce9	0.0774172
14	0xbd45447c	-0.048161015
15	0xbca77cdc	-0.02044528
16	0x3f121eb6	0.5707811
17	0x3d3033f6	0.043018304
18	0x3d7ce436	0.061741076
19	0xbda41743	-0.08012249
20	0x3f11dffb	0.5698239
21	0xbd9c1aa8	-0.07622272
22	0x3e1731fb	0.1476516
23	0xbc19cd90	-0.009387389
24	0xbd9fa515	-0.07795159
25	0xbe06d38b	-0.13166635
26	0xbd14e00c	-0.03634648
27	0x3ef6e367	0.4822037
28	0x3ed33ecc	0.41258848
29	0x3daee7e1	0.08540321
30	0xbd02b37c	-0.03190945
31	0x3ba6e9f0	0.0050938055
32	0xbd7bfdd0	-0.06152135
33	0x3ca59b0d	0.020215536
34	0x3ed2825b	0.41115078
35	0x3dcc426b	0.09973606
36	0xbc02ac98	-0.00797572
37	0x3eff0bf0	0.49813795
38	0xbe982f3d	-0.2972354
39	0x3d94f3fd	0.072730996
40	0x3f158758	0.58409643
41	0x3ee909d8	0.45515323
42	0x3cc91856	0.024547737
43	0x3d918b31	0.07106627
44	0x3c9af7e8	0.018917039
45	0xbd42dfd7	-0.04757675
46	0x3ecf213a	0.40455037
47	0x3f17c85b	0.59290093
48	0x3ea4b5fe	0.321701
49	0x3da70d5b	0.08156844
50	0x3cb42bfc	0.02199363
51	0x3da903e5	0.08252696
52	0x3c522a00	0.012827396
53	0x3c91d5fc	0.017802231
54	0x3f059746	0.5218395
55	0xbe506ed4	-0.20354778
56	0x3f117223	0.56814784
57	0x3f0db624	0.5535605
58	0x3d2ad876	0.04171034
59	0xbef87469	-0.48526314
60	0xbc231e40	-0.009955943
61	0xbb287f20	-0.0025710538
62	0xbd802100	-0.06256294
63	0x3f133fd0	0.57519245
64	0x3d23dd26	0.040005825
65	0xbd78497a	-0.060616948
66	0x3f0ace00	0.5422058
67	0x3f14988c	0.5804527
68	0xbe121a4d	-0.14267845
69	0x3e88cedc	0.2672032
70	0xbca87f4c	-0.020568512
71	0x3eb99616	0.3624732
72	0xbd9f5f53	-0.077818535
73	0x3ec7e483	0.39041528
74	0x3f13958f	0.57650083
75	0xbd8b4a50	-0.06801283
76	0xbc98bdd4	-0.018645205
77	0xbc919754	-0.017772354
78	0x3f0d1120	0.55104256
79	0xbf035b96	-0.51311624
80	0x3d989959	0.07451124
81	0x3ee95250	0.45570612
82	0x3eb1d1de	0.34730428
83	0xbd834ccc	-0.06411132
84	0xbd8c286a	-0.06843646
85	0x3d1d84f2	0.038456865
86	0xbc8b9024	-0.017036505
87	0x3da4c81d	0.08045981
88	0x3c0465f8	0.008080952
89	0x3d81cc57	0.06337803
90	0x3ccdbe34	0.02511511
91	0xbc2e3c28	-0.01063446
92	0xbda875d1	-0.08225597
93	0xbd1d5711	-0.03841311
94	0xbdb232b9	-0.08701081
95	0x3f03a564	0.5142424
96	0x3da19dfd	0.07891462
97	0xbeae4801	-0.3403931
98	0xbeeb165c	-0.45915496
99	0xbd4bdfcb	-0.049773972
100	0xbd7a4f0b	-0.061110537
101	0x3bddc9bf	0.006768435
102	0x3e793950	0.24338269
103	0x3deff6ff	0.11717033
104	0x3f1ac9bb	0.60464066
105	0xbd96947c	-0.0735254
106	0x3d7a7c7d	0.061153878
107	0xbf06090c	-0.52357554
108	0xbdb2e75f	-0.08735537
109	0x3d7dd2c6	0.061968587
110	0xbd69bce9	-0.057064924
111	0x39c2d9bc	0.00037164788
112	0x3f193872	0.59851754
113	0x3eded7e4	0.43524086
114	0x3d29b356	0.041430794
115	0x3ee6d563	0.45084676
116	0x3f133ef1	0.57517916
117	0x3f1629c9	0.5865751
118	0xbe97f8a0	-0.29681873
119	0x3ea85881	0.32880023
120	0x3ea54729	0.32280853
121	0x3e9642ed	0.29347935
122	0x3e08b864	0.1335159
123	0x3be24530	0.0069052204
124	0x3ed9894f	0.4248757
125	0x3cbd31d0	0.023095042
126	0x3dd3542e	0.103187904
127	0x3c2b9a15	0.010473748
