backups/2022-06-24/best-model-2.pt (torch, 4623 bytes, 7 tensors)

lstm.weight_ih_l0 f4 [8, 4]
00000000: ddab 73bf 462a 143f b57f 953e 23ea b1be
00000010: e1e7 febe 11f3 233f 61f2 623e f193 63be
00000020: facb c43e bd4d d4be 90ef 4abd 2c54 623e
00000030: 58f3 22be 94c9 00bf fe21 b63e ad48 dbbe
00000040: d85f f03e 7f4b 7cbf 175b 94bf 099a 323f
00000050: ef01 d03e 8e3d 61bf d4ba bdbd f890 3a3e
00000060: 24a4 9a3e c260 91bf dce6 0dbf 7141 163e
00000070: afd8 a9be 8997 27bf e565 593f 42c6 a4be
-0.9518412 0.57877004 0.29198995 -0.34748945 -0.49786285 0.64042765 0.22162773 -0.22224404
0.38436872 -0.4146556 -0.04954487 0.22102422 -0.15913141 -0.50307584 0.3557281 -0.42828885
0.46948123 -0.985527 -1.1590298 0.6976629 0.40626475 -0.8798455 -0.0926415 0.18219364
0.30203354 -1.1357653 -0.5543039 0.14673401 -0.3317313 -0.654656 0.84921104 -0.3218251

lstm.weight_hh_l0 f4 [8, 2]
00000000: 4ce9 4fbe 6767 1b3f 2ef1 54be 4849 2fbe
00000010: 6036 523d 73de 003f 00cb e2bd f08a 733d
00000020: 1075 373d d822 99bd 686b d33d 0ec8 72be
00000030: 7c89 073e 575a cfbe ab68 f1be 77c6 013f
-0.2030384 0.60704654 -0.20795128 -0.17117798 0.051321387 0.5033943 -0.110738754 0.059458673
0.044789374 -0.07477349 0.103232205 -0.23709127 0.1323604 -0.4049861 -0.47150168 0.5069346

lstm.bias_ih_l0 f4 [8]
00000000: 4799 933e 618a 723e 2729 15bf 60f7 313e
00000010: bd25 043f b482 923f 48d7 7c3e ddc9 823e
0.2882788 0.236856 -0.5826592 0.17379522 0.51620084 1.1446137 0.24691498 0.25544634

lstm.bias_hh_l0 f4 [8]
00000000: 837e 3c3f a39d a2be ec3a 093e bcd4 393e
00000010: e8d1 583f 2e9f 30bd 3415 4dbe 0a1f c1be
0.7363054 -0.31760892 0.13401383 0.18147558 0.8469529 -0.043120556 -0.2002762 -0.37718993

fc_1.weight f4 [128, 2]
00000000: d06c edbd 3ff5 d0be 5f97 33bf f32a 563f
00000010: 090c e43c cb50 f6be 90ce ccbd 0082 c0ba
00000020: 6d0f 0f3f 644e 6c3f 8eeb d5bf 9b1c c73f
00000030: 6d41 423e baf8 02bf 2058 0c3d c93e bd3e
00000040: aa19 9cbe 8ef1 da3e 8218 07bf 5dd4 763c
00000050: cdd0 38bf 493d 12be b10a 09bf d6db 443e
00000060: 7561 e83e f150 99be 34e5 87bf e818 1d3e
00000070: e3f9 27be 7615 7cbd 7cd7 d83e 16f8 b5be
00000080: 80e7 403e 464e c23e 44bc 32bf 712f 2ebf
00000090: 98cf 383f 8485 e43e caca 9b3e b254 923e
000000a0: d420 323f 01e4 01c0 f00e 1abf 9137 233f
000000b0: a0c5 a0be d39a 193f 9bec b2be a3f1 f43e
000000c0: d407 80be f2cc bcbd 27f7 e73e 735b 9bbe
000000d0: f0e5 013f 7e54 943e 06db fd3e 7b6e 303f
000000e0: 21d4 f1be 0497 263f a745 f4be 0502 17bf
000000f0: 1e2a 093f e24b b6be 25cc 46be aebb c63d
00000100: 0b36 2bbf 46ab 81be a20a b53e 7723 0a3f
00000110: 59b4 133e 9f7f ab3c 72ff 9a3e 68d1 21be
00000120: 90e2 0e3d 50f4 ef3d 887b afbe 1fe6 0ebf
00000130: acb9 3b3f 058b 1ebc 69c2 d0be 2742 2e3f
00000140: 7bd2 bb3d c784 fd3e 769d cabe 8c30 7ebe
00000150: fd75 b9be 69ea 883f d8d6 103f 33aa ae3e
00000160: 301b 673d f846 393e f7c7 c2be 2a99 8bbe
00000170: dc3a 293e 210e 05bf 7887 bebd 18ed 80be
00000180: a49f 093e 30fe 7f3e 83f1 47bd 1b6c e4be
00000190: 2d8b 02bf 7c5e 1fbf 9ca5 403e 99ca a8be
000001a0: a235 923e caad a3be 297f 5e3e 28d9 dbbe
000001b0: 3a37 d6be 252d 253d 455b ccbe c270 2b3e
000001c0: 8ff9 bdbd 0550 093f 5b69 c4be de6f 08bf
000001d0: 7070 31bf cca8 7dbe 603c 9bbd 5ebc 5dbe
000001e0: c64a 963e 0a7d d53e 4038 dfbd 4500 b4be
000001f0: 4891 94be 3999 283f 7872 3fbe bcb0 41be
00000200: adab a93d 5151 953e 39e2 0abd c71d 3bbd
00000210: 9a84 fabe 2c76 223e be40 68be e7e5 d4be
00000220: 464d 74be ddfe 293f fa07 08bf c0fc e73e
00000230: d1fa 213f 2cdb 14bf ac48 90be 1081 53be
00000240: 4157 223f 4768 0bbf 220a ebbe bcae 82be
00000250: 6c06 ec3e 8ba3 9d3e c8ea b13e b3de 2c3e
00000260: 988f 10bf b372 653f e2c7 243f 4d33 b8bd
00000270: 4449 febd 1c0f dc3e 4bc4 003f a2a5 a73c
00000280: d394 5ebc 8643 bbbd c69a 2c3f e513 693f
00000290: c511 5d3e 168a cebe e6d2 d03e d8bc 12bf
000002a0: 8ce4 113e 508f a5bc a0a9 2e3d 17d8 04bf
000002b0: 4725 0fbf 7627 a13e 7833 f9be 3244 8e3e
000002c0: 1a04 d13e 30b4 a9bd 064d ea3e 8021 513d
000002d0: 0cc0 2f3f 818e 063f 6455 a73f fddf 4a3f
000002e0: de84 cbbe d885 853f e692 983e a833 fd3e
000002f0: a224 03bf fef3 353f 965f b6be 0490 41be
00000300: 200d 51be 8966 023f 40c6 19bf 34d3 3d3f
00000310: 2761 283e 2d92 ec3e 82fe 11bf e195 93be
00000320: 2664 b33e aa94 c7be e80a f3bd 7b62 d6be
00000330: 117c 9b3e 14f1 5b3f e3ce 47be c5ce ebbe
00000340: ffa6 0bbf 371c bf3e 194f 1c3f db4e 4cbf
00000350: 24ef 2fbe 6f40 293f 7713 01bf 76b7 8b3e
00000360: ddbe 05be 7c51 073f 8643 2e3e 96f3 fa3e
00000370: 02d7 1dbf 301a 06bf dbf9 c3be df24 183f
00000380: 5601 b7be c528 1d3f a066 3d3f cc23 ae3e
00000390: 1af0 85be 7f71 a5be ee51 0b3f dc17 573e
000003a0: b0ea c9be 70f4 07bf 4978 0ebe 7959 5abe
000003b0: a493 0ebe 05fa 27bf 5eda 2dbf b652 c93e
000003c0: 503f 2d3d e014 0d3d ce5c a23e 285d 90be
000003d0: ce2b 0f3d 259e 51be 0690 70be 6a5a 653f
000003e0: d480 01bf 7a51 33bf 587d 543e 8347 25be
000003f0: 3660 953d fe20 35bc c767 d1bb d00b 18be
-0.1159302 -0.40812108 -0.7015285 0.83659285 0.02783777 -0.48108515 -0.10000336 -0.001468718
0.5588291 0.92307115 -1.671251 1.5555605 0.1897027 -0.51160777 0.03426373 0.36961964
-0.3048833 0.42762417 -0.5277177 0.01506528 -0.72193605 -0.14281191 -0.5353194 0.19224486
0.45386854 -0.29944566 -1.0616822 0.15341532 -0.16403918 -0.061543904 0.42351902 -0.35540837
0.1883831 0.37950343 -0.6981852 -0.6804114 0.7219176 0.44633114 0.30428153 0.28580242
0.6958134 -2.0295413 -0.6017904 0.6375666 -0.31400776 0.6000187 -0.3494614 0.47840604
-0.25005972 -0.09218778 0.4530575 -0.30343208 0.5074148 0.28970712 0.49581164 0.6891858
-0.47232154 0.6507418 -0.4770939 -0.58987457 0.5357989 -0.3560477 -0.19413812 0.09703766
-0.6687934 -0.25325984 0.35359675 0.53960365 0.14424266 0.020934878 0.30273014 -0.15802538
0.034884036 0.11716521 -0.34273934 -0.55819887 0.7333019 -0.0096766995 -0.40773323 0.6806969
0.09171005 0.49515364 -0.39573258 -0.24823207 -0.3622283 1.0696536 0.56577826 0.34114227
0.056422412 0.18093479 -0.38043186 -0.27265292 0.1652636 -0.51974684 -0.09303182 -0.25180888
0.13439804 0.24999309 -0.048814308 -0.44613728 -0.50993615 -0.62253547 0.18813175 -0.3296707
0.28556544 -0.31968528 0.21728195 -0.42939115 -0.4183901 0.040326256 -0.39913383 0.16742232
-0.09276115 0.53637725 -0.3836163 -0.53295696 -0.6931219 -0.24771422 -0.07579875 -0.21653888
0.29353923 0.4169696 -0.10899401 -0.35156456 -0.2901709 0.658588 -0.1869601 -0.18915075
0.08284698 0.29163602 -0.03390715 -0.045682695 -0.48929292 0.15865391 -0.22680947 -0.41581652
-0.23857602 0.66404516 -0.5313717 0.4531002 0.6327334 -0.5814693 -0.28180444 -0.20654702
0.6341439 -0.5445599 -0.45906168 -0.25523937 0.4609865 0.30788836 0.34749436 0.16881828
-0.56469107 0.8962814 0.64367497 -0.0899416 -0.12416318 0.42980278 0.5029952 0.020464722
-0.013585287 -0.091437384 0.67423666 0.9104598 0.2158881 -0.40339726 0.40785903 -0.573194
0.1424734 -0.020209938 0.042642236 -0.51892227 -0.55916256 0.3147542 -0.4867208 0.27786404
0.40823442 -0.08286321 0.4576189 0.05105734 0.68652415 0.52561194 1.3072934 0.7924803
-0.39749807 1.0431471 0.29799575 0.49453473 -0.5122777 0.7107543 -0.356198 -0.18902594
-0.20415163 0.50937706 -0.6006813 0.74150395 0.1644331 0.46205273 -0.57028973 -0.28825286
0.35037345 -0.3898061 -0.118673146 -0.4187201 0.30368093 0.8591473 -0.19512515 -0.4605619
-0.5455169 0.37326214 0.61058193 -0.79807824 -0.17181069 0.6611394 -0.50420326 0.27288407
-0.1306109 0.5285871 0.17017946 0.49013966 -0.616562 -0.5238371 -0.38276562 0.5943126
-0.35743207 0.61390334 0.7398472 0.34011686 -0.26159745 -0.32313153 0.5442189 0.21005195
-0.39436865 -0.5310736 -0.13913073 -0.21323194 -0.13923508 -0.65615875 -0.67911327 0.39320916
0.042296708 0.034443736 0.3171143 -0.28196073 0.034953885 -0.20470484 -0.2349244 0.89591086
-0.505872 -0.700462 0.2075094 -0.16140561 0.072937414 -0.011055229 -0.006390545 -0.14848256

fc_1.bias f4 [128]
00000000: e030 0ebd 136c f33e b484 a63e 9d85 86be
00000010: 2d22 c8bc 544c a637 d93b fe3e c025 29be
00000020: 99e3 89be 70c3 363f a914 3b3f 3b18 a93e
00000030: 9a59 d43e 356f 9d3e 8f24 c03e 0f35 293e
00000040: dafa 24bf 42cb bebe c270 063d 8c7a d5be
00000050: 662a 0539 e65c 5d3e d921 f43e 0e2b a93e
00000060: a7f3 3d3f e6aa 903e 4385 a6be 47d7 d5be
00000070: f877 8c3e 2824 a43e 0094 61be 92e6 043f
00000080: 4678 2f3f 4fd2 f0be e3b6 0e3f 663e 6dbe
00000090: 5ee9 cebe 56b4 213f e097 4e3c da04 a4be
000000a0: 7d9a 303f e6e6 143f 48f4 2c3e 41df 063f
000000b0: 5008 33bf d4f7 27be e126 8fbe a229 fabe
000000c0: ed00 c8be 6012 8b3e feca 06bf a0e9 cbbe
000000d0: d5f1 0e3f ea97 2b3f 3aef 4f3f 7acb 403e
000000e0: 33af 973e af29 bebe 012a c2be a0f4 2ebe
000000f0: 065b 81be 5312 22bf 5a26 2c3e 402a 06be
00000100: ddba 7c3e b15c dd3e 9c5a ea3e b4ae cbbe
00000110: 2d51 9bbe 6f3a d93e c462 a6be e7e4 2cbf
00000120: a49d 993e 95e4 83be a142 e13e ec68 e43e
00000130: dcf5 813e 88f1 c03e c772 4f3e c67c 183f
00000140: ba44 f23e c772 f1bc 6213 193f c6a9 343f
00000150: 57a5 f43e 5d01 e2be 5925 e03e a7f2 20bf
00000160: aceb f3be 5e31 bfbe ad84 b33e f061 86be
00000170: 7603 2a3e 1a10 0d3f c5a5 4d3f b2dc a2be
00000180: 52c0 d5be 8058 9f3e 2f40 b53e c510 203f
00000190: 1e34 a2be b8a5 b0bd c369 343f ef49 fa3e
000001a0: 6f11 433f e7fb f8bd b3c8 1dbf b404 bebe
000001b0: bf53 0b3e f360 f23e aaf3 ccbe fb75 b2be
000001c0: 82b8 26bf 8ffe a93e bebc f53e c361 8c3d
000001d0: 0071 8abb 3b72 2a3f 804f 8ebc 1601 efbe
000001e0: f868 ffbd 846d 1bbe c475 d63e 4ba9 2c3f
000001f0: 7cd3 07bf dcc3 b23e 4976 66bd d8ab 0dbc
-0.03471458 0.47543392 0.3252312 -0.26273814 -0.024430359 1.9824285e-05 0.49655035 -0.16518307
-0.26931456 0.71391964 0.730784 0.330263 0.4147461 0.30748907 0.37527892 0.16524146
-0.6444527 -0.37264448 0.032822378 -0.41695058 0.00012699663 0.21617469 0.47682074 0.3304066
0.7419991 0.28255385 -0.32523546 -0.41765806 0.2743528 0.32058835 -0.22029114 0.5191432
0.685429 -0.47035453 0.55747813 -0.23168334 -0.4041242 0.63165796 0.012609452 -0.3203495
0.6898573 0.58164823 0.16890061 0.5268441 -0.6993456 -0.16403133 -0.2795935 -0.48859888
-0.39063206 0.27162457 -0.5265349 -0.3982668 0.55837756 0.6702868 0.81224406 0.1882762
0.29625854 -0.37141177 -0.3792267 -0.17085505 -0.25264758 -0.6330921 0.16811505 -0.13102055
0.24680658 0.4323478 0.45772254 -0.39781725 -0.3033537 0.42427394 -0.32497227 -0.6753678
0.30003083 -0.25760332 0.43996146 0.446113 0.25382888 0.37684274 0.20258628 0.5956539
0.4731806 -0.029473675 0.597952 0.70571554 0.47782394 -0.44141665 0.43778494 -0.6287026
-0.4764074 -0.37342352 0.3506216 -0.26246595 0.16602883 0.55102694 0.8033107 -0.31809002
-0.4174829 0.31122208 0.3540053 0.6252559 -0.31680387 -0.08625358 0.7047388 0.48884532
0.76198477 -0.121574216 -0.6163437 -0.37112963 0.13606165 0.4733959 -0.4002965 -0.34855637
-0.65125287 0.33202025 0.4799556 0.06854584 -0.0042248964 0.6658055 -0.017371893 -0.46680516
-0.12471193 -0.15178496 0.41886723 0.6744582 -0.53057075 0.34915054 -0.05626515 -0.008646928

fc.weight f4 [1, 128]
00000000: 8077 233c 295d ad3d fedb 183e 6f97 80bd
00000010: 841f 913e c785 1fbf dbf9 223b fa12 35bd
00000020: 2eef 2d3d bc9e c63d 2385 8e3d 81f1 eb3d
00000030: 64fc 273d 78e1 5d3e bf0b d63d 67c8 033e
00000040: 8398 88bd 5299 5bbd 37d5 dc3d efb9 87bd
00000050: e9a2 b7bf 7c02 3d3e d0aa 1d3e 5474 2e3e
00000060: 230c a83d 8951 a23d 177d 42bd 80a9 2a3b
00000070: 0d82 083e d559 283d 80f0 833d f21e 2a3e
00000080: f25f b93d dbcb adbd 310a e4ba 203e 5bbb
00000090: eec5 173d 784f c83c 1e57 6e3d 81c3 b43d
000000a0: dda9 283e cc0e 493d a048 d63e f339 9c3d
000000b0: 2afb 073d d143 74bd fac3 8ebd 3cb4 bbbc
000000c0: d051 30bc ffdc 283d 90e4 fb3c 24be 0cbd
000000d0: cf2c e43d 1efd 303e b421 c03d 54f7 c13d
000000e0: e145 133e 8b7f 903d 1e24 343d 2207 163d
000000f0: 6c0b acbd 3b39 b23d e73e d23e b519 44bd
00000100: f5af 3e3e 8fe0 d73d e26f 2c3e c0a3 8fbd
00000110: 8070 31bc 550c 1b3c 05ea a23d f5e8 a73d
00000120: 2b50 363c 66d8 7c3d 1557 143e 9300 0b3e
00000130: 3b47 cc3e 0b1a d73d 4a94 4a3d c9e4 9a3d
00000140: 194d db3d ea8b 733e 4cb2 113d a98f 3b3d
00000150: a2aa 363e e83b 073c ef66 df3d 2e13 113d
00000160: 19c7 b2bd 4088 5d3b 2504 a73d 0048 1ebf
00000170: ce02 e53e be99 243e 8cc1 053e 90fa a8bc
00000180: a8d8 91bc 6b9a d63d 227f 2d3d 26b5 2d3e
00000190: 7b57 9dbd b1ca 53bd 2350 9b3d 1067 bb3d
000001a0: a688 063e c0ef 8cbe 2bcd a33d 1873 6fbc
000001b0: a49e 113d 4910 b43d e800 263c 0036 7539
000001c0: 41e1 a53d 03eb c13d 8519 2c3e 7bb4 47be
000001d0: 0041 95bc f7ae 283d 1c1d 82bd 6c04 97bc
000001e0: 8f27 9d3d ec6a b63c 8e86 323e e67a dc3d
000001f0: c89b 4fbc 0bb2 c63d 04e8 a13c afdd d1bc
0.0099772215 0.084650345 0.1492767 -0.06278884 0.28344357 -0.62313503 0.0024868164 -0.04420755
0.042464428 0.09698245 0.069589876 0.115206726 0.041012183 0.21668041 0.10451459 0.12869416
-0.06669714 -0.053613015 0.10782855 -0.06627261 -1.4346591 0.18457979 0.15397191 0.17036563
0.0820544 0.07925708 -0.047482576 0.0026040971 0.1333086 0.041101296 0.06442356 0.16613367
0.09051503 -0.08486148 -0.0017398057 -0.0033453777 0.037053995 0.024451956 0.05818855 0.08826352
0.16471048 0.049086377 0.41852283 0.076282404 0.033198513 -0.059634987 -0.06970973 -0.02291309
-0.010761693 0.041226383 0.030748636 -0.03436102 0.11141359 0.17284057 0.09381428 0.09471002
0.14382125 0.07055577 0.043979757 0.036627896 -0.08400616 0.08702322 0.41063616 -0.04787608
0.1862181 0.10540878 0.16839555 -0.07013655 -0.010830045 0.009463389 0.07954792 0.0819873
0.011127512 0.06172981 0.14486344 0.13574438 0.39898095 0.10503014 0.049457826 0.075631686
0.107080646 0.23783842 0.035570428 0.045791302 0.17838529 0.008254029 0.10908305 0.03541868
-0.08729381 0.0033803135 0.081550874 -0.61828613 0.44728702 0.16074273 0.13062114 -0.02062729
-0.017803505 0.10478672 0.04235757 0.16963634 -0.07682701 -0.051706973 0.07583644 0.09150517
0.13138065 -0.27526665 0.07998117 -0.014614843 0.035551682 0.08792169 0.010132052 0.00023385137
0.080996044 0.09468653 0.1680661 -0.19502442 -0.018219471 0.041182484 -0.063532084 -0.018434726
0.07673561 0.022267781 0.17434141 0.107656285 -0.0126714185 0.09701928 0.019763954 -0.025618402
