backups/2022-06-24/best-model-3.pt (torch, 4687 bytes, 7 tensors)

lstm.weight_ih_l0 f4 [8, 6]
-0.13425633 0.029445818 0.23725037 0.29532915 -2.116 -0.33100897 -1.1671755 -0.15085836
-0.015605111 1.1505497 0.7569052 -1.0478371 -0.14227897 0.04463452 -0.6207504 0.29057056
-0.5364813 -0.4894569 0.5180685 -0.29447505 -0.3316279 -0.23992237 0.4821729 -0.052752435
0.06733306 1.9835451 -0.57364655 -0.19963954 -1.733698 -0.1305294 0.0083783185 -0.007988695
-0.7738467 0.50410914 -0.023172453 -0.37449446 0.7181623 0.028431347 1.379784 -0.24060564
-1.2182189 -0.44432768 1.4087251 -0.97959065 1.0499568 0.51878536 0.63436455 0.57283944
00000000: 7e7a 09be 5b38 f13c c3f1 723e 6235 973e
00000010: 8b6c 07c0 027a a9be 0266 95bf 9d7a 1abe
00000020: 94ac 7fbc 3645 933f 8ac4 413f 871f 86bf
00000030: 94b1 11be b0d2 363d 80e9 1ebf aac5 943e
00000040: d756 09bf 189a fabe 23a0 043f 6fc5 96be
00000050: 22cb a9be 36ae 75be 5edf f63e f012 58bd
00000060: eae5 893d cee4 fd3f 80da 12bf 4f6e 4cbe
00000070: d1e9 ddbf 80a9 05be 3745 093c 04e3 02bc
00000080: d11a 46bf 4c0d 013f 28d4 bdbc bdbd bfbe
00000090: 7cd9 373f dbe8 e83c c39c b03f 5361 76be
000000a0: 99ee 9bbf eb7e e3be 1b51 b43f 74c6 7abf
000000b0: fc64 863f 1ecf 043f b765 223f 9ba5 123f

lstm.weight_hh_l0 f4 [8, 2]
-0.05722195 -0.35389435 0.6623407 -0.21052772 -0.11628026 0.6676337 -0.303979 -0.15421051
-0.07967448 -0.40844646 0.5742082 -0.6248864 -0.41412523 0.5001158 -0.4166855 -0.5850414
00000000: 9061 6abd a431 b5be 298f 293f 9494 57be
00000010: 5824 eebd 0bea 2a3f 23a3 9bbe 5ce9 1dbe
00000020: 602c a3bd e51f d1be 4fff 123f 8ef8 1fbf
00000030: 3908 d4be 9707 003f cd57 d5be 46c5 15bf

lstm.bias_ih_l0 f4 [8]
-1.099131 -0.4506155 0.10871279 -0.10196829 0.3116484 -1.5290929 1.4741104 -1.4296412
00000000: 53b0 8cbf 13b7 e6be d0a4 de3d c0d4 d0bd
00000010: 6190 9f3e 51b9 c3bf a6af bc3f 7cfe b6bf

lstm.bias_hh_l0 f4 [8]
-1.502512 -0.5911579 0.0064311028 -0.35974982 -0.6503704 -0.25353685 0.7442329 -1.1233795
00000000: 5052 c0bf 2056 17bf 00bc d23b 2131 b8be
00000010: ad7e 26bf 95cf 81be 0c86 3e3f e6ca 8fbf

fc_1.weight f4 [128, 2]
-1.1273996 -1.2656049 -1.2369558 -1.2534173 -0.22511779 -0.32827744 -0.03455335 -0.31885666
-4.235766 -0.4195048 -0.9816522 -0.060286336 -0.36745954 0.8950975 0.052525282 -0.45451674
0.6418559 0.52254516 -1.4398372 -0.58752096 0.0812732 -0.050848246 -0.31771854 0.20960468
-0.7065366 -0.7624041 -0.49632478 -0.82386386 0.027231514 0.20009923 -0.13197677 0.24736135
-0.10356404 -0.43471974 -0.44596854 0.18800873 -0.34351647 0.21592343 -0.41493812 -1.0621175
-0.69368345 0.41058856 -0.25734982 0.42965752 -0.24474724 -0.4362219 0.056849852 -0.031314533
-0.62914443 0.6947536 -0.8591135 0.106772885 -0.33142537 -0.573541 -0.68863237 -0.5112933
-1.4527338 -1.085993 -0.8106869 -0.5166166 -0.38836375 -0.091585174 -0.5668958 -0.30915937
0.39307874 0.15345818 -0.7782615 -0.5072186 -0.6196072 0.5796923 -0.19047773 0.6947749
-0.20286986 1.0700125 0.6063903 -0.41581827 -0.52017516 -0.33347145 -3.6812344 -1.0406716
-0.17153633 -0.5912828 -0.68315357 0.62372714 -0.46058783 0.3988045 -0.52834064 -1.1853673
-0.06581136 -1.0629516 -0.6423274 -0.5806455 0.34563345 -0.4463256 -0.31226844 -0.5319984
-0.5460194 -0.18664767 -0.14099006 0.8052438 -1.4834489 -0.089228585 -0.14983982 -0.12557036
0.29380837 0.6094726 -0.64007086 -1.0819173 0.54248804 -0.21083689 0.016382813 -0.6343412
0.5882763 -0.15769911 -0.052369 0.55409926 0.4268003 0.057224203 -0.58335793 -0.09058034
-0.50745916 -0.44705203 -0.7032471 0.58768857 0.032669146 0.7585123 -0.20266205 0.09440255
-1.2494067 -0.4216186 -1.7883743 -0.09952776 0.024852037 0.2889313 0.059320718 0.06653728
0.02052629 0.61281747 0.6063166 0.008862734 -1.1405653 -0.5498829 -0.51942027 0.11418599
-0.6034597 -0.1590401 -0.03602916 -0.51271564 -1.5219951 0.010645688 -0.18233153 0.34011194
0.31978148 0.37279612 -0.25085086 -0.25272757 0.084730215 -0.4921859 0.15190828 0.54786724
-1.4370254 0.4537832 -0.650119 0.37009388 -0.20244047 0.62930125 -0.23372427 -0.6764301
-0.21011135 -0.547433 -0.8921881 0.16826111 -0.8719981 -0.37546134 0.15040189 0.2591833
-0.2438716 0.37067777 0.022167472 -0.26794535 0.12547243 -0.59005535 -0.59823203 -0.43910018
-1.3584864 -0.61259365 -1.406384 0.51607436 0.10480741 0.6662409 -0.25774813 -0.50063384
-0.10703528 0.34036785 -0.7003964 0.01299494 -0.19559199 -0.1914877 0.6116641 -0.5069811
-1.3907108 -1.242115 0.31626022 0.22038028 0.15948975 -0.6786086 -1.5229508 -0.26909998
-0.6490193 -0.5379005 -0.289071 -0.3007256 -0.21247275 -0.29238588 -0.11319649 -0.5099149
0.4329397 -0.001356964 -0.54830104 -0.19828847 0.26446968 -0.055334568 -0.4840885 -0.012356789
-0.31550625 0.41494793 0.66292065 -0.34326476 -0.54421604 -0.32123333 -0.123666525 0.09436256
-0.42697644 0.91640216 -0.29064348 0.107954204 -0.4410967 -0.33379436 -1.425177 -0.465509
0.09273368 -0.42661393 -0.6434032 0.17676532 0.20422228 -1.051482 -0.110962555 0.209868
-2.46116 0.023003079 -0.25334966 0.029826164 -0.7052195 -0.8893435 -0.13645345 0.30137804
00000000: a14e 90bf 57ff a1bf 9154 9ebf fa6f a0bf
00000010: 4785 66be fb13 a8be d087 0dbd 2e41 a3be
00000020: 658b 87c0 55c9 d6be 8f4d 7bbf ceee 76bd
00000030: a823 bcbe 1c25 653f c024 573d 6bb6 e8be
00000040: ab50 243f 85c5 053f 964c b8bf c667 16bf
00000050: 9072 a63d 4046 50bd 01ac a2be 9ca2 563e
00000060: 95df 34bf ea2c 43bf 481e febe bee8 52bf
00000070: a014 df3c d0e6 4c3e eb24 07be 4b4c 7d3e
00000080: 6219 d4bd 9693 debe fd55 e4be 5c85 403e
00000090: 64e1 afbe 081b 5d3e c572 d4be 77f3 87bf
000000a0: 3d95 31bf aa38 d23e 5bc3 83be 12fc db3e
000000b0: 059f 7abe 7a58 dfbe 64db 683d ab43 00bd
000000c0: 9c0f 21bf 5fdb 313f ddee 5bbf beab da3d
000000d0: 96b0 a9be 95d3 12bf 364a 30bf 1ee4 02bf
000000e0: 2ef3 b9bf d201 8bbf 2d89 4fbf fc40 04bf
000000f0: 9dd7 c6be 0291 bbbd 1520 11bf 234a 9ebe
00000100: 9e41 c93e 2424 1d3e 253c 47bf 14d9 01bf
00000110: 949e 1ebf b766 143f 980c 43be c5dc 313f
00000120: 1ebd 4fbe 2bf6 883f 653c 1b3f 22e6 d4be
00000130: 332a 05bf c5bc aabe 5899 6bc0 ba34 85bf
00000140: 38a7 2fbe 4f5e 17bf 27e3 2ebf 95ac 1f3f
00000150: 2bd2 ebbe 1a30 cc3e 5541 07bf 1eba 97bf
00000160: 1bc8 86bd cc0e 88bf 926f 24bf 2fa5 14bf
00000170: def6 b03e ca84 e4be a6e1 9fbe 0c31 08bf
00000180: edc7 0bbf 9120 3fbe b35f 10be 7524 4e3f
00000190: a7e1 bdbf 7abd b6bd 9c6f 19be 8495 00be
000001a0: 0d6e 963e 6506 1c3f afdb 23bf 447c 8abf
000001b0: 7fe0 0a3f a0e5 57be 4035 863c 2f64 22bf
000001c0: 4799 163f e07b 21be e080 56bd 73d9 0d3f
000001d0: 9285 da3e ed63 6a3d f256 15bf 2f82 b9bd
000001e0: d8e8 01bf 01e4 e4be 0008 34bf c272 163f
000001f0: 15d0 053d dd2d 423f a486 4fbe 2056 c13d
00000200: 8fec 9fbf 65de d7be 73e9 e4bf 36d5 cbbd
00000210: 8096 cb3c ceee 933e 48fa 723d b344 883d
00000220: c026 a83c 9be1 1c3f 9137 1b3f 0035 113c
00000230: 0bfe 91bf 20c5 0cbf baf8 04bf 58da e93d
00000240: 567c 1abf 68db 22be 5093 13bd 5541 03bf
00000250: bcd0 c2bf 406b 2e3c 1eb5 3abe 2723 ae3e
00000260: 66ba a33e 22df be3e 866f 80be 8265 81be
00000270: 0987 ad3d caff fbbe d88d 1b3e 0741 0c3f
00000280: 73f0 b7bf 4656 e83e 336e 26bf f27c bd3e
00000290: 8e4c 4fbe e319 213f 6a55 6fbe 862a 2dbf
000002a0: 6e27 57be 9224 0cbf 7066 64bf a44c 2c3e
000002b0: 443b 5fbf 783c c0be f402 1a3e acb3 843e
000002c0: 7ab9 79be 7ac9 bd3e 8f98 b53c 2230 89be
000002d0: d87b 003e de0d 17bf bc25 19bf bdd1 e0be
000002e0: e2e2 adbf f0d2 1cbf 6404 b4bf 731d 043f
000002f0: 44a5 d63d c38e 2a3f 90f7 83be 8a29 00bf
00000300: 5035 dbbd b244 ae3e 2e4d 33bf bbe8 543c
00000310: 4449 48be 5a15 44be 0596 1c3f 83c9 01bf
00000320: d002 b2bf a0fd 9ebf dcec a13e 5eab 613e
00000330: 4851 233e 4bb9 2dbf 0df0 c2bf 79c7 89be
00000340: 2126 26bf d9b3 09bf 1d01 94be b5f8 99be
00000350: 7592 59be 9ab3 95be 90d3 e7bd c889 02bf
00000360: 46aa dd3e 28dc b1ba 755d 0cbf 220c 4bbe
00000370: 9268 873e 80a6 62bd 73da f7be 2174 4abc
00000380: 098a a1be 0e74 d43e 2bb5 293f 66c0 afbe
00000390: be51 0bbf b278 a4be e044 fdbd 2841 c13d
000003a0: a89c dabe 5599 6a3f 39cf 94be 1817 dd3d
000003b0: 6dd7 e1be 18e7 aabe 336c b6bf 3257 eebe
000003c0: 28eb bd3d 246d dabe 12b6 24bf f801 353e
000003d0: a51f 513e f696 86bf 5640 e3bd a3e7 563e
000003e0: a583 1dc0 f470 bc3c 0cb7 81be 0056 f43c
000003f0: 4489 34bf 04ac 63bf 74ba 0bbe 394e 9a3e

fc_1.bias f4 [128]
-0.4125078 -0.4162121 -0.5804167 -0.18928295 0.162799 -0.103704676 0.70147204 -0.5640842
-0.7003042 0.1848331 -0.07891297 -0.6329476 -0.5709124 -0.76199365 -0.29702628 0.09947205
-0.40224022 -0.19636518 0.492682 -0.59913045 -0.109128654 -0.63461655 -0.6214405 0.28044793
-0.2640944 0.019239333 -0.35056552 -0.34596208 0.1861041 -0.14787568 0.2653455 -0.7036119
-0.5028391 -0.33871672 -0.40514374 -0.34230876 0.43950942 -0.5965459 -0.6207951 0.12151488
-0.22970444 0.5315694 -0.59679246 -0.62356174 -0.54648644 -0.5663185 -0.35731795 -0.18030566
-0.7026426 0.17452751 -0.59214526 -0.08825868 0.65298593 -0.5646365 0.643443 -0.39025965
-0.5810994 -0.65693855 -0.12073903 0.5207632 -0.46432114 0.09019079 -0.56550515 -0.4735151
-2.286251 0.039655894 -0.42928654 0.49056262 -0.30184054 -0.4894731 0.019707501 -0.4677957
-0.052425206 -0.1726554 -2.095827 0.31881565 -0.54131436 0.50778645 -0.6776578 -0.52830946
-2.3773756 -0.6406065 0.5764956 -0.5973162 0.25507292 -1.6124825 -0.60693383 -0.3355814
-0.33332634 0.2707915 -0.43526012 -0.6274697 -2.4629395 0.083107315 0.10357358 -0.11974281
-0.34718576 0.5570568 -0.3149611 -0.6191898 -0.3152696 0.06219657 -0.67391825 0.21641752
-0.2580881 -0.23049134 0.26796427 -0.06896144 0.14887385 0.3940362 -0.5781439 -0.22327109
-0.6429796 -0.6973407 -0.33742666 -0.5935039 -0.06947851 -0.18814284 -0.040811956 -2.284832
-0.12275314 -0.28977853 -0.41740954 0.16954854 0.14545314 -0.34457913 -0.57363576 0.42058596
00000000: 3934 d3be c119 d5be 3096 14bf 64d3 41be
00000010: c8b4 263e 1e63 d4bd ac93 333f d267 10bf
00000020: 2347 33bf e344 3d3e 209d a1bd db08 22bf
00000030: 5127 12bf 0412 43bf d413 98be 01b8 cb3d
00000040: 6ef2 cdbe f413 49be d140 fc3e 9d60 19bf
00000050: d87e dfbd 3b76 22bf b916 1fbf df96 8f3e
00000060: 6237 87be ce9b 9d3c 537d b3be f121 b1be
00000070: 1392 3e3e b96c 17be 5edb 873e e91f 34bf
00000080: 10ba 00bf 476c adbe 006f cfbe 1843 afbe
00000090: 6107 e13e 3bb7 18bf 6dec 1ebf cbdc f83d
000000a0: a437 6bbe ef14 083f 64c7 18bf bea1 1fbf
000000b0: 89e6 0bbf 40fa 10bf 61f2 b6be 0ca2 38be
000000c0: 63e0 33bf 57b7 323e d596 17bf f8c0 b4bd
000000d0: 162a 273f 058c 10bf aeb8 243f 1dd0 c7be
000000e0: eec2 14bf 202d 28bf 0646 f7bd bd50 053f
000000f0: 80bb edbe f3b5 b83d f2c4 10bf 9270 f2be
00000100: f051 12c0 386e 223d 72cb dbbe 062b fb3e
00000110: d88a 9abe 389c fabe a071 a13c eb82 efbe
00000120: d0bb 56bd 94cc 30be 0822 06c0 ce3b a33e
00000130: 9493 0abf 4bfe 013f fb7a 2dbf 4a3f 07bf
00000140: ec26 18c0 cafe 23bf 3795 133f b7e9 18bf
00000150: eb98 823e d465 cebf 0460 1bbf 53d1 abbe
00000160: c0a9 aabe 2fa5 8a3e 6ada debe dba1 20bf
00000170: cda0 1dc0 2b34 aa3d 631e d43d b83b f5bd
00000180: 55c2 b1be 469b 0e3f 9542 a1be 3983 1ebf
00000190: 046b a1be d5c1 7e3d e885 2cbf 8e9c 5d3e
000001a0: 2024 84be ec05 6cbe 9d32 893e a83b 8dbd
000001b0: 6372 183e 1dbf c93e 3d01 14bf 2da1 64be
000001c0: 509a 24bf ec84 32bf 30c3 acbe dfef 17bf
000001d0: c04a 8ebd 84a8 40be 702a 27bd b03a 12c0
000001e0: 0066 fbbd da5d 94be b4b6 d5be 229e 2d3e
000001f0: abf1 143e ad6c b0be cbd9 12bf 0b57 d73e

fc.weight f4 [1, 128]
0.5570233 0.56070715 0.5272613 0.08046592 0.20858832 -0.0060492856 0.39659354 -0.009606317
0.008887358 0.17578846 0.0599794 -0.04755551 0.49043423 0.48376486 -0.05871413 0.09171605
0.5568268 0.020356841 0.29516733 0.53391093 -0.07436481 0.06524531 0.5416872 0.22369727
-0.084433466 0.0549524 0.069286145 -0.017753392 0.14954329 0.013252945 0.21490254 0.40414292
0.04362362 0.23607112 0.081267886 0.08661013 0.30327535 -0.02641699 0.54625934 0.18584195
-0.061251465 0.2960235 0.06875207 0.24735363 0.5493954 0.50519085 -0.021490112 -0.08319082
0.45947188 0.15339847 0.26381263 -0.04340045 0.37409455 0.53867555 0.362039 -0.062753685
-0.006205313 -0.05355469 -0.09017774 0.29447195 -0.006451577 0.091997914 -0.43207237 0.08233353
-1.8300163 0.09110298 0.07650038 0.2745085 -0.07582984 0.049019687 0.065965675 -0.029550452
0.030134015 0.04428234 -1.843719 0.21177107 0.01653719 0.27599937 0.5337396 0.084162824
1.9919832 0.026863642 0.33110726 0.51829046 0.21007736 1.9572499 0.25232223 -0.014539875
-0.027532343 0.21231245 0.08490243 0.29153848 2.0211077 0.1026687 0.09343782 -0.084204175
-0.05088566 0.33080843 0.24977054 -0.06836533 0.23413475 0.060175613 -0.030107494 0.1973863
0.58922386 0.044299237 0.19242708 -0.087827384 0.13239779 0.2668899 0.029976167 -0.19868177
-0.3930645 -0.0051663592 -0.087761864 0.08155491 -0.03449481 0.07171368 0.08389858 1.9218687
-0.014048167 -0.018033206 -0.48490304 0.13674589 0.18418519 -0.004747264 0.5759973 0.25545153
00000000: 1499 0e3f 818a 0f3f 99fa 063f 51cb a43d
00000010: 2d98 553e 1639 c6bb 4f0e cb3e d063 1dbc
00000020: 489c 113c e401 343e f6ac 753d 91c9 42bd
00000030: 321a fb3e 07b0 f73e 3a7e 70bd a0d5 bb3d
00000040: 338c 0e3f 64c3 a63c 2c20 973e 63ae 083f
00000050: 944c 98bd 559f 853d 03ac 0a3f e610 653e
00000060: 74eb acbd c515 613d e5e5 8d3d 906f 91bc
00000070: e021 193e e122 593c 690f 5c3e d2eb ce3e
00000080: aeae 323d a1bc 713e c76f a63d a760 b13d
00000090: e846 9b3e 7268 d8bc a7d7 0b3f 5a4d 3e3e
000000a0: d1e2 7abd 6490 973e e3cd 8c3d 454a 7d3e
000000b0: 2da5 0c3f 3054 013f 080c b0bc f35f aabd
000000c0: e63f eb3e 7d14 1d3e 7312 873e acc4 31bd
000000d0: 5289 bf3e a4e6 093f 2d5d b93e 0185 80bd
000000e0: f055 cbbb 2a5c 5bbd 1baf b8bd 07c5 963e
000000f0: c067 d3bb 6769 bc3d 9738 ddbe 7b9e a83d
00000100: f93d eabf 3394 ba3d 3bac 9c3d 618c 8c3e
00000110: ad4c 9bbd dec8 483d 0319 873d ca13 f2bc
00000120: 9cdb f63c 6661 353d fcfe ebbf 84da 583e
00000130: 0079 873c ca4f 8d3e 29a3 083f 8f5d ac3d
00000140: 4ef9 fe3f 2411 dc3c e486 a93e afae 043f
00000150: 851e 573e 2a87 fa3f 6130 813e a838 6ebc
00000160: 828b e1bc 6f68 593e 53e1 ad3d 8844 953e
00000170: d459 0140 f843 d23d 545c bf3d 3d73 acbd
00000180: 7b6d 50bd b95f a93e d9c3 7f3e 1f03 8cbd
00000190: 05c1 6f3e b47a 763d fea3 f6bc a21f 4a3e
000001a0: 60d7 163f 1e73 353d 9b0b 453e d8de b3bd
000001b0: 4993 073e cba5 883e 9490 f53c 3c73 4bbe
000001c0: c03f c9be 904a a9bb 7ebc b3bd 4306 a73d
000001d0: 6e4a 0dbd 9fde 923d 05d3 ab3d cbff f53f
000001e0: 482a 66bc 60ba 93bc 3645 f8be 1d07 0c3e
000001f0: 0b9b 3c3e f08e 9bbb 8f74 133f 8bca 823e
