backups/2022-06-24/best-model-1.pt (torch, 4687 bytes, 7 tensors)

lstm.weight_ih_l0 f4 [8, 5]
0.22899967 -0.2726474 -0.016063567 -0.13380143 -1.0804456 -0.2507073 -0.09745391 -0.009524638
0.13683009 -0.005622907 -0.11144519 -0.3894744 -0.00074237585 0.3516187 -0.3912399 0.3877651
0.40322584 0.42319936 -0.5430475 -0.32462388 -0.52409863 -3.03311 0.087708615 0.06298372
-0.5093853 -0.8718893 1.0241523 0.011155453 0.25614524 -0.2851367 -0.026551953 -1.2192132
0.020233642 -0.81281537 0.33888474 0.3529907 0.30713958 0.0055855643 -0.08542324 -0.87821716
00000000: e47e 6a3e 7198 8bbe be97 83bc 3e03 09be
00000010: 0b4c 8abf b55c 80be ea95 c7bd 3a0d 1cbc
00000020: 301d 0c3e 5d40 b8bb 603d e4bd 3069 c7be
00000030: 009c 42ba 5e07 b43e 9950 c8be 2689 c63e
00000040: 9e73 ce3e 96ad d83e 2905 0bbf 1a35 a6be
00000050: 542b 06bf 791e 42c0 93a0 b33d 9cfd 803d
00000060: 1367 02bf 2334 5fbf 6c17 833f 5cc5 363c
00000070: 7825 833e 70fd 91be 7b83 d9bc 2e0f 9cbf
00000080: 06c1 a53c ab14 50bf 4d82 ad3e 32bb b43e
00000090: 6641 9d3e 1c07 b73b 61f2 aebd d7d2 60bf

lstm.weight_hh_l0 f4 [8, 2]
0.16495186 -0.46495914 -0.06081724 -0.37405327 -0.26499888 0.010740221 0.4245935 0.49139982
0.5866677 -0.05735612 -0.5181274 0.4875818 -0.51629907 0.42010528 -0.121181786 -0.52265835
00000000: 24e9 283e 200f eebe 801b 79bd e983 bfbe
00000010: efad 87be c0f7 2f3c 5264 d93e c298 fb3e
00000020: db2f 163f 40ee 6abd ffa3 04bf 52a4 f93e
00000030: 2d2c 04bf 0a18 d73e 282e f8bd f0cc 05bf

lstm.bias_ih_l0 f4 [8]
-0.15122627 0.0922879 -0.0753873 0.5652428 -0.10787883 1.6133169 0.94918776 -0.37222713
00000000: 0fdb 1abe 7001 bd3d a864 9abd c1b3 103f
00000010: 93ef dcbd 2b81 ce3f f8fd 723f 8e94 bebe

lstm.bias_hh_l0 f4 [8]
-0.36019027 0.02226131 -0.5916631 0.3503453 0.3640225 0.6121747 -0.103676565 0.61040795
00000000: dc6a b8be 5a5d b63c 3c77 17bf 7660 b33e
00000010: 2861 ba3e 7bb7 1c3f 6154 d4bd b243 1c3f

fc_1.weight f4 [128, 2]
0.020979524 -0.4608901 0.42932588 0.22136444 0.09208202 0.30592328 -0.5423149 0.35447985
-0.4159752 -0.53099227 -0.45585945 -0.520654 0.6874718 0.44249377 0.3135037 0.011502376
-0.038432896 0.17296153 0.47730893 -0.5853672 -0.28852266 0.0916189 -0.34728935 -0.024352849
-0.68936026 -0.43106496 -0.091039754 -0.36334443 1.4345593 0.06165657 0.402301 0.5592001
0.0005502105 -0.28848648 -0.3268878 0.27624142 0.01703906 0.35740632 0.44138944 -0.2546182
-0.1485394 -0.46235394 0.95294136 -0.5016185 0.13369158 -0.25769642 -0.12158775 0.07610768
0.015775083 0.10829473 0.78131545 -0.4562783 0.17140508 -0.64791644 -0.30737013 -0.029880524
-0.44694522 1.8084314 0.66851336 -2.2230256 -2.822209 1.0887265 -0.6973734 -0.017065167
-0.2388608 0.25670838 -1.1196862 -1.2287964 -0.61966443 0.5071047 -0.6274615 0.028687151
-0.18644053 -0.3057645 0.68532294 1.2893665 0.4461804 -0.031493366 0.1423927 -0.11808777
-0.31252614 -0.07875824 -0.5010427 -0.20253247 -0.46957168 -0.581284 0.515991 -0.08761899
0.31412154 -0.33097675 0.25961953 0.34823957 -0.04705131 0.031684756 -0.7437999 -0.37192318
-0.21980813 0.47897857 -1.3442259 0.11378773 -0.041349314 0.098561674 -0.5014568 0.7041469
-0.070512354 -0.39768964 -0.68486214 -0.64489186 -0.017046982 -0.38434651 -0.5918589 0.14788526
0.5559263 0.67352617 -0.24287353 -0.09338847 0.14698488 0.76092905 0.2276529 -0.5333368
0.2867581 0.44604528 0.0034434795 -0.06751341 -0.63154083 -0.525461 -1.6809001 -0.64228946
-0.04983306 -0.5520347 0.2873175 -0.6979612 0.040920615 -0.5633707 0.24333 -0.12626207
-0.6646915 0.5777041 0.17008293 -0.07420695 -0.2987651 -0.31557435 -0.5348488 -0.34824947
0.37991506 -0.045176208 0.24896234 0.4956947 0.35106635 -0.14285547 0.5254049 -0.64271384
-0.14158928 0.38553053 0.03143108 -0.40042523 -0.34751326 0.25318086 -0.7964951 -0.7366916
0.30188894 0.056275204 1.3056465 -1.0451719 0.5175096 0.39593533 0.16904134 -0.48000127
0.2737434 0.169526 0.23268275 1.1672097 0.18289793 0.10646933 -0.115939915 -0.039794564
-0.36241707 0.6499756 -1.2050009 -0.89438313 -0.4340324 -0.8596559 -0.17986481 0.4911135
0.5890925 -0.25080484 0.32970768 -0.3361577 -0.07192308 0.28063208 -0.04379158 0.15568729
-0.17528954 0.36657217 -0.6686274 0.0629195 0.16731152 -0.003437971 -0.5336255 -0.17793866
0.2037298 0.3590567 -2.5233967 -0.88248646 1.1508219 -0.83745277 -0.68190694 0.45648605
-0.3458176 -0.08726621 0.0142175555 -0.35659453 0.20984188 0.24722564 0.39772516 -0.6613803
-0.08329821 0.22298998 0.5535334 -0.42093593 0.23702846 -0.39378092 -0.15198666 -0.6659202
0.14863324 -0.015171151 -0.12883154 0.39434397 -0.18076208 -0.29870182 0.14479542 -0.023332775
-0.48549905 -0.10404356 0.113833435 -0.16763541 0.23029043 -0.69347405 0.502821 0.62284166
-0.20140934 0.3445959 0.6366009 0.30335206 -0.7465098 -0.023129027 -0.12820457 0.45563394
0.67644423 0.009515464 -0.047409654 -0.54849535 0.29754382 0.5435606 -0.6377672 0.38469476
00000000: 40dd ab3c caf9 ebbe 9ad0 db3e 5cad 623e
00000010: 8095 bc3d faa1 9c3e 26d5 0abf 627e b53e
00000020: b4fa d4be 1cef 07bf 6966 e9be 9549 05bf
00000030: 27fe 2f3f 8b8e e23e 8f83 a03e 7674 3c3c
00000040: d06b 1dbd d41c 313e d661 f43e a0da 15bf
00000050: 3eb9 93be b1a2 bb3d e9cf b1be a07f c7bc
00000060: ea79 30bf 8cb4 dcbe 0d73 babd 4808 babe
00000070: a49f b73f 998b 7c3d 66fa cd3e bd27 0f3f
00000080: 003c 103a 80b4 93be d65d a7be 846f 8d3e
00000090: 8095 8b3c f6fd b63e ccfd e13e 515d 82be
000000a0: b61a 18be a8b9 ecbe f7f3 733f 126a 00bf
000000b0: 72e6 083e c9f0 83be 0003 f9bd 58de 9b3d
000000c0: bf3a 813c a1c9 dd3d 4a04 483f 4f9d e9be
000000d0: d084 2f3e dadd 25bf 9e5f 9dbe 00c8 f4bc
000000e0: 01d6 e4be ae7a e73f b123 2b3f 0d46 0ec0
000000f0: 129f 34c0 645b 8b3f 1087 32bf 40cc 8bbc
00000100: ed97 74be 486f 833e e151 8fbf 3349 9dbf
00000110: 54a2 1ebf 9dd1 013f 51a1 20bf 5101 eb3c
00000120: 44ea 3ebe 2a8d 9cbe 5371 2f3f f609 a53f
00000130: c271 e43e 30ff 00bd 64cf 113e 00d8 f1bd
00000140: 6d03 a0be 004c a1bd 5644 00bf ac64 4fbe
00000150: b36b f0be 07cf 14bf fc17 043f 9671 b3bd
00000160: 8ad4 a03e c975 a9be daec 843e 754c b23e
00000170: e0b8 40bd e0c7 013d ac69 3ebf b76c bebe
00000180: 6215 61be ae3c f53e 980f acbf 8b09 e93d
00000190: e65d 29bd b4da c93d 795f 00bf f942 343f
000001a0: c868 90bd fa9d cbbe 2053 2fbf a217 25bf
000001b0: 1da6 8bbc 11c9 c4be 1184 17bf 3c6f 173e
000001c0: 3051 0e3f 366c 2c3f d7b3 78be 7442 bfbd
000001d0: 3483 163e 3fcc 423f d81d 693e c388 08bf
000001e0: f5d1 923e 0c60 e43e 00ac 613b 7844 8abd
000001f0: a9ac 21bf 9d84 06bf bc27 d7bf 156d 24bf
00000200: c01d 4cbd 2552 0dbf 481b 933e 96ad 32bf
00000210: 609c 273d 1039 10bf 802b 793e d84a 01be
00000220: 3929 2abf 6ae4 133f 382a 2e3e d0f9 97bd
00000230: bdf7 98be f692 a1be daeb 08bf c14d b2be
00000240: 3a84 c23e b00a 39bd fcef 7e3e b2cb fd3e
00000250: f8be b33e b448 12be ef80 063f e588 24bf
00000260: c8fc 10be 4264 c53e e0bd 003d 8904 cdbe
00000270: 42ed b1be eca0 813e 1ae7 4bbf d297 3cbf
00000280: 3091 9a3e d480 663d 6d1f a73f 31c8 85bf
00000290: 827b 043f 09b8 ca3e 2c19 2d3e bac2 f5be
000002a0: 1828 8c3e 3998 2d3e 6344 6e3e 2167 953f
000002b0: 9849 3b3e 980c da3d e871 edbd a0ff 22bd
000002c0: bb8e b9be cd64 263f 783d 9abf 4bf6 64bf
000002d0: 7f39 debe 6912 5cbf 7b2e 38be 3b73 fb3e
000002e0: c4ce 163f 7e69 80be 72cf a83e dd1c acbe
000002f0: 684c 93bd 02af 8f3e cd5e 33bd 7d6c 1f3e
00000300: 1a7f 33be 59af bb3e 2a2b 2bbf f0db 803d
00000310: b653 2b3e 954f 61bb ae9b 08bf 8d35 36be
00000320: 8b9e 503e 48d6 b73e 557f 21c0 a2ea 61bf
00000330: 224e 933f 4e63 56bf 7491 2ebf 8ab8 e93e
00000340: 010f b1be a0b8 b2bd c0f0 683c 8f93 b6be
00000350: cae0 563e b828 7d3e a2a2 cb3e 3850 29bf
00000360: 4098 aabd 7c57 643e 5db4 0d3f ea84 d7be
00000370: 97b7 723e a79d c9be 64a2 1bbe bf79 2abf
00000380: 5033 183e 6b90 78bc 6aec 03be 74e7 c93e
00000390: b219 39be 72ef 98be 4045 143e 6024 bfbc
000003a0: 5593 f8be ca14 d5bd 8121 e93d 9ea8 2bbe
000003b0: 41d1 6b3e 8487 31bf e1b8 003f 8d72 1f3f
000003c0: 403e 4ebe e06e b03e 47f8 223f f650 9b3e
000003d0: 441b 3fbf 1679 bdbc 0f48 03be da48 e93e
000003e0: 732b 2d3f c0e6 1b3c a030 42bd 316a 0cbf
000003f0: aa57 983e ca26 0b3f b644 23bf b6f6 c43e

fc_1.bias f4 [128]
-0.6509166 -0.41724858 -0.21682218 0.74485594 -0.63768584 -0.12454641 -0.7170346 0.23687588
-0.24952611 -0.5074475 0.30592132 -0.42909175 0.7832355 -0.16469851 -0.3156022 -0.6856138
-0.21354881 0.49605677 -0.40723228 0.15330817 0.7880496 0.037399873 0.43737426 -0.12783241
-0.0158893 -0.009255171 0.35006708 -0.5251606 -0.2635923 -0.14253183 -0.1044622 -0.23919576
0.2510972 0.7090983 -0.34185755 0.37746775 -0.60175204 -0.11444301 -0.48689464 -0.56444424
-0.3584361 -0.26767167 -0.063124925 0.6255416 -0.633132 -0.40015233 -0.58561623 0.371923
-0.36803243 0.49518484 0.850152 -0.60294926 -0.11612648 0.61957806 0.20359935 -0.5922819
-0.36776268 0.3585257 -0.29619977 -0.6222939 -0.21252586 -0.5830235 -0.25204033 0.26122323
-0.47348243 -0.48956025 -0.4076116 -0.3520979 -0.56721807 -0.32586753 -0.6217806 -0.09544438
-0.347711 -0.5419956 -0.3660369 0.79893464 -0.6164956 -0.1368283 -0.17509004 0.6153405
0.5609797 -0.42972916 0.2903506 -0.3770849 0.73988426 -0.45289215 -0.28245384 -0.6677653
-0.18627723 0.21209738 0.5229815 0.7335075 0.29694924 -0.21566272 -0.28300884 -0.2948476
0.4411813 -0.6409919 0.53524935 0.50829494 -0.32462117 0.3591808 -0.37648508 -0.32411304
-0.50831735 -0.12588936 0.6031563 -0.41981566 -0.18008918 -0.3835042 0.83305955 -0.5667002
0.6890248 -0.2597777 0.19601819 -0.17915756 0.42529026 -0.26791808 0.8225704 0.3686522
-0.27881482 -0.62792397 0.38895714 -0.36919892 -0.5246701 -0.30031946 0.06510456 -0.38256425
00000000: 78a2 26bf 9ba1 d5be a206 5ebe e1ae 3e3f
00000010: 613f 23bf 3012 ffbd 948f 37bf 978f 723e
00000020: c683 7fbe 14e8 01bf b8a1 9c3e eab1 dbbe
00000030: 1f82 483f baa6 28be 9d96 a1be 6384 2fbf
00000040: 8aac 5abe 27fb fd3e c080 d0be d1fc 1c3e
00000050: 9ebd 493f 9c30 193d 85ef df3e 80e6 02be
00000060: 472a 82bc 00a3 17bc fe3b b33e ed70 06bf
00000070: 92f5 86be ddf3 11be 47f0 d5bd bcef 74be
00000080: d08f 803e 7787 353f f407 afbe 7443 c13e
00000090: 6c0c 1abf 1961 eabd 414a f9be 6b7f 10bf
000000a0: f084 b7be 430c 89be a447 81bd 7f23 203f
000000b0: f014 22bf c4e0 ccbe f2ea 15bf b16c be3e
000000c0: bf6e bcbe de88 fd3e 90a3 593f e25a 1abf
000000d0: b8d3 edbd ab9c 1e3f 597c 503e c99f 17bf
000000e0: 644b bcbe ae90 b73e 7fa7 97be a74e 1fbf
000000f0: 61a0 59be 0741 15bf 6e0b 81be 0dbf 853e
00000100: 4a6c f2be a4a7 fabe 78b2 d0be 2d46 b4be
00000110: 3435 11bf 1cd8 a6be 032d 1fbf 5878 c3bd
00000120: 2d07 b2be 39c0 0abf 3069 bbbe fb86 4c3f
00000130: a8d2 1dbf b81c 0cbe ce4a 33be f486 1d3f
00000140: 5e9c 0f3f 7605 dcbe d5a8 943e 4611 c1be
00000150: 0e69 3d3f 7be1 e7be ca9d 90be abf2 2abf
00000160: 75bf 3ebe 0e30 593e 1ee2 053f 26c7 3b3f
00000170: bb09 983e b0d6 5cbe 89e6 90be 44f6 96be
00000180: 84e2 e13e 0c18 24bf 1a06 093f 9e1f 023f
00000190: bf34 a6be 8ce6 b73e a7c2 c0be 25f2 a5be
000001a0: 1621 02bf 24e9 00be 7468 1a3f 14f2 d6be
000001b0: 4c69 38be aa5a c4be 6443 553f 4413 11bf
000001c0: ee63 303f 9501 85be feb8 483e 1475 37be
000001d0: a5bf d93e 8f2c 89be f993 523f fbbf bc3e
000001e0: d1c0 8ebe a0bf 20bf 6425 c73e a407 bdbe
000001f0: c850 06bf 79c3 99be 8a55 853d 76df c3be

fc.weight f4 [1, 128]
-0.050281104 -0.0413194 -0.041123975 0.168158 -0.011132173 0.015550382 -0.25975218 0.10801907
0.05845409 0.057010137 0.18998368 -0.0740396 0.20229043 -0.05348886 -1.4602187 -0.03427764
0.07383894 0.11106673 -0.085958056 0.11230489 0.2308352 0.19345869 0.19258395 0.034487076
0.0076818545 0.18894269 0.11245671 -0.020833693 -1.7007003 -0.4347098 0.41692716 0.07786433
0.14687103 0.20938608 -0.07226363 0.09203791 0.08516789 0.26467597 0.049981438 -0.050028887
-0.028187621 0.0688486 0.061904177 0.17393154 0.013399065 -0.06853915 -0.0028545037 0.13610753
0.06466178 0.15959893 0.23267448 -0.061440893 -0.00243143 0.12761551 0.054216918 0.06867681
0.8731386 0.14434536 -0.09049022 -0.036218293 0.19546229 -0.052834056 0.05507075 0.4835405
0.0667439 0.08011197 0.060361616 0.028938249 -0.004165882 -0.0132942125 0.02330646 0.06721049
0.08058909 0.022808462 0.055224534 0.2605745 0.012164764 -0.07128262 0.025658928 0.13246174
0.15260777 3.6349936 0.2015602 -0.0070534125 0.237138 -1.1469468 0.017702878 -0.0045228004
-0.5418281 0.20519027 0.09652003 0.19012168 0.17649661 0.052911006 0.012010217 -0.0480596
0.18950532 -0.0070931017 0.23914555 0.11188885 -0.14509228 0.35916328 -4.119545 0.06345818
0.006355509 0.008947663 0.16417634 -0.08577501 -0.01137805 0.73541456 0.2542012 -0.07623492
0.26954538 0.009036712 0.09580319 -0.016265646 0.07473916 -0.09533228 0.18255343 0.22423989
0.06803494 0.044992246 0.14954115 -0.17694639 0.030599058 0.040914126 0.12460364 0.05883079
00000000: 8ff3 4dbd 883e 29bd 9d71 28bd 9c31 2c3e
00000010: b863 36bc 08c7 7e3c 3dfe 84be 1a39 dd3d
00000020: 8e6d 6f3d 7683 693d 158b 423e 13a2 97bd
00000030: 3925 4f3e 2317 5bbd 72e8 babf b666 0cbd
00000040: df38 973d f476 e33d c70a b0bd 1b00 e63d
00000050: 1060 6c3e 091a 463e ba34 453e 5242 0d3d
00000060: 11b8 fb3b 317a 413e b44f e63d 6cab aabc
00000070: 8cb0 d9bf 4892 debe 7a77 d53e 5577 9f3d
00000080: 5c65 163e 4e69 563e f4fe 93bd 5f7e bc3d
00000090: 816c ae3d 9c83 873e 56b9 4c3d 17eb 4cbd
000000a0: bae9 e6bc 7f00 8d3d 3c8f 7d3d 1c1b 323e
000000b0: c087 5b3c 415e 8cbd a012 3bbb c65f 0b3e
000000c0: 656d 843d e76d 233e 3842 6e3e 72a9 7bbd
000000d0: a058 1fbb a4ad 023e 8f12 5e3d 6da6 8c3d
000000e0: 0386 5f3f 45cf 133e f052 b9bd a259 14bd
000000f0: 4427 483e 8668 58bd de91 613d 9f92 f73e
00000100: 07b1 883d bf11 a43d be3d 773d e80f ed3c
00000110: f381 88bb f8cf 59bc 30ed be3c a7a5 893d
00000120: e50b a53d d0d8 ba3c 1f33 623d 056a 853e
00000130: b84e 473c 9ffc 91bd ac32 d23c 0da4 073e
00000140: 3645 1c3e bca3 6840 cc65 4e3e 5020 e7bb
00000150: 4ed4 723e 27cf 92bf a005 913c 0034 94bb
00000160: 3fb5 0abf 661d 523e 4bac c53d 42af 423e
00000170: 87bb 343e 36b9 583d 80c6 443c 25da 44bd
00000180: af0d 423e 406d e8bb 92e2 743e fb25 e53d
00000190: 1293 14be 40e4 b73e 50d3 83c0 5df6 813d
000001a0: e041 d03b 3899 123c d81d 283e cfaa afbd
000001b0: 006b 3abc 2144 3c3f a926 823e 0e21 9cbd
000001c0: da01 8a3e b80e 143c 7634 c43d 883f 85bc
000001d0: d810 993d 923d c3bd 49ef 3a3e 249f 653e
000001e0: e755 8b3d ca49 383d 5121 193e 6f31 35be
000001f0: e0aa fa3c 9295 273d 3130 ff3d 8ef8 703d
