output/models/best-model-6.pt (torch, 4751 bytes, 7 tensors)

lstm.weight_ih_l0 f4 [8, 7]
000000 38 22 6c 3c 9a ed e9 3e 72 23 b1 3b 8a 5e e1 3e
       0.014412455 0.45689088 0.0054058367 0.4401744
000010 16 7b 5d 3f 67 46 ee be 10 e6 13 bd ee 43 c5 3e
       0.8651594 -0.46538088 -0.036108077 0.3852839
000020 c7 60 94 bf 11 d9 9d 3f 33 08 4b 3f 72 44 89 3e
       -1.1592034 1.2331868 0.79309386 0.26810032
000030 31 f2 cd 3d 91 c1 8b bf 5c f6 0b 3e 8f 64 b6 be
       0.1005596 -1.0918447 0.13668197 -0.35623595
000040 57 5e 00 bf 90 ea 64 bd 56 c2 c3 be 31 3b 0b 3f
       -0.5014395 -0.05588776 -0.38234204 0.54387194
000050 24 dc 34 3e 14 b9 2d be d8 77 c2 bd 83 2a 1e 3f
       0.17662102 -0.16965133 -0.09495515 0.6178362
000060 e7 9d 15 bf f8 4b 03 be f4 27 d4 be a6 32 ae be
       -0.58444065 -0.12821949 -0.41436732 -0.34023017
000070 77 e2 08 3e d0 a3 c5 bd ca 6a 29 bd 88 cd a3 be
       0.1336764 -0.096503854 -0.041361608 -0.31992745
000080 e2 2b 0a 3f d5 70 ef 3d 3d ed e3 be ce 7f 96 be
       0.5397321 0.11691443 -0.44516936 -0.29394382
000090 dd 85 e1 3e 8f 25 42 3e 43 df 83 be 48 24 d1 3e
       0.44047442 0.1895964 -0.25756273 0.40847993
0000a0 76 d6 92 3d 46 23 07 be 14 f9 d4 bb c5 73 e0 bd
       0.071698114 -0.1319705 -0.006499419 -0.10959581
0000b0 e0 11 65 3c 2e 53 5d be 57 7d 22 3f 7f 1a 97 3e
       0.0139813125 -0.21613762 0.63472503 0.29512402
0000c0 96 d5 62 bd 88 e8 2a 3f 55 ef 9a bf c8 ad 09 bf
       -0.055379473 0.66761065 -1.2104288 -0.53780794
0000d0 0a 55 a5 3c dd 05 fb 3e 5b 9a 66 bd 4b ec cd be
       0.020182151 0.4902791 -0.05629955 -0.4021934

lstm.weight_hh_l0 f4 [8, 2]
000000 14 83 5f be 20 76 7d be eb fe 18 3f 6e 87 88 3e
       -0.21827346 -0.24752092 0.59763974 0.26665825
000010 55 b4 1b bf 38 fa f1 be d4 6e 0a 3e 50 cf 1f bd
       -0.6082204 -0.47261214 0.1351884 -0.039016068
000020 06 4e b1 be bc 50 4c be 30 83 06 bf cc c5 55 be
       -0.3462984 -0.19952673 -0.52543926 -0.20876235
000030 02 2c e4 3e 1b d1 ce be 6f b7 d1 be 5e 9d c8 3e
       0.44564825 -0.4039391 -0.4096026 0.39182562

lstm.bias_ih_l0 f4 [8]
000000 50 66 e0 3e c7 e4 75 bf 68 85 a0 bd 98 a4 ac 3d
       0.43828058 -0.9605221 -0.07837945 0.08429831
000010 4b 89 b6 3f 4e 0f 99 bf a8 cb c0 3e f1 3b 5c bf
       1.4260648 -1.1957796 0.37655377 -0.86028963

lstm.bias_hh_l0 f4 [8]
000000 e4 c3 d4 3d 0b 4d a3 be 0c 0f 28 3e f1 00 0e 3f
       0.10388926 -0.31894717 0.1641199 0.55470186
000010 79 5a 8e 3f 4f 32 3f bf 9f 4b 85 bd 31 47 3c bf
       1.112136 -0.7468614 -0.06508564 -0.7354613

fc_1.weight f4 [128, 2]
000000 30 11 7a bf f0 cc 8a bf ca 0b aa 3e 77 94 3d bf
       -0.97682476 -1.0843792 0.3321212 -0.74054664
000010 67 70 24 bf c0 e7 3e 3e 82 34 c3 be 74 94 a0 bf
       -0.6423401 0.18643093 -0.38125998 -1.2545304
000020 ba 2e ae be df 77 28 3f 02 40 3f 3e 16 ba 22 bf
       -0.34020025 0.6580791 0.18676761 -0.63565195
000030 e8 9b 31 bf 19 4a 11 bf 58 d0 36 be 3b 4f 16 bf
       -0.6937852 -0.5675369 -0.17852914 -0.58714646
000040 2a 80 ff 3e 8a 15 b1 3e d0 8d 72 3d f8 7b dc be
       0.4990247 0.34586746 0.059217274 -0.4306333
000050 4c 9c a5 bf f4 ae 9a bf 46 c2 5a bf f9 11 4c bf
       -1.2938323 -1.2084641 -0.8545269 -0.79714924
000060 ad fb 14 3f 37 36 89 bf 54 d4 85 bd 0b f5 fd bd
       0.58196527 -1.071967 -0.06534639 -0.12400254
000070 16 94 1d bf 3c 21 21 be 1a 1e 0c 3f b9 2d 0b bf
       -0.61554086 -0.15735334 0.5473343 -0.5436664
000080 6a 33 90 be 81 77 ce be 95 c9 df be c3 09 20 3f
       -0.28164226 -0.4032555 -0.43708482 0.62514895
000090 ca bf a9 bf 1f cb 95 bf aa e8 5d bf 83 dd f3 bb
       -1.3261654 -1.1702613 -0.8668314 -0.0074421777
0000a0 58 92 86 3e 0a a7 cc 3e b6 7d d1 bf 4d 29 3a bf
       0.26283526 0.3997119 -1.6366489 -0.7271927
0000b0 76 f8 ee 3e b0 52 67 be cf 1b e8 3d 96 db bd be
       0.46673936 -0.22590137 0.11333429 -0.37081593
0000c0 2d be 81 be 0b 9a 2c bf 61 f0 c2 be c0 e9 b9 3c
       -0.25340405 -0.6742255 -0.3807402 0.022694468
0000d0 74 cf 09 3e a0 89 8e be b8 e4 05 3e 3c ea 49 3e
       0.13458043 -0.27839375 0.1307553 0.1971826
0000e0 e1 fe 67 bf f7 4e e4 be 50 2c 48 3d ce ea cc 3e
       -0.9062329 -0.44591495 0.048870385 0.40022892
0000f0 85 ea e7 be 4a ec 78 be 03 cd 86 be 66 29 0c bf
       -0.45296112 -0.24308887 -0.26328287 -0.5475067
000100 91 2b 9e bc 14 51 ba 3c ab d3 a8 bf b6 64 91 be
       -0.019307883 0.02274374 -1.3189596 -0.2839715
000110 4e d8 6c bf a6 d6 85 bf bc 22 49 be 83 b8 1a bf
       -0.92517555 -1.045613 -0.19642156 -0.6043779
000120 16 f3 cc 3d 7f 7f 41 bf 0b 63 e8 3e 43 b8 cb be
       0.100073025 -0.7558517 0.45388064 -0.39789018
000130 04 99 4b 3e 72 00 df bd f0 c2 6d 3e db 2b d8 be
       0.1988259 -0.10888757 0.23218894 -0.4222096
000140 4a 6e aa 3e 8b 5a 8b bd 95 b7 03 3e bc 1c 0e be
       0.3328727 -0.06804379 0.12863 -0.13878149
000150 32 eb e2 3e 42 ce bd bc 03 d1 07 3f 9c a2 bb bf
       0.44320065 -0.02316964 0.530533 -1.4659
000160 45 69 2e bf 9d e8 08 3f 5c 57 13 3f be 1a 7b bf
       -0.6812938 0.5347994 0.57555175 -0.9808768
000170 4a f8 b9 3e 90 aa b0 3d ea d3 b6 be 02 c7 25 bf
       0.36322242 0.08626282 -0.35708553 -0.64756787
000180 41 09 5e be 86 15 9d bf c2 90 7a bf 7b a2 3b bf
       -0.21683218 -1.2272193 -0.9787713 -0.732948
000190 af d2 21 bf 18 0e d5 be dc 8a 61 be 16 44 b3 be
       -0.632121 -0.41612315 -0.22025627 -0.35012883
0001a0 02 38 ce 3e 2f fb 19 3f 80 77 1e 3c 14 72 a8 be
       0.40277106 0.601489 0.009672046 -0.32899535
0001b0 68 d3 a2 bf d1 ef 3e bf b0 44 8b 3e 86 f5 8c 3e
       -1.2720766 -0.7458468 0.27200842 0.2753107
0001c0 80 43 57 3e 52 36 ca 3e 93 5e 33 3e a0 47 70 bf
       0.21021843 0.39494568 0.17516546 -0.9385929
0001d0 9b f2 22 3f 23 f8 e8 be a1 bf 73 3e ad 55 1b bf
       0.63651437 -0.45501813 0.2380357 -0.60677606
0001e0 67 cb 0b bf a1 18 77 bf 62 d5 9e 3e 3c 78 59 bf
       -0.5460724 -0.96521956 0.31022173 -0.8494909
0001f0 2d 94 2d bf f8 ce 0a be 30 68 ed 3d 80 7d 2b 3d
       -0.67804223 -0.13555515 0.11592138 0.041867733
000200 14 36 92 be 64 ad c9 be d6 53 b4 bf 7f 4f 68 be
       -0.28556883 -0.393901 -1.4088085 -0.22686575
000210 2e 9f e3 3e 58 4f 12 bf 23 a2 51 bf 94 46 b0 be
       0.44457382 -0.5715232 -0.81888026 -0.34428847
000220 b7 71 16 bf b0 0b 47 3d 78 68 fc bd c0 03 0d bd
       -0.58767265 0.04859513 -0.12324613 -0.034427404
000230 a0 e4 4c 3e 3c ff 00 be 2b 53 29 bf b0 3e b3 3d
       0.20009089 -0.12597364 -0.6614253 0.08752191
000240 0d 95 94 be 39 21 d0 be a0 09 33 3e a2 f0 db 3e
       -0.29019967 -0.40650347 0.1748414 0.42957026
000250 70 2b 79 bf df a2 2f bf 54 c9 55 3e b6 d1 b4 3e
       -0.97331905 -0.68607897 0.20877582 0.35316247
000260 ab 2d c9 be 24 39 19 be 62 5b 85 3e 05 3d 03 3f
       -0.39292654 -0.14963204 0.26046282 0.51264983
000270 88 5a 26 3f 5b 1e 4e bf 64 1a ea be 8a 4a 31 bf
       0.6498189 -0.8051507 -0.4572326 -0.6925436
000280 1b 14 73 bf 29 76 b2 bf c1 78 f9 bd 15 fd bd be
       -0.94952554 -1.394231 -0.12181235 -0.3710715
000290 44 ae 71 bf ef 92 aa bf 3c 78 4a 3e 06 0e c6 3e
       -0.94406533 -1.332609 0.19772428 0.38682574
0002a0 02 a2 9d bf dc 94 d7 be 0c 39 8f bf b4 46 c6 be
       -1.2315066 -0.42105758 -1.1189284 -0.38725817
0002b0 c0 74 76 bc 99 3c 2b bf 2f d7 64 bf 62 d7 a2 bf
       -0.015042484 -0.6688934 -0.89390844 -1.272198
0002c0 9b 55 e7 3d a9 0d 89 be b0 c3 75 3e b0 f0 e9 bd
       0.11295625 -0.26768234 0.2400043 -0.114228606
0002d0 50 b2 95 bf 31 6d 3a bf 38 5b 70 be a3 15 29 3f
       -1.1695042 -0.7282286 -0.23472297 0.6604864
0002e0 40 d9 57 bf 8f be d3 be 49 30 5f 3f 89 64 1d bf
       -0.8431587 -0.41356322 0.8718305 -0.6148153
0002f0 8e 69 de 3e 6a 93 c0 3e f3 37 5b bf 71 e5 8d bf
       0.43439907 0.37612468 -0.85632247 -1.1085645
000300 71 e3 34 3f 84 54 3d bf 12 e1 d7 be 68 dc d3 be
       0.7065955 -0.73957086 -0.42163903 -0.41379094
000310 74 1f 40 3e 74 f5 30 be 61 96 63 be 59 a0 91 bf
       0.18761998 -0.17281133 -0.22225334 -1.1377059
000320 b0 49 42 3e 8e 54 63 bf 9d 06 94 bd cf cf 86 be
       0.18973422 -0.88800895 -0.07227824 -0.2633042
000330 33 ea 8c be a1 72 6d 3c 9f 2c 09 bf 20 d9 4e bd
       -0.2752243 0.014492662 -0.5358371 -0.050500035
000340 33 97 b3 be 44 2e 68 be 2c cd 21 bf 07 83 98 bf
       -0.35076293 -0.22673899 -0.6320369 -1.1914986
000350 ac 7f 88 3e 04 03 6f bf 6d 82 b4 be c6 ae 8f bf
       0.26659906 -0.93363976 -0.35255757 -1.1225212
000360 ee 82 d2 bb 78 63 5d 3e dc 87 64 bf 94 83 16 bf
       -0.0064242994 0.21619976 -0.89269805 -0.5879452
000370 08 39 f5 bd 6e e8 df be 8a 58 81 3e 3f fc 32 bf
       -0.119737685 -0.43732017 0.25262862 -0.69916147
000380 77 b2 1c 3f a2 4c 96 bf 18 27 b1 bf 9f 5f 72 bf
       0.61209816 -1.1742136 -1.3840055 -0.94677156
000390 e1 0c c1 bf 06 1f 86 bf 65 68 bd bc e0 95 9f be
       -1.5082055 -1.0478218 -0.023121068 -0.31169033
0003a0 a1 f8 03 bf 21 dd d6 be 85 2c cc be 05 db bb be
       -0.5155125 -0.41965583 -0.39877716 -0.36690536
0003b0 66 92 d9 be c6 04 7d be 6a 67 71 3e 8c f4 f1 3c
       -0.42494506 -0.24708852 0.23574606 0.029535554
0003c0 b3 8f a1 bf ed ab b2 be b0 f1 ec be c7 84 82 bf
       -1.2621979 -0.34896794 -0.46278143 -1.019677
0003d0 78 1b c1 be 84 c6 29 3e 1f 96 4e be 94 a8 3b be
       -0.3771627 0.16579634 -0.20174454 -0.18326026
0003e0 f6 ab ae 3e e0 8e 82 3d ae 18 96 bf 55 80 0f 3e
       0.3411557 0.063749075 -1.1726282 0.14013799
0003f0 21 fd 33 3f 7c 64 d8 be 10 07 72 bd 0e d7 a6 3e
       0.7030812 -0.42264163 -0.059088767 0.3258595

fc_1.bias f4 [128]
000000 38 5f fc be 37 6f a0 3d 84 df f3 be 55 85 23 be
       -0.49291396 0.078337125 -0.47631466 -0.15968831
000010 53 4e 14 bf 38 91 7c 3e d6 d4 ab be 7b 3f 28 bf
       -0.57932013 0.24664772 -0.33560818 -0.65721864
000020 79 3d 1c bf 97 71 b5 be fd d4 db be 66 95 8a bc
       -0.610313 -0.35438225 -0.42935935 -0.016916942
000030 19 d6 1e 3f 2d b2 54 bf b0 51 6e bd 49 eb d2 3d
       0.6204544 -0.83084375 -0.058183372 0.10298783
000040 35 aa 33 bf 1e 9f a9 be ee 6f 45 bf ca 14 1d bf
       -0.7018159 -0.3312921 -0.77123916 -0.61359847
000050 32 2d 11 bf cc 41 fd be e3 2d e3 be a3 1e b4 3d
       -0.5670959 -0.49464262 -0.44370946 0.08794906
000060 b5 cc 29 bf 28 c3 3e be ef e3 76 bf b8 62 fc be
       -0.66327983 -0.18629134 -0.9644155 -0.49294066
000070 1e 0c fa 3d ec b8 ae be b0 a7 78 bd 90 2b b2 3e
       0.122093424 -0.3412546 -0.060706794 0.3479886
000080 f7 19 c0 3e 5b ac ec be 7c ea dc be ba c3 4a bd
       0.3751981 -0.46225247 -0.43147647 -0.049503066
000090 2b c4 c6 bd 08 7f 65 3d 0b 51 70 3e 76 a1 79 be
       -0.09705385 0.05602935 0.23468415 -0.24377999
0000a0 c7 f8 54 3d a7 b5 76 bf cb 4f bf 3e 9c c5 b9 3c
       0.051995065 -0.9637093 0.37365565 0.022677235
0000b0 26 ff 17 bf e9 17 24 3e c3 96 2d bf e4 c7 18 be
       -0.593737 0.16024746 -0.6780817 -0.14920002
0000c0 d2 2b 95 be 86 d4 fb be 6e 45 a0 be 4a 81 bd be
       -0.29134995 -0.4918558 -0.3130297 -0.37012702
0000d0 b8 b6 1f bf ab 65 b7 be 32 bc fe be 20 76 27 bf
       -0.6238818 -0.35819754 -0.49752957 -0.6541462
0000e0 91 fa a9 be 5c 69 08 bf 58 ef a7 3e a7 ca f0 3e
       -0.3319898 -0.53285766 0.32799792 0.4702961
0000f0 cd 96 a9 be ba 28 01 3f cc e6 04 bf a2 c8 d4 be
       -0.33122864 0.5045277 -0.5191467 -0.4155932
000100 a8 18 42 be e4 fa 50 bd f0 df f5 be 65 91 30 bf
       -0.18954718 -0.051020518 -0.48022413 -0.68971854
000110 ae 52 b4 be 7b 64 ef be 41 46 fd be 70 05 f9 bd
       -0.3521933 -0.46756348 -0.49467662 -0.1215924
000120 c5 58 8c be d9 7d 2f bf 35 37 06 3e 5d cd ef be
       -0.27411476 -0.68551403 0.13106997 -0.46836367
000130 c4 3c f4 be b0 59 b4 be 27 eb e8 3e a7 31 37 bf
       -0.4770261 -0.35224676 0.45491907 -0.7156014
000140 13 fe 17 bf 4a 85 50 bf 75 2a e5 be e1 ea c6 be
       -0.5937206 -0.8145338 -0.44758955 -0.38851073
000150 38 a1 d1 be 93 03 55 be 7e b5 31 bf 35 54 18 bf
       -0.40943313 -0.20802145 -0.6941756 -0.5950349
000160 6c 5a 0d 3f b9 ba bb be 6e fb eb be e8 38 de be
       0.552161 -0.36665896 -0.46090263 -0.4340279
000170 94 4d ff be 01 fb 1b 3f 75 9f c5 be af 44 da be
       -0.49863875 0.60929877 -0.3859822 -0.42630526
000180 47 bd c4 bc 22 c7 4c bf 48 a8 23 bf fd 99 0a bf
       -0.024016036 -0.7999135 -0.6392865 -0.5414122
000190 2b 96 e9 3e 54 a5 2d 3e 5b ee 40 bf 83 92 20 bf
       0.45622382 0.16957599 -0.753637 -0.6272356
0001a0 34 ef 1d bf 70 8b 41 3e 2e 5d 9d 3e db f4 49 bf
       -0.6169312 0.18900847 0.30735153 -0.78889245
0001b0 f2 39 5f bf f9 e4 f2 be 06 43 fc be c7 9c 72 3e
       -0.8719779 -0.47440317 -0.49269885 0.23692618
0001c0 26 b6 ee 3e 1b 96 a4 bd c6 a4 d3 be 24 3f 4a bf
       0.46623343 -0.08036443 -0.4133665 -0.79002595
0001d0 27 6e 2e bf 2b 60 45 bf c2 53 01 3e e6 0c 6a 3d
       -0.6813683 -0.77099866 0.12629607 0.057141207
0001e0 f5 80 fb be 9b 6b 2f bf 8a c5 c1 be ea c8 8d 3e
       -0.49121824 -0.6852357 -0.37846023 0.27692348
0001f0 27 4c d3 be 0c 7a 4a bf de 59 04 3f 1d 5a b5 be
       -0.41269037 -0.7909248 0.51699626 -0.35420313

fc.weight f4 [1, 128]
000000 13 1c 0f 3f 6e b9 11 3e b7 4f 5f bd c2 21 7f be
       0.5590221 0.14230892 -0.05451938 -0.24915221
000010 1e 14 0d 3d 32 be 33 3e 48 f2 7d 3c f6 bf 7f 3d
       0.034443013 0.17553023 0.015499659 0.062438928
000020 a6 b1 82 bd 37 2c 89 bd 6e 88 11 3f 58 b8 81 3d
       -0.0638154 -0.066978864 0.568488 0.06333989
000030 98 ef a6 3e d1 e0 fd 3e 27 86 ad 3d 42 4c 4d 3e
       0.3260467 0.49585584 0.08472853 0.20048621
000040 77 ae 16 3f ab ef ac 3d 52 12 12 3f 07 09 02 3f
       0.5885996 0.084441505 0.57059205 0.50795025
000050 ac 6c e4 bc 6a af ce 3e e0 2f fa bb 63 9c c4 3d
       -0.02788385 0.40368205 -0.0076351017 0.09600141
000060 5a 47 9c 3e 8c 4b ac bc 23 73 01 bf 84 e7 69 bd
       0.30523187 -0.021032117 -0.5056631 -0.057105556
000070 b6 d3 83 be 86 7c 68 3d 2e ff 11 bd 0a 64 0a 3e
       -0.2574746 0.05675938 -0.03564375 0.13514724
000080 0d 7b 49 3e 7b 78 b3 3e 74 c0 f8 3e 62 67 22 bd
       0.19675846 0.35052857 0.4858433 -0.039649375
000090 40 d3 05 3d 97 a5 23 3e 3e 2c 39 3e d8 ba 78 bc
       0.032672167 0.15981136 0.18083283 -0.015181266
0000a0 70 3b 03 3e d1 a8 fb 3e 08 f9 80 3e f5 c2 40 3e
       0.12815642 0.49152234 0.25189996 0.1882437
0000b0 2f 3e ab bd 84 65 70 3e 04 af 93 bc 54 8d 98 3c
       -0.0836147 0.23476225 -0.01802779 0.018622078
0000c0 e4 53 85 3e 1b cb 00 3f d3 fa b1 3d de fa 95 be
       0.26040566 0.50309914 0.08690419 -0.2929296
0000d0 30 b3 a8 3c 88 2d 85 3c 09 14 00 3f 5a b0 12 bd
       0.020593256 0.016257063 0.5003057 -0.035812713
0000e0 55 d9 ab 3d 46 c4 54 be 60 07 88 3e 35 30 84 3e
       0.08391062 -0.20777997 0.26568127 0.2581803
0000f0 7a f0 a1 3e 76 74 84 3e da ec 23 bd d4 b3 c2 bc
       0.31628782 0.25870103 -0.0400208 -0.02376739
000100 2b f1 92 bd 3d 29 cf 3e 70 c0 60 3c 9d b6 15 bf
       -0.071749054 0.4046115 0.013717756 -0.5848177
000110 f0 a5 a6 bb cd 36 a1 3d 66 e8 52 bd 02 f1 34 3d
       -0.0050856993 0.078717805 -0.051491164 0.044175155
000120 7d ac 57 bd 00 de 37 bd 5a 1e cf be 74 25 90 bc
       -0.052654732 -0.04488945 -0.40452844 -0.017595984
000130 4b fc 83 3d a9 3a 83 3d ab 01 94 3e 4b ee c8 3e
       0.064446054 0.06407673 0.28907523 0.39244303
000140 64 a9 9f 3e 3c 5b 11 3f 1a d6 fd 3e 3a 8a 60 3d
       0.31183922 0.5677984 0.4957741 0.054819323
000150 21 0e 4d be 84 0a 0c 3d ed c3 ac bd c0 2d 07 3f
       -0.20024921 0.034189716 -0.084358074 0.52804184
000160 bf fe 92 3e 78 a3 07 3d 8c 29 07 3f 68 bb d6 3c
       0.2870998 0.03311488 0.5279777 0.02621241
000170 41 11 0f 3f ba ad b6 3e 82 18 5d 3d 7f 99 05 3f
       0.558857 0.35679418 0.05397845 0.5218734
000180 ad 04 40 3e 62 64 b2 3e 1d eb 02 bd 49 c7 c2 be
       0.18751784 0.3484221 -0.031962503 -0.38042668
000190 e9 17 76 3e 2b b7 a2 3d df 66 04 bf a5 05 08 3f
       0.24032559 0.07945093 -0.5171947 0.5313361
0001a0 7a 61 df be cc 8b be 3d 0f 3d 5d 3e 9f b5 f2 3e
       -0.43629056 0.09304008 0.21605323 0.4740419
0001b0 fe 75 10 3f 24 eb b1 3e 54 91 ba 3c d9 de 3c 3e
       0.5643004 0.3474971 0.022774376 0.18444385
0001c0 70 04 93 3e 44 12 88 3e c4 c2 00 3f 03 bf 0e 3f
       0.28714323 0.26576436 0.5029719 0.5576021
0001d0 00 ea 53 ba 04 68 c2 3e 45 01 89 3d b4 c4 d4 3d
       -0.000808388 0.37969983 0.06689695 0.10389081
0001e0 c3 f0 0d 3f be 20 39 3f 80 7b e0 3c a0 a8 dd 3d
       0.554455 0.72315586 0.02740264 0.10823178
0001f0 5f ca 8c bd 11 54 05 bf 7c 70 a5 3e ba 3c 9d bd
       -0.06874537 -0.520814 0.3231238 -0.07677598
