output/models/best-model-9.pt (torch, 4751 bytes, 7 tensors)

lstm.weight_ih_l0 f4 [8, 7]
0	0xbf194c16	-0.5988172
1	0x3ca4fcf5	0.02014015
2	0x3f6bd79f	0.92125887
3	0x3d1c1618	0.038107008
4	0x3f95af37	1.1694096
5	0xbef1e2e5	-0.4724342
6	0xbf367fac	-0.7128856
7	0x3ef12385	0.47097412
8	0x3ecbc5a8	0.39799237
9	0x3f279297	0.65458053
10	0x3e533e41	0.20629217
11	0x3f9259ba	1.1433632
12	0xbd8dc6a1	-0.06922651
13	0xbe6f1599	-0.23348083
14	0x3f0ce8ef	0.5504293
15	0xbf155be4	-0.5834334
16	0xbeb3b6fc	-0.35100543
17	0xbd6327f0	-0.05545801
18	0x3c0abd40	0.008467972
19	0x3f25447f	0.6455764
20	0xbd0a7810	-0.033805907
21	0x3e3cfb64	0.18455273
22	0x3f1f47f7	0.62219185
23	0x3cc69760	0.024242103
24	0x3ecd5a46	0.40107936
25	0xbdabedb0	-0.08394945
26	0x3f0a9b6b	0.541434
27	0xbf10960d	-0.5647896
28	0x3f088a2d	0.5333584
29	0xbdb39450	-0.08768523
30	0xbdb2ac21	-0.08724237
31	0xbbfa20b9	-0.0076332954
32	0x3f5b2766	0.8560699
33	0x3e7d2bf5	0.247238
34	0xbd8da8ca	-0.069169596
35	0x3f0d0907	0.550919
36	0xbee9a47f	-0.45633313
37	0x3e79619b	0.2435364
38	0xbe24836e	-0.16065761
39	0x3f40e6e5	0.7535232
40	0x3eab8f28	0.33507657
41	0xbf4b364a	-0.79379714
42	0xbe19c376	-0.15015969
43	0x3e57e6c6	0.21084127
44	0xbe17a30b	-0.1480829
45	0xbc1594b1	-0.009129689
46	0x3de62b08	0.11238676
47	0x3de33e0c	0.11095819
48	0x3ec11adb	0.37715802
49	0x3ee87bd3	0.4540697
50	0xbecf3f24	-0.4047786
51	0x3f415757	0.75523895
52	0xbddd649c	-0.10810205
53	0x3c1f7264	0.009731863
54	0x3dcb0466	0.09912948
55	0xbcdf1242	-0.027230386

lstm.weight_hh_l0 f4 [8, 2]
0	0x3e5c7a30	0.21530986
1	0xbd913470	-0.0709008
2	0xbee4d7d7	-0.44695923
3	0x3f156999	0.58364254
4	0x3ecacdae	0.39610046
5	0x3f25f067	0.6481995
6	0x3e3b5440	0.18293858
7	0xbde86330	-0.113470435
8	0xbf2d16c6	-0.67612875
9	0x3ead9362	0.33901507
10	0x3e94cee6	0.290641
11	0xbee104c6	-0.43948954
12	0x3d28a0c0	0.04116893
13	0x3e01451c	0.1262402
14	0xbed7247e	-0.4202003
15	0x3f04a627	0.5181603

lstm.bias_ih_l0 f4 [8]
0	0x3df79882	0.120896354
1	0x3eed296e	0.4632067
2	0xbeeb4d58	-0.45957446
3	0xbe3a9c94	-0.18223792
4	0x3f87808b	1.0586103
5	0x3ebe429f	0.37160203
6	0x3f2aaa2b	0.66665906
7	0x3ec46715	0.38359895

lstm.bias_hh_l0 f4 [8]
0	0x3f116675	0.5679696
1	0xbeef8f66	-0.46789092
2	0x3f06c843	0.52649325
3	0xbe20d938	-0.15707862
4	0x3f26b74b	0.6512343
5	0xbe18e0b0	-0.14929461
6	0x3e12085d	0.14261003
7	0x3ef5604e	0.47925037

fc_1.weight f4 [128, 2]
0	0x3f7212d6	0.9455999
1	0x3eefeb18	0.4685905
2	0xbd4c7ba0	-0.049922585
3	0x3ed4558e	0.41471523
4	0x3f211c2c	0.6293361
5	0xbed93383	-0.42422113
6	0x3dd3e4d8	0.10346383
7	0x3ebfa376	0.37429398
8	0x3f48b542	0.7840158
9	0x3efcd267	0.49379274
10	0xbe84fc95	-0.25973955
11	0xbf07a6a3	-0.5298864
12	0xbf34b132	-0.7058288
13	0xbf348c7b	-0.70526856
14	0xbdd46cf2	-0.10372342
15	0xbea37074	-0.31921732
16	0xbece3b17	-0.40279457
17	0x3b8fab80	0.004384458
18	0x3f084ddd	0.5324381
19	0xbedde046	-0.4333517
20	0xbe74f5fa	-0.23921958
21	0xbd97597a	-0.07390113
22	0xbec450ab	-0.38342795
23	0xbe7f9a7a	-0.24961272
24	0x3f1fb659	0.62387615
25	0x3de7e8e0	0.11323714
26	0x3f120cb4	0.57050633
27	0x3e1538d5	0.14572461
28	0x3d9bdfea	0.076110676
29	0xbf072fff	-0.5280761
30	0x3ea0d2db	0.3141087
31	0x3e710ece	0.23540804
32	0x3f74d3e6	0.9563583
33	0x3e2e5684	0.1702519
34	0xbe844122	-0.25830942
35	0x3ea1de64	0.31614983
36	0x3f0998f3	0.53749007
37	0x3ed3898d	0.4131588
38	0xbee7f38e	-0.45303005
39	0x3f0edc2f	0.55804724
40	0xbe450309	-0.19239439
41	0xbd97b042	-0.074066654
42	0x3e6c8b1a	0.23099938
43	0x3f116334	0.56791997
44	0xbeee8b46	-0.46590632
45	0x3eb8748e	0.36026424
46	0x3f335513	0.7005169
47	0x3e27996c	0.1636712
48	0x3eb70ce4	0.35752022
49	0x3f15779e	0.58385646
50	0xbed87ff4	-0.4228512
51	0xbf47fd69	-0.7812105
52	0xbecd6750	-0.40117884
53	0xbedd32ea	-0.43202907
54	0xbef186a8	-0.47173047
55	0xbede8a8e	-0.43465084
56	0x3e663a94	0.22483283
57	0xbe8297a1	-0.2550631
58	0x3edf78da	0.4364689
59	0xbeaaa33a	-0.33327657
60	0x3f22a012	0.635255
61	0x3e6e5fb3	0.23278694
62	0x3f817af3	1.0115646
63	0xbaf4af32	-0.0018667935
64	0xbe1cd8e1	-0.15317108
65	0x3ec86eb6	0.39146966
66	0xbecefa61	-0.404254
67	0x3f2b6c41	0.6696206
68	0xbeba2524	-0.3635646
69	0xbe9d7ded	-0.30760136
70	0xbe7f1d82	-0.249136
71	0xbecab6b8	-0.39592528
72	0xbde74bea	-0.11293776
73	0x3ef850da	0.48499185
74	0x3ebae97a	0.36506253
75	0xbeeb6f4e	-0.45983356
76	0x3e450598	0.19240415
77	0x3df5aa78	0.11995405
78	0x3ec1e5a6	0.3787052
79	0xbf052323	-0.5200674
80	0x40034283	2.0509346
81	0xbd4b4ca9	-0.049633656
82	0x3e1efb17	0.1552547
83	0xbeb3f6df	-0.35149285
84	0x3fc1f0f3	1.5151657
85	0xbf88dfe3	-1.0693325
86	0x3f07ada4	0.5299933
87	0xbed5613e	-0.41675752
88	0xbe8ebb91	-0.27877477
89	0x3ef4e31a	0.47829515
90	0x3f126868	0.5719056
91	0xbd8bd3f2	-0.06827535
92	0x3ea5c8e6	0.32379836
93	0xbedf9276	-0.43666428
94	0x3f0e3fee	0.555663
95	0xbf005720	-0.5013294
96	0xbf181748	-0.59410524
97	0xbe989beb	-0.29806456
98	0xbe03fb18	-0.12888753
99	0x3ee16039	0.44018725
100	0x3d64e558	0.05588278
101	0xbf1d2331	-0.6138182
102	0x3edb1bf5	0.42794767
103	0xbe383b93	-0.17991476
104	0x3f3d4b47	0.7394299
105	0x3f182fdc	0.5944803
106	0x3c7614c0	0.015019596
107	0xbcef0800	-0.02917862
108	0xbf3dccba	-0.7414051
109	0xbeaa4c49	-0.33261326
110	0xbedd68aa	-0.43243915
111	0xbe9ad66d	-0.3024172
112	0x3c83b936	0.016079526
113	0xbd07de07	-0.033170726
114	0x3f604daa	0.87618506
115	0xbedd8b5c	-0.43270385
116	0xbf0b8d15	-0.5451215
117	0xbedc1e39	-0.42991808
118	0xbef7f47d	-0.48428717
119	0xbf288d3f	-0.65840524
120	0xbe087ea9	-0.13329567
121	0x3f14ccb8	0.58124876
122	0xbf02dd63	-0.5111906
123	0x3e98fa32	0.29878384
124	0x3f05bd6e	0.5224217
125	0xbd38010f	-0.044922885
126	0x3f319ee5	0.6938308
127	0xbee0eabe	-0.43929094
128	0x3e4daae0	0.20084715
129	0xbf108b22	-0.564623
130	0xbe8f3980	-0.27973557
131	0xbef5e020	-0.48022556
132	0x3f5ace68	0.854712
133	0xbdf584de	-0.11988233
134	0x3f6f71da	0.935331
135	0xbe9f3844	-0.31097615
136	0xbf102b62	-0.56316197
137	0x3e995cea	0.299537
138	0xbedf22f5	-0.43581358
139	0xbf17f33b	-0.59355515
140	0xbee4f791	-0.44720128
141	0x3ed07fb1	0.4072242
142	0x3e11f4a0	0.14253473
143	0x3ca577b4	0.02019868
144	0xbf23454d	-0.6377762
145	0xbec197ff	-0.37811276
146	0xbeafa632	-0.34306484
147	0x3ef21874	0.4728428
148	0x3eeb8b73	0.4600483
149	0x3f4133c7	0.7546963
150	0x3eeff7eb	0.46868834
151	0x3ebd1e16	0.36937016
152	0x3f167dfe	0.58786
153	0x3ecd8f98	0.40148616
154	0xbebd2bd2	-0.36947495
155	0xbdd92858	-0.10603398
156	0x3de65270	0.112461925
157	0xbf0b3160	-0.54372215
158	0x3e6138f2	0.21994379
159	0x3ea7349c	0.32657325
160	0x3d0a0310	0.033694327
161	0xbd53a320	-0.05166924
162	0xbe39c2e3	-0.1814075
163	0x3ed4e283	0.41579065
164	0x3e7b31cc	0.24530715
165	0x3ccfcba0	0.02536565
166	0x3f81625b	1.0108141
167	0x3ee1a7d0	0.44073343
168	0xbea252df	-0.3170385
169	0xbf1607cb	-0.5860564
170	0xbb9a6000	-0.004711151
171	0xbf1c7c55	-0.61127216
172	0x3e447b0b	0.19187562
173	0x3f1621fd	0.5864561
174	0xbe3160bc	-0.17322057
175	0x3e8c578e	0.2741055
176	0x3dda2bf8	0.106529176
177	0x3f04d13b	0.5188176
178	0xbeed53d4	-0.46353018
179	0x3e469b90	0.1939528
180	0x3f0042c1	0.5010186
181	0xbeab305d	-0.33435336
182	0xbf2dfe16	-0.6796583
183	0xbee48595	-0.44633165
184	0x3efc0976	0.49225968
185	0xbef045ff	-0.46928403
186	0xbecc1e0d	-0.39866677
187	0xbebda985	-0.37043396
188	0xbe82f2ce	-0.2557587
189	0x3e85ba76	0.2611882
190	0x3f1d8d19	0.6154342
191	0x3ede56f9	0.4342573
192	0x3e6ed6b5	0.23324092
193	0x3e8287e8	0.25494313
194	0xbec03d3a	-0.37546712
195	0x3f1a95d0	0.60384846
196	0x3f689361	0.9084988
197	0x3c8d4ca4	0.01724846
198	0x3ddcceb7	0.10781615
199	0xbe0176b2	-0.12642935
200	0xbd7171e0	-0.05894649
201	0xbf09331f	-0.5359363
202	0xbdc3c043	-0.095581554
203	0x3e25cd2c	0.16191548
204	0xbd6960cc	-0.05697708
205	0x3e4b089f	0.19827507
206	0x3e424ef7	0.18975435
207	0x3f12fbd7	0.5741553
208	0x3ece5e74	0.40306437
209	0xbcb08bd1	-0.021551045
210	0x3e1a1778	0.15048015
211	0xbd24f490	-0.040272295
212	0x3ee67084	0.45007718
213	0x3f25eb5f	0.6481227
214	0xbea03c9f	-0.3129625
215	0xbee104a4	-0.43948853
216	0x3ec070a1	0.3758593
217	0xbea51d9a	-0.32249147
218	0xbf2fff3f	-0.6874885
219	0x3dcbe8d8	0.09956521
220	0xbed6c137	-0.41944286
221	0x3d2c0f88	0.042007
222	0x3c9e0d60	0.019293487
223	0x3e12f654	0.14351779
224	0x3ed84a52	0.42244202
225	0xbea7bce2	-0.32761294
226	0x3cfe7da0	0.031065762
227	0x3e99295e	0.29914373
228	0xbee388f3	-0.4444042
229	0x3ef6d94e	0.48212665
230	0x3de183e8	0.11011487
231	0xbee6fe09	-0.45115688
232	0x3eb81329	0.35952118
233	0x3f424ee1	0.7590161
234	0xbf33570a	-0.70054686
235	0xbde37d20	-0.1110785
236	0x3f61ecdb	0.8825204
237	0x3f4ea963	0.80727214
238	0xbe80dbce	-0.25167698
239	0xbe196db7	-0.14983259
240	0x3ed27878	0.41107535
241	0xbdb771e3	-0.08957269
242	0x3e497c46	0.19676313
243	0x3ee420a4	0.44556153
244	0x3e820638	0.2539537
245	0xbf08b0d0	-0.53394794
246	0x3e2a8578	0.16652477
247	0x3e93b7ba	0.2885111
248	0xbf180fac	-0.59398913
249	0x3d174132	0.03692741
250	0xbe786320	-0.24256563
251	0xbe6e2d70	-0.2325952
252	0xbe9e1171	-0.30872682
253	0x3f02d5d1	0.5110751
254	0x3e39e618	0.1815418
255	0xbf1190dd	-0.5686167

fc_1.bias f4 [128]
0	0x3d31c263	0.043398272
1	0xbea93411	-0.33047536
2	0x3e129457	0.143144
3	0xbf332a30	-0.6998625
4	0x3e8839e2	0.2660666
5	0xbefcf336	-0.49404305
6	0x3f027165	0.50954276
7	0x3f1e85a3	0.61922663
8	0xbef86dae	-0.4852118
9	0xbee4c210	-0.44679308
10	0x3f1a09c6	0.60171163
11	0xba8b3641	-0.0010621027
12	0xbef34f22	-0.4752131
13	0x3f3d880c	0.74035716
14	0x3f243701	0.6414643
15	0x3f06171b	0.52379006
16	0x3ca93985	0.02065731
17	0x3e55d856	0.20883307
18	0x3ee8194f	0.4533181
19	0xbf2c449f	-0.6729221
20	0xbba44240	-0.0050127804
21	0x3efbff71	0.49218324
22	0xbe86b3d7	-0.26309082
23	0x3e2a82d8	0.16651475
24	0x3f04f353	0.51933783
25	0x3edeb52b	0.43497595
26	0x3edd6628	0.43242002
27	0xbe44d2a8	-0.19220984
28	0x3f10252a	0.5630671
29	0x3eaf4716	0.34233922
30	0xbeee8b87	-0.46590826
31	0x3d5e5587	0.054280784
32	0x3e61015a	0.21973172
33	0x3d2a4cc0	0.0415771
34	0xbe787d2e	-0.24266502
35	0xbec8e5ff	-0.39237973
36	0x3c3994d3	0.011326986
37	0xbee4595e	-0.44599432
38	0xbf122cc9	-0.57099587
39	0xbe99bf93	-0.30028972
40	0xbe932802	-0.2874146
41	0x3e4d286c	0.20034951
42	0xbf0bd3cf	-0.5462007
43	0x3ef5c7cf	0.48004004
44	0xbec34e0d	-0.38145486
45	0x3f35a3a6	0.7095283
46	0xbed1349f	-0.4086046
47	0x3f0feeca	0.5622374
48	0x3f1ed54b	0.6204421
49	0x3e931518	0.2872703
50	0x3f0e065e	0.55478466
51	0x3f487d21	0.7831593
52	0xbd9b4841	-0.07582141
53	0xbe3c1bc4	-0.18369967
54	0x3b124c54	0.0022323327
55	0x3d359f46	0.044341348
56	0x3f1c32e1	0.61015135
57	0x3eee2dee	0.46519417
58	0xbe213e0c	-0.15746325
59	0xbee13c83	-0.4399148
60	0x3f420f65	0.7580474
61	0xbe6ae10c	-0.22937411
62	0x3eb35d35	0.3503205
63	0x3eab6814	0.33477843
64	0xbf1c8807	-0.6114506
65	0x3f2d5d84	0.6772082
66	0x3ed15590	0.40885592
67	0x3e7ed5e1	0.24886276
68	0xbe9251d2	-0.2857805
69	0xbf215af5	-0.63029414
70	0x3ebf73ed	0.37393132
71	0x3e393761	0.18087532
72	0xbe135eb0	-0.14391589
73	0x3f1dd652	0.6165515
74	0x3ec56fba	0.38561803
75	0x3ef06002	0.46948248
76	0x3e701606	0.23445901
77	0xbe4310a0	-0.1904931
78	0xbf3142a5	-0.69242316
79	0xbdb4147e	-0.08792971
80	0xbf1e889d	-0.61927205
81	0x3f1f8877	0.62317604
82	0xbef701f9	-0.48243693
83	0xbb08d9d0	-0.002088178
84	0x3ea70956	0.3262431
85	0xbe9f5f69	-0.3112748
86	0x3f34b463	0.7058775
87	0xbe2a1ab4	-0.16611749
88	0xbf277755	-0.6541646
89	0xbf12812d	-0.57228357
90	0x3c3d9131	0.011570261
91	0xbefd7555	-0.4950358
92	0x3f453fd0	0.77050495
93	0xbf263bfc	-0.6493528
94	0xbf21fc32	-0.63275445
95	0x3d88c3fc	0.06678006
96	0x3ee0a3c2	0.43874937
97	0x3f472866	0.7779602
98	0x3e3a7b06	0.18210992
99	0x3ec13743	0.37737474
100	0x3e757f9e	0.23974463
101	0x3dab5c55	0.0836722
102	0x3e9ac918	0.30231547
103	0x3ed8f7f4	0.42376673
104	0x3f35fc08	0.71087694
105	0xbf2f4574	-0.6846535
106	0x3c41ed06	0.011836296
107	0xbe8a532e	-0.27016586
108	0x3f1a52a4	0.6028235
109	0xbf1706be	-0.5899466
110	0x3f264aed	0.6495808
111	0xbf09751c	-0.5369432
112	0x3f0424a3	0.51618403
113	0xbf33e846	-0.70276296
114	0xbf25e653	-0.6480457
115	0xbf0e86d3	-0.55674475
116	0x3deba0d8	0.11505288
117	0xbef768d8	-0.48322177
118	0xbf106f8c	-0.5642021
119	0x3f2cf4d8	0.675611
120	0x3ea1c790	0.31597567
121	0x3e01994a	0.12656131
122	0x3f15bdf4	0.5849297
123	0x3ea2d556	0.31803387
124	0xbc29eef3	-0.010371911
125	0xbf0568d1	-0.5211306
126	0xbc2c0076	-0.010498157
127	0xbf2afcca	-0.66791975

fc.weight f4 [1, 128]
0	0x3e7eeb0e	0.24894354
1	0xbdadab07	-0.084798865
2	0x3d3db57e	0.046315663
3	0x3da1c3d5	0.0789868
4	0x3e4992e3	0.19684939
5	0x3cdc5fd4	0.026901163
6	0x3c3adab0	0.011404678
7	0x3cd41ef1	0.02589366
8	0x3d3b456a	0.045720495
9	0xbd92891d	-0.071550585
10	0x3d7ca071	0.061676446
11	0xbd18aca2	-0.03727401
12	0xbd7de2ba	-0.0619838
13	0x3ddcf239	0.10788388
14	0x3d1cf812	0.038322516
15	0x3c2e79b0	0.01064913
16	0x3eba1348	0.36342835
17	0x3df07e78	0.11742872
18	0x3e0d4e43	0.13799386
19	0xbceb3cc6	-0.028715502
20	0xbd2e8fac	-0.042617485
21	0x3b8b6074	0.0042534415
22	0x3dab15e1	0.083537824
23	0x3dc6d4ec	0.097085804
24	0x3e02a11f	0.12756775
25	0x3e3cbeed	0.18432207
26	0x3e0dbde4	0.13841969
27	0xbd23b31a	-0.039965726
28	0x3e0b39cc	0.13596267
29	0x3dc7ea69	0.09761507
30	0x3e0108e1	0.12601043
31	0x3e9fdddb	0.3122395
32	0x3d1549ac	0.036447212
33	0xbd081dde	-0.03323161
34	0x3d83d875	0.0643777
35	0x3d3e0022	0.046386845
36	0xbcb0a400	-0.021562576
37	0xbbe2b9d0	-0.006919123
38	0x3d8ff4cd	0.07029114
39	0x3ccc0664	0.024905391
40	0xbf35cbe7	-0.71014255
41	0x3adb6400	0.0016738176
42	0x3f6b5b38	0.91936064
43	0x3d01ca6c	0.031687185
44	0x3cea8384	0.028627165
45	0x3db33722	0.0875075
46	0x3cab1928	0.020886019
47	0x3d668fad	0.056289364
48	0xba85ea4a	-0.0010216918
49	0x3c9c8c0f	0.019109754
50	0x3cfc397d	0.030789131
51	0x3db291f8	0.087192476
52	0xbe71fa5d	-0.23630662
53	0xbcff0818	-0.03113179
54	0xbcf99ed8	-0.03047125
55	0xbdfad7b1	-0.12248171
56	0x3d434c12	0.04767997
57	0x3da4d9ba	0.080493405
58	0xbd4aa3ea	-0.049472727
59	0xbda32cc6	-0.07967524
60	0x3dcf0e82	0.10110189
61	0xbda4deed	-0.08050332
62	0x3cc477dc	0.023982935
63	0x3d70f334	0.058825687
64	0x3d921cdd	0.071344115
65	0x3df73024	0.12069729
66	0x3df078de	0.117418036
67	0x3dfe1921	0.12407137
68	0x3da3d5bf	0.07999753
69	0xbc149c98	-0.009070538
70	0x3e099c0f	0.13438438
71	0x3dd8fe30	0.105953574
72	0x3d96cea9	0.07363636
73	0x3d41e0f8	0.047333688
74	0x3e3ad510	0.1824534
75	0x3dcdf49a	0.1005642
76	0x3e17d5da	0.14827672
77	0xbd7b8300	-0.06140423
78	0x3b518260	0.0031968579
79	0x3d3025a1	0.043004636
80	0x3d6b3bce	0.05743008
81	0x3d826311	0.06366552
82	0xbd022fa5	-0.03178372
83	0x3eacb582	0.3373223
84	0x3e4e0a62	0.20121148
85	0x3c3dae20	0.011577159
86	0x3d9ec34a	0.07752092
87	0xbd055be6	-0.032558344
88	0x3d746c5e	0.05967366
89	0xbd11c53a	-0.03558848
90	0x3cea37da	0.028591085
91	0x3d927451	0.07151092
92	0x3db84dc4	0.089992076
93	0xbce4429e	-0.027863797
94	0x3d7401f6	0.059572183
95	0x3e8e1835	0.27752843
96	0x3e007efb	0.12548439
97	0x3e337e1b	0.17528574
98	0x3e478268	0.1948334
99	0x3dd02f8f	0.10165321
100	0x3d2e547d	0.042561043
101	0x3c21eed1	0.009883598
102	0x3d45ab87	0.048259284
103	0x3d439097	0.047745313
104	0x3db8c72c	0.09022364
105	0xbda8997a	-0.08232398
106	0x3dc93708	0.098249495
107	0x3cdb92ac	0.026803337
108	0x3c67ae91	0.014140741
109	0xbda415e8	-0.08011991
110	0x3d1cc91e	0.038277738
111	0xbcd76436	-0.026292901
112	0x3e062723	0.13100867
113	0xbc610b50	-0.013735607
114	0xbd27693e	-0.04087185
115	0x3d9db615	0.07700745
116	0x3e29dea5	0.16588838
117	0x3cc0ae6c	0.02352067
118	0x3f34f505	0.7068637
119	0x3d3f0755	0.04663785
120	0x3dedddc0	0.11614561
121	0x3d6b4fea	0.05744926
122	0x3d58ae87	0.052900817
123	0x3e3fb967	0.18723069
124	0xbd11f2c9	-0.03563193
125	0xbd151ece	-0.03640633
126	0x3c34c063	0.011032197
127	0xbd5af731	-0.053458396
