output/models/best-model-7.pt (torch, 4623 bytes, 7 tensors)

lstm.weight_ih_l0 f4 [8, 4]
000000 8b 8f 3e 3e 1e 32 67 bf e4 2d 35 bf ac 08 fa 3e
       0.18609445 -0.9031085 -0.7077315 0.4883474
000010 0e 62 71 bd b6 f4 1b bd 4b d1 0f 3e 45 b7 cb be
       -0.058931403 -0.03807517 0.14044683 -0.3978826
000020 84 05 33 3e 00 79 08 bd ba 7c b8 3e 54 00 c4 be
       0.17482573 -0.03331852 0.3603266 -0.382815
000030 46 77 ff 3e c0 01 7f bd ba f5 77 be 7c d1 b8 be
       0.49895686 -0.06225753 -0.24214831 -0.36097324
000040 03 52 16 3e fe be b1 bd 9d 1f 92 be 76 15 e2 3e
       0.14679722 -0.08679007 -0.28539744 0.44156998
000050 92 ba 15 bf 94 e8 4d 3d 4e 52 16 bf 2d ac d3 bf
       -0.5848781 0.050270632 -0.58719337 -1.6536919
000060 e1 21 89 3f 78 b8 75 be b5 dd 44 be 11 8d 27 3f
       1.0713464 -0.2399615 -0.192252 0.65449625
000070 90 a7 a0 3e 35 fd dc 3d a1 be 32 be de d8 8e bf
       0.3137784 0.10790483 -0.17455532 -1.1159933

lstm.weight_hh_l0 f4 [8, 2]
000000 a0 99 a3 bd a0 b2 ef bd fd 43 bc be f8 3b c7 bd
       -0.07988286 -0.11703992 -0.3677062 -0.09728235
000010 b8 74 d2 be 1c e5 f3 be 08 86 69 be 68 5b 8c 3e
       -0.41104674 -0.47635734 -0.22805035 0.27413487
000020 f8 7c 62 be 08 25 46 be 15 90 06 3f 83 e7 8b be
       -0.22117984 -0.19350064 0.525636 -0.27325067
000030 7f 8f 18 3f b0 30 28 3e 5a 6f ef 3e 88 a4 d5 be
       0.5959396 0.16424823 0.46764642 -0.4172709

lstm.bias_ih_l0 f4 [8]
000000 ce 96 05 bf a3 48 29 bf 9a ef 78 be ba 05 0e bf
       -0.52183235 -0.6612646 -0.2431015 -0.5547749
000010 24 0e 04 bf 6e 91 93 3f 2d cf 9a bf 6a 74 cd 3e
       -0.51584077 1.1528757 -1.2094475 0.4012788

lstm.bias_hh_l0 f4 [8]
000000 11 ca 66 bf c1 3c b3 be 7f a6 03 3f 8f 96 2c 3f
       -0.9015208 -0.3500729 0.5142593 0.67417234
000010 0e 6e 90 bf c2 17 09 40 3c cd 99 3d 59 bb e5 bd
       -1.1283586 2.142075 0.075098485 -0.11217374

fc_1.weight f4 [128, 2]
000000 10 e2 8f 3e c2 f8 d6 3e cd 51 a0 be d1 74 51 bf
       0.2810216 0.41986662 -0.3131241 -0.8181887
000010 4b 03 28 bf e0 fc 1c bd 59 b6 92 bf de c9 74 bf
       -0.65630025 -0.038327098 -1.1461898 -0.95620525
000020 a2 dd da 3e 80 db ba 3d a6 24 5e bf 02 a1 8e bf
       0.42747217 0.091238976 -0.8677467 -1.1142886
000030 f8 6a 6c be 33 d6 c7 be 49 2d 2a bf e7 d1 21 3f
       -0.2308768 -0.3903061 -0.6647535 0.6321091
000040 10 27 97 bd 00 7a 34 be fe 63 c2 3d 49 c3 a3 be
       -0.073804975 -0.17624664 0.09491728 -0.31984928
000050 36 21 1f bf 69 83 2a bf a5 9d 3b bf 52 a2 bd bf
       -0.6216005 -0.66606766 -0.7328742 -1.4815161
000060 e3 b3 f7 be 1e bb 33 be cd 92 e8 be b0 28 34 bf
       -0.4837943 -0.17551848 -0.454245 -0.70374584
000070 d5 8f 52 be 3e e6 5f be 34 10 2d bf 05 41 f7 be
       -0.2056268 -0.21865174 -0.6760285 -0.48291793
000080 34 b3 56 3e d0 b5 1f bd 8b 89 ca be 80 d1 bf be
       0.20966798 -0.03899175 -0.39558062 -0.37464523
000090 ba ce 3b bd 86 d3 df be d2 40 de 3e d0 ee 59 bd
       -0.045851447 -0.43716067 0.4340883 -0.053206265
0000a0 a9 cc a1 bf 83 4e 00 bf 43 dc 16 bf 37 fe cc be
       -1.2640582 -0.501198 -0.5892984 -0.400377
0000b0 12 1f b2 be ae ba 33 be cc 6f 47 bf 39 1c 91 bf
       -0.3478933 -0.17551681 -0.77904963 -1.1336738
0000c0 61 8a 88 3c ce b9 b5 be d4 f4 ac be c0 15 8d be
       0.016667547 -0.3549332 -0.3378054 -0.27555656
0000d0 20 95 1c bf ee 00 6b be b6 2c 4a bf 7c 4a c0 be
       -0.61165047 -0.22949573 -0.78974473 -0.37556827
0000e0 7b 2e 80 be 65 d8 71 bf 3d 7e 33 bf f7 68 da be
       -0.25035462 -0.94470817 -0.701145 -0.42658207
0000f0 c3 6f 18 3f 36 72 bd 3e 6b f8 54 bf cd 0b 32 bf
       0.59545535 0.370012 -0.83191556 -0.69549257
000100 90 a6 f9 be 5c 97 4c be 6c c7 81 bf 4f 3b 6c 3e
       -0.4875989 -0.19979614 -1.0138984 0.230695
000110 94 ac 52 bf 84 41 97 bf f4 a6 45 be 6f 55 0d bf
       -0.82294583 -1.1816869 -0.19301969 -0.55208486
000120 74 5d 16 3e 7c fb 29 be 88 69 69 be 53 b6 37 bf
       0.14684087 -0.1659984 -0.22794163 -0.7176258
000130 8f 25 22 bf 3f 2c 06 3f 6c 9d b9 be 20 b9 00 bf
       -0.6333856 0.52411264 -0.36252916 -0.5028248
000140 8c ad 83 bf 83 a1 df be e0 62 d3 bf e0 f5 c5 be
       -1.0287337 -0.4367791 -1.6514549 -0.3866415
000150 ca b1 8e be 02 39 08 bf ce af f2 be 4a 11 c3 3e
       -0.27870017 -0.53211987 -0.47399753 0.38099128
000160 9b ae 31 bf 3c 6f 6c 3e e2 74 4f be 28 77 68 bd
       -0.6940705 0.23089308 -0.20259431 -0.05675426
000170 4e b0 ef 3e 28 9c 12 bf 83 1d a2 be fd f6 2c be
       0.46814197 -0.57269526 -0.3166314 -0.16891094
000180 c9 f9 81 be 0c 2b aa be 91 7b f8 be 08 06 d0 be
       -0.25385883 -0.33235967 -0.48531774 -0.406296
000190 48 ef d2 be 12 87 bb be 78 a6 95 bf be 4f c4 bd
       -0.41198182 -0.36626488 -1.1691427 -0.09585522
0001a0 57 16 74 be 04 27 8a bf d3 a3 a3 bf 12 65 bc bf
       -0.23836647 -1.0793157 -1.278437 -1.4718344
0001b0 20 09 b1 3c 00 d9 8c 3b 40 c7 ae bd b8 89 c1 bd
       0.021610796 0.0042983294 -0.08534098 -0.09450096
0001c0 6e 3f 1e 3e 41 47 36 bf d1 a7 b6 be 18 a6 18 bf
       0.15453884 -0.71202475 -0.3567491 -0.5962844
0001d0 68 1c 78 bf 26 22 92 bf ea 9f 5b bf fe 3a 73 bf
       -0.96918344 -1.1416671 -0.85790884 -0.9501189
0001e0 60 d1 99 3d 1c cd 73 3e 44 39 22 3e 5c 2e 5a 3e
       0.07510638 0.23808712 0.15842158 0.21306747
0001f0 2e 76 81 bf ad 9e 4f bf 85 b1 3f 3e 0e 64 21 be
       -1.011419 -0.81101495 0.18720062 -0.15760824
000200 80 7f e4 3d 6a a6 b2 3e 82 c6 97 bc 9a f0 8a 3e
       0.11157131 0.3489259 -0.018527273 0.2713669
000210 f6 a9 9b bf 9e c4 ac bf 3c 78 90 be 1d c6 d8 be
       -1.2161243 -1.3497503 -0.28216732 -0.42338648
000220 98 dc 81 bf be 4d 00 bf a4 e1 0a bf 11 37 02 bf
       -1.0145445 -0.50118625 -0.5425055 -0.50865275
000230 a0 a4 b3 3d 46 98 bc 3e 90 80 89 bd 60 18 55 3d
       0.08771634 0.36834925 -0.067139745 0.0520252
000240 98 51 76 be 9c bc a7 3e 8f b4 0a 3f f2 2b 8c 3e
       -0.24054563 0.32761085 0.5418176 0.27377278
000250 9e 03 f2 3e 90 52 d5 3d d4 bd 1c bf 5b b8 db be
       0.47268385 0.10416138 -0.61227155 -0.4291409
000260 c5 fd 3d bf 3c a3 43 bf f4 0e 04 3e 00 9e 28 bf
       -0.74215347 -0.7642095 0.12896329 -0.6586609
000270 da c7 83 be a5 50 b5 bf 4b 07 32 bf ef 7b ff bd
       -0.25738412 -1.4165236 -0.6954238 -0.1247481
000280 17 85 92 be 87 34 45 be 30 d0 cf bf e7 c6 c5 bf
       -0.28617164 -0.19258319 -1.6235409 -1.5451325
000290 a8 c8 c4 be ed 47 91 bf 88 37 cb bf 57 85 2b bf
       -0.3843434 -1.1350075 -1.5876322 -0.67000335
0002a0 69 34 40 bf d4 ba 8c bf 50 f9 e8 3d 2e e4 e3 3e
       -0.7507997 -1.0994515 0.113756776 0.44510025
0002b0 da dc 03 bf 22 d4 fc be 0a 92 68 bf 49 32 96 bf
       -0.5150887 -0.49380594 -0.9084784 -1.1734096
0002c0 af ba 6f bf b7 a1 fb bc c3 ca 50 bf 6f 11 ff be
       -0.9364423 -0.03071676 -0.8155939 -0.49817988
0002d0 4e a3 0e bf 50 15 23 3e 9b f4 1e 3f a1 72 8f be
       -0.55717933 0.15926099 0.6209199 -0.28017142
0002e0 91 5f 85 be 9c bb 1c 3e 66 52 0b bf 3c 32 a3 be
       -0.26049474 0.15305942 -0.54422605 -0.31874263
0002f0 dc 79 4b 3e 80 ae 21 bc 0f db 47 be 23 40 93 bd
       0.19870704 -0.009868264 -0.19517158 -0.071899675
000300 2b 37 a6 be 98 9a f3 be 78 06 32 be 6c 9d 22 be
       -0.32463965 -0.47578883 -0.1738528 -0.15880364
000310 12 92 5d be 2a 66 f1 3f 70 8f 34 be e2 13 10 be
       -0.21637753 1.8859303 -0.17632842 -0.14070085
000320 fe 9d 03 bf 3d b3 e2 be b5 6d d3 be 50 3f e0 be
       -0.5141295 -0.44277373 -0.41294637 -0.43798304
000330 6a a4 c8 3e 9e 75 ce 3e 76 69 e0 be bc 64 ba be
       0.39187938 0.4032411 -0.4383046 -0.3640498
000340 37 49 14 bf a8 cd 8b 3e c5 d8 2e bf aa f5 1c bf
       -0.57924217 0.2730534 -0.68299514 -0.61312354
000350 e3 cf 17 bf 98 35 8c bd 0e 51 d6 3e f2 a0 2c bf
       -0.59301585 -0.0684616 0.41858715 -0.67433083
000360 94 d7 58 3e 3f a4 4b bd 35 74 07 bf a5 1a 04 3f
       0.21175987 -0.049717184 -0.5291169 0.51603156
000370 11 ff a3 3f 3c 99 79 3d 39 20 7e be f7 bc 1a bf
       1.2812215 0.06093715 -0.2481698 -0.6044459
000380 f7 85 e9 be 4c 3f 51 be 32 1c c3 3e cc 58 34 be
       -0.4561002 -0.20434302 0.3810745 -0.17611998
000390 aa f4 cc bf b9 41 c3 bf 3a f2 43 bf 1c 56 50 3e
       -1.6012166 -1.5254432 -0.76541483 0.20345348
0003a0 78 75 26 bf b6 da b3 bf ef 14 9b bf 2b f5 96 bf
       -0.65022993 -1.405112 -1.2115763 -1.1793569
0003b0 37 b9 fd be 45 73 8e 3e bd e2 95 bf b0 b1 0b 3d
       -0.4955537 0.2782232 -1.170982 0.034105003
0003c0 0a 59 59 be 92 6e 90 be 24 b2 cb bf 48 ba 83 bf
       -0.21225372 -0.28209358 -1.5913739 -1.0291224
0003d0 e2 89 5b be 16 72 f8 be b8 4c ee be d6 ad a2 be
       -0.21439317 -0.4852454 -0.46542907 -0.3177325
0003e0 98 93 9b bf 62 17 99 bf dd 37 b4 bf 35 3e f5 bf
       -1.2154417 -1.1960261 -1.4079548 -1.9159609
0003f0 58 52 19 bf 64 75 88 bf 60 58 6d bd 00 cb eb bc
       -0.5989127 -1.0660825 -0.05794561 -0.028783321

fc_1.bias f4 [128]
000000 55 df 14 bf e2 27 2d 3f 97 8d 14 bf c0 b5 16 3f
       -0.5815328 0.6763898 -0.5802855 0.5887108
000010 48 3e 97 be cf dd 16 bf 3d 12 79 3e d2 d8 b2 3d
       -0.29539704 -0.58932203 0.24323364 0.087327614
000020 00 af dc bd e3 15 b2 3e 66 01 f6 3e a1 91 19 3e
       -0.10775566 0.34782323 0.48047942 0.1499696
000030 8e d2 14 bf 2e db 4a 3f 06 4d d6 3e ab d9 e3 be
       -0.5813378 0.7924069 0.4185564 -0.44502005
000040 fc 18 c9 be f4 d5 91 be a4 18 c2 bd bb 51 1f bf
       -0.39276874 -0.28483546 -0.09477356 -0.62234086
000050 f8 48 11 bf 48 b8 d0 be e9 96 14 bf d4 e5 11 bf
       -0.56751966 -0.40765595 -0.5804277 -0.56991315
000060 37 3c 67 3e c0 5b 0b bf 38 d6 ea bd 07 9d 67 3e
       0.22581564 -0.54436874 -0.1146664 0.22618495
000070 f0 3f 24 be 80 2e aa bb d2 9c db be 9b 53 06 bf
       -0.16040015 -0.0051935315 -0.42893082 -0.5247132
000080 47 d4 19 bf 2c 57 b1 3e ec 7d c4 3e 0a c3 0d bf
       -0.60089535 0.3463682 0.3837732 -0.5537573
000090 d0 39 22 bf 9f bf 6f 3e 3c 02 fe be b2 4c 79 be
       -0.63369465 0.23412941 -0.4961108 -0.24345663
0000a0 4c 40 19 bf 2e 9a a7 3e 24 df 0c bf 34 10 1e bf
       -0.59863734 0.32734817 -0.55027986 -0.61743474
0000b0 8c 14 85 be 07 17 c5 3e ce a2 09 bf 79 97 fe be
       -0.2599224 0.3849413 -0.53764045 -0.4972494
0000c0 92 a0 29 bf 14 cc 35 bf e4 77 27 bf de 45 23 3f
       -0.66260636 -0.71014524 -0.65417314 0.63778484
0000d0 48 dc 18 bf 2f aa 18 3e 28 fa c4 bd d0 8b 8a bd
       -0.5971112 0.1490867 -0.09618026 -0.06764948
0000e0 e0 76 73 bf b0 5a 77 3d c1 d1 ec 3d 16 58 1a 3f
       -0.95103264 0.06038922 0.11563445 0.6029066
0000f0 d6 40 56 be 4d 4b 27 bf 78 96 2d bf 12 eb f6 be
       -0.2092317 -0.65349275 -0.6780772 -0.4822622
000100 fc 1f f6 be ce 37 1b 3f 01 08 18 bf e0 3d 99 be
       -0.48071277 0.60632026 -0.59387213 -0.2993002
000110 90 3d 9c 3e 1d b1 09 bf 1a 03 f2 be d4 fb 41 be
       0.30515718 -0.5378588 -0.4726799 -0.18943721
000120 52 35 bf bc 0a 24 c0 be 2d 57 18 bf dc 52 79 be
       -0.023340855 -0.37527496 -0.5950802 -0.24348015
000130 f5 51 2c 3f d4 05 33 be e7 34 23 bf 61 f2 14 bf
       0.67312557 -0.17482692 -0.637526 -0.5818234
000140 2b 16 80 3d 57 b5 b2 be 96 c2 34 bf 0c d6 2c bf
       0.06254228 -0.34903976 -0.70609415 -0.6751411
000150 0f cb e3 3d 18 f2 08 bf 7e 24 a2 be 16 8f 13 bf
       0.11122715 -0.53494406 -0.31668466 -0.57640207
000160 23 b4 01 bf 91 ce 12 bf 69 bc 9c be 83 0b 10 bf
       -0.5066549 -0.57346445 -0.30612496 -0.56267565
000170 14 89 25 bf e5 a1 03 bf 79 c3 2c bf ef 08 e0 3d
       -0.6466229 -0.51418906 -0.6748577 0.10939204
000180 07 13 e5 be 07 22 34 bf 0b 62 11 bf 2c f8 35 3f
       -0.4474108 -0.7036442 -0.56790227 0.71081805
000190 05 35 12 bf 92 0a 77 be 82 50 2b bf f9 1c 43 3e
       -0.5711215 -0.24125126 -0.6691972 0.19054021
0001a0 e0 64 2f bf c8 a1 cf be b3 59 2e bf ed a4 2f bf
       -0.685133 -0.40553117 -0.6810562 -0.6861103
0001b0 0c 94 6a bf 2e a2 0b bf 91 2a 9d be a7 07 2f bf
       -0.9163215 -0.5454434 -0.30696538 -0.6837105
0001c0 f0 cc 17 bf 60 90 f7 be 67 b1 a7 be 04 d7 df 3e
       -0.59297085 -0.48352337 -0.32752535 0.4371873
0001d0 c0 67 33 bf db f7 2c bf 56 0c 8d be 58 4c 1c bf
       -0.70080185 -0.675657 -0.27548474 -0.6105399
0001e0 c6 1d 06 bf 39 cc 69 3e c0 74 8c bc 7d 25 a4 be
       -0.5238918 0.22831811 -0.017145514 -0.3205985
0001f0 35 61 e3 be 9b 5d 4c 3d e6 87 7d be 8b 2d 16 bf
       -0.444101 0.049893957 -0.24758872 -0.58663243

fc.weight f4 [1, 128]
000000 e4 36 aa bd 32 9b b2 3e 21 79 86 3d 38 6e be 3e
       -0.08311251 0.3488403 0.06566072 0.37193465
000010 58 a9 ab bc 44 61 aa 3e 3d a6 26 3e 79 3d 84 bc
       -0.020954773 0.33277333 0.16274352 -0.016142594
000020 80 c4 7d 3b 17 8c 49 3e f9 e7 a8 3e ff 23 8d 3e
       0.003872186 0.19682346 0.3298948 0.27566525
000030 84 c9 0f 3f 7a 13 cb 3e 79 c0 7e 3e f6 52 13 3f
       0.56166863 0.39663297 0.2487811 0.57548463
000040 a2 23 a0 bd 5e 6e af be 56 20 97 bc ce f8 7f 3d
       -0.078192964 -0.3426389 -0.018448036 0.062493138
000050 c7 da 06 3f cd 39 8c bd 10 ab 54 3e 8c 71 03 3f
       0.5267758 -0.06846962 0.2076838 0.51345134
000060 ef 09 0f 3e 40 50 08 3f c8 e6 8d bd 8e f5 4b 3e
       0.13968633 0.5324745 -0.06928784 0.1991789
000070 5d 58 3a be a7 41 4c bd db 83 97 bd 7e 27 07 3f
       -0.1819777 -0.0498673 -0.07398196 0.52794635
000080 6c f2 a0 bc 43 05 72 3e 1d 0a b0 3e 57 bd ae 3d
       -0.019646846 0.2363482 0.34382716 0.085322075
000090 4a 25 15 3d 55 00 30 3e c4 8b ca bc d0 5f db 3b
       0.036412515 0.17187627 -0.024724849 0.0066947713
0000a0 bb 3c db be 52 dc a5 3e 48 46 77 3c da d5 19 3d
       -0.4281977 0.32394654 0.01509244 0.03755746
0000b0 68 9e 66 bc ac cf 7d 3e 46 de 99 bd cd 96 0e 3f
       -0.014075853 0.24786252 -0.075130984 0.55698854
0000c0 6e bd 36 3e 2a ba 96 3e 3e 68 22 bd 3a 12 c5 3e
       0.17845699 0.29438907 -0.039650194 0.38490468
0000d0 37 66 0a 3f 22 54 a7 3e 58 76 a7 3c e0 74 68 3b
       0.5406222 0.32681376 0.020442173 0.0035470054
0000e0 6b 98 e6 be 11 db 79 3d f5 7c 8b 3e 4e 87 b3 3e
       -0.4503816 0.060999934 0.27243772 0.35064167
0000f0 e0 10 bf bc 86 fb 44 3d 9c a3 f5 3e 3c 13 d4 be
       -0.023323476 0.048091434 0.47976387 -0.41420925
000100 ba 71 49 3d 96 ce 97 3e 79 0e d6 3e ee 0d 68 3d
       0.049180724 0.296498 0.41807917 0.05665391
000110 eb 53 90 3e 9c 11 09 3f f2 2a 22 bd 07 c2 5c bd
       0.28189024 0.53542495 -0.039591737 -0.053895976
000120 d3 1b bd bc 5a 3e 23 3d 24 12 8e 3c 42 ff e1 bc
       -0.023084557 0.039854385 0.017342634 -0.027587537
000130 45 54 c8 3e 70 ea ff bb 06 af a0 3e 47 5a e1 be
       0.39126793 -0.0078099295 0.31383532 -0.4401419
000140 22 02 38 3d d6 39 da 3e fc a0 9f 3e 8a c0 d6 3e
       0.04492391 0.4262225 0.3117751 0.4194377
000150 4b f0 81 3e 18 43 60 bd 30 95 0f bc 52 57 06 3f
       0.2537864 -0.054751486 -0.008763596 0.5247699
000160 e0 91 12 3f 1d b8 0f 3f e6 81 3e 3d 40 bb f0 ba
       0.5725384 0.5614031 0.0465106 -0.0018366352
000170 15 33 91 3d 4b 72 13 3f 5e 21 1c 3d 73 66 ab 3d
       0.07089821 0.5759627 0.03811776 0.0836915
000180 90 75 dc 3b 3d 83 05 3f 9d cf 74 be 96 94 a9 3e
       0.0067278817 0.5215338 -0.23907323 0.33121175
000190 1a a2 0b 3f d0 84 4b bc 5e 71 4b 3d 53 19 54 3e
       0.5454422 -0.012421802 0.049668662 0.20712785
0001a0 e0 51 43 3c 14 dc b2 be 03 89 9e 3d d2 94 16 bd
       0.011921376 -0.3493353 0.07740977 -0.03676302
0001b0 24 0f 0a 3f 96 80 3c 3d 62 65 08 bf ff 06 70 3e
       0.5392935 0.046021067 -0.532797 0.23440169
0001c0 27 9c 89 bd 86 69 6f 3d e5 68 e2 3e 56 37 9d 3e
       -0.06719237 0.058450244 0.44220653 0.3070628
0001d0 e6 34 c4 3e 67 c1 f1 3e 67 5e 75 be 29 4f f3 be
       0.38321608 0.47217867 -0.23961793 -0.47521332
0001e0 55 15 40 bd 91 d3 a2 3e 90 06 40 bc 01 b6 2e bd
       -0.046895344 0.31802037 -0.011720315 -0.04265404
0001f0 a5 69 09 3f d2 a1 ae 3e c4 b2 31 be 8f 3e 65 bd
       0.53676826 0.34107834 -0.1735335 -0.055967864
