output/models/best-model-5.pt (torch, 4751 bytes, 7 tensors)

lstm.weight_ih_l0 f4 [8, 7]
0	0x3cec57d8	0.02885048
1	0xbff924e0	-1.9464378
2	0xbb75c4a1	-0.0037501233
3	0x3f6632b0	0.89921093
4	0x3f29a47f	0.66266626
5	0x3e570ce7	0.21001016
6	0x3f39c5c2	0.7256738
7	0xbd5ddfeb	-0.054168623
8	0x3e93d5fe	0.288742
9	0xbd381ea5	-0.0449511
10	0xbec6548f	-0.38736388
11	0x3f857f9b	1.0429567
12	0x3f5196a6	0.81870496
13	0x3d825cfe	0.06365393
14	0x3d0b07e0	0.033943057
15	0x3e38cde4	0.18047291
16	0x3ed1edd2	0.41001755
17	0xbe9b6b38	-0.3035524
18	0xbe916e90	-0.28404665
19	0x3e93ace4	0.28842843
20	0xbf0e8496	-0.5567106
21	0x3e8499be	0.25898546
22	0x3f0d1aff	0.5511932
23	0x3f04b5db	0.5183999
24	0x3ea222da	0.31667215
25	0x3f27423d	0.65335447
26	0xbf20375a	-0.6258446
27	0xbf1b7ea6	-0.60740125
28	0xbc53b289	-0.012920984
29	0x3f1cd106	0.61256444
30	0x3bae5485	0.005320134
31	0xbe5b6ce4	-0.21428257
32	0xbdd1abea	-0.10237868
33	0x3ddeb961	0.10875202
34	0xbd74f16e	-0.059800558
35	0x3a293a6c	0.0006455544
36	0x3fdad871	1.7097303
37	0xbc160502	-0.009156467
38	0xbe70bb50	-0.23508954
39	0x3e03ab64	0.12858349
40	0xbe05b934	-0.1305893
41	0x3c8a9f6e	0.016921725
42	0xbd0e0bcc	-0.03467922
43	0xbcf19827	-0.029491497
44	0xbb8d059c	-0.004303647
45	0xbd850c2a	-0.06496461
46	0x3f3a4c6b	0.72772855
47	0xbeb0d3ed	-0.34536687
48	0xbf33ed01	-0.70283514
49	0x3d1c4589	0.03815225
50	0x3e3f93bf	0.18708704
51	0x3d1c824f	0.03821021
52	0xbdcf9af3	-0.10136976
53	0x3ec19cca	0.37814933
54	0xbeb7dc60	-0.3591032
55	0xbe079f73	-0.13244419

lstm.weight_hh_l0 f4 [8, 2]
0	0xbf0a54ef	-0.5403585
1	0x3ec3bad2	0.3822847
2	0xbed9953e	-0.42496675
3	0xbeb0acce	-0.3450684
4	0xbefccb57	-0.49373886
5	0xbee8e9c9	-0.45490864
6	0x3e99e812	0.30059868
7	0x3edaa5c2	0.42704588
8	0x3ef4c50a	0.4780658
9	0xbdd24a08	-0.102680266
10	0x3e89cfa6	0.26916236
11	0xbd0df5d0	-0.034658253
12	0xbf107866	-0.56433713
13	0x3f169f67	0.5883698
14	0x3d10dc60	0.035366416
15	0xbf01ec6a	-0.50751364

lstm.bias_ih_l0 f4 [8]
0	0xbeb56159	-0.35425833
1	0x3eb5b072	0.3548618
2	0x3e9fbe6e	0.31199974
3	0x3f205d5f	0.62642473
4	0x3f4456ca	0.7669493
5	0x3f6e2dc6	0.93038595
6	0x3b5039d2	0.0031772745
7	0x3e0f5522	0.1399732

lstm.bias_hh_l0 f4 [8]
0	0xbe85997e	-0.26093668
1	0xbe6a75fe	-0.22896573
2	0x3f00f9ef	0.5038137
3	0x3f2674c5	0.65021926
4	0x3f0d42fe	0.55180347
5	0x3ee48ee1	0.44640258
6	0x3e0291db	0.12750952
7	0x3e64c694	0.22341377

fc_1.weight f4 [128, 2]
0	0x400c4de0	2.192253
1	0x3fd8a102	1.6924136
2	0x3f00a8f8	0.50257826
3	0xbdca6b99	-0.09883804
4	0xbee22de0	-0.44175625
5	0xbedca4b8	-0.4309442
6	0x3f8c7890	1.0974293
7	0x3f78530d	0.97001725
8	0xbe483483	-0.19551282
9	0xbe29b7a9	-0.16573967
10	0x3ee1ac26	0.4407665
11	0xbf3fc8b7	-0.7491564
12	0x3e2b4b34	0.16727906
13	0xbedafc05	-0.427704
14	0xb85ebee0	-5.310669e-05
15	0x3e9796f0	0.29607344
16	0x3e7cffd0	0.2470696
17	0xbef0708f	-0.46960875
18	0x3ee24000	0.44189453
19	0x3f398995	0.7247556
20	0xbe25200f	-0.1612551
21	0xbeb06cb5	-0.34457937
22	0xbf506b15	-0.81413394
23	0xbefd4d5c	-0.49473083
24	0x3eb6eab6	0.35725945
25	0xbf1ce7b8	-0.61291075
26	0xbf10b275	-0.56522304
27	0xbf2157c4	-0.63024545
28	0x3dc1bac8	0.09459454
29	0x3eba1a76	0.36348313
30	0xbe1a44a4	-0.15065247
31	0xbee730e1	-0.4515448
32	0xbdcb6e08	-0.09933096
33	0x3e905fa8	0.2819798
34	0x3ec21c5f	0.3791227
35	0x3e860516	0.26175755
36	0x3ea47509	0.3212054
37	0xbf07cc15	-0.5304578
38	0xbfad64c4	-1.3546376
39	0x3dd99b39	0.106253095
40	0x3e30c64c	0.17263144
41	0xbefda4c6	-0.49539775
42	0xbf0cc63a	-0.5498997
43	0x3c7d8240	0.015472949
44	0xbebcabfb	-0.3684996
45	0x3e6fe947	0.23428832
46	0xbe5107b8	-0.204131
47	0xbe8c1b32	-0.27364498
48	0x3f10a3ee	0.56500137
49	0x3cb3565a	0.021891762
50	0xbda33b7d	-0.07970331
51	0xbf36b06b	-0.7136294
52	0xbf1f5a5c	-0.6224725
53	0xbef1c344	-0.47219288
54	0xbf00f7ff	-0.5037841
55	0x3e3356d8	0.17513597
56	0xbd9be3dd	-0.07611821
57	0xbea9d3e0	-0.3316946
58	0x3f4ee368	0.80815744
59	0x3f3bd359	0.73369366
60	0x3f38b96a	0.7215792
61	0x3e970cd0	0.29501963
62	0x3f1f7cdc	0.62299895
63	0xbd5286cb	-0.05139808
64	0xbf124fdd	-0.5715311
65	0x3ebcafa4	0.36852753
66	0xbe4f88b0	-0.20266986
67	0xbf1184ec	-0.5684345
68	0x3e9fd76b	0.31219038
69	0xbdcc5114	-0.09976402
70	0xbf050edd	-0.51975805
71	0x3ed3fb22	0.41402537
72	0x3f0b6bdc	0.54461455
73	0xbe492097	-0.19641338
74	0x3e8f8f05	0.28038803
75	0x3e66c283	0.22535138
76	0xbf2e68ee	-0.6812886
77	0x3e26ea64	0.1630035
78	0xbf6f2f86	-0.9343189
79	0x3ef483c8	0.4775679
80	0x3fbfc69e	1.4982488
81	0x3e77161d	0.2412953
82	0x3e8ca21a	0.27467424
83	0xbe1b3984	-0.15158659
84	0xbf2de947	-0.6793408
85	0x3f15d631	0.58529955
86	0x3f5c5133	0.860614
87	0x3f108a6e	0.56461227
88	0xbf1e043b	-0.61725205
89	0x3f25cc65	0.64765006
90	0x3efc3b86	0.49264163
91	0xbd1eb9bb	-0.038751345
92	0xbf076a7c	-0.5289686
93	0x3e9ca888	0.3059733
94	0xbc201ec0	-0.009772956
95	0x3e055eb0	0.13024402
96	0x3e8487dd	0.25884905
97	0x3ebeb7fc	0.37249744
98	0x3e138c0d	0.14408894
99	0xbf54ddfa	-0.8315121
100	0xbe3de933	-0.1854599
101	0xbea31883	-0.31854638
102	0xbe8d54f9	-0.27603891
103	0x3ee459d2	0.44599777
104	0xbf214f37	-0.630115
105	0x3e7ae893	0.24502783
106	0x3f0ea447	0.5571942
107	0xbcc77460	-0.024347484
108	0xbf2fc0cd	-0.68653566
109	0xbdf958f8	-0.121751726
110	0x3f3b3afa	0.73136866
111	0x3f21d32b	0.6321284
112	0xbdf5a558	-0.119944274
113	0x3dece4e0	0.11567092
114	0xbd3fb630	-0.046804607
115	0xbd6c6590	-0.057714045
116	0x3eb23e85	0.34813324
117	0x3f0afff1	0.54296786
118	0x3ea1291e	0.31476682
119	0x3dedf768	0.116194546
120	0x3e5acbd0	0.21366811
121	0x3eba72ea	0.36415797
122	0xbf0176c2	-0.50571835
123	0x3f21462c	0.629977
124	0xbf221a20	-0.63321114
125	0x3e8eec0c	0.27914464
126	0xbd80b579	-0.06284613
127	0xbe8fb02e	-0.28064102
128	0x3ecf0900	0.40436554
129	0x3f1b27fc	0.60607886
130	0xbe08eb8c	-0.13371104
131	0x3d059790	0.032615244
132	0x3effed71	0.4998584
133	0xbd90a39a	-0.070624545
134	0x3eada706	0.3391649
135	0xbee83603	-0.45353708
136	0x3dc9b4fc	0.09848973
137	0x3dabbb4a	0.08385332
138	0xbd0f49fe	-0.034982674
139	0xbe577c51	-0.21043517
140	0x3fb47461	1.4098016
141	0x3fac00bf	1.3437728
142	0x3eab5706	0.3346483
143	0xbec0bac0	-0.3764248
144	0x3f158bb9	0.58416325
145	0xbe54137c	-0.20710558
146	0xbeb0bca8	-0.34518933
147	0xbf31806a	-0.6933657
148	0xbed50db0	-0.41612005
149	0x3f23dde4	0.64010453
150	0xbdffbd98	-0.12487334
151	0xbece24fe	-0.40262598
152	0xbedb8d28	-0.4288113
153	0xbf1f7145	-0.6228221
154	0xbee986aa	-0.45610553
155	0x3e03cea8	0.12871802
156	0x3ef98d84	0.4874078
157	0x3ee614f6	0.44937867
158	0x3e672a94	0.22574836
159	0xbeb7cbcd	-0.35897675
160	0x3e9a5e1a	0.3014992
161	0xbe7f5932	-0.24936369
162	0x3e60627c	0.21912569
163	0x3f045913	0.51698416
164	0xbf283dda	-0.6571938
165	0x3e627eaa	0.22118631
166	0x3ceef518	0.029169604
167	0x3e394b48	0.18095124
168	0xbbb43200	-0.0054991245
169	0x3ec3925e	0.38197607
170	0xbe5b70b7	-0.21429716
171	0x3f29c51b	0.66316384
172	0x3f1b4d68	0.6066499
173	0xbeb102ae	-0.34572357
174	0x3e8cb742	0.27483565
175	0xbebde21c	-0.3708657
176	0xbe8420f0	-0.2580638
177	0xbf2b0d1b	-0.6681687
178	0xbe93ae0d	-0.28843728
179	0xbeef7968	-0.46772313
180	0xbf024b3c	-0.5089605
181	0x3f11b096	0.56910074
182	0x3d700e41	0.058607344
183	0x3e598d4e	0.2124531
184	0x3e9fcc66	0.3121063
185	0x3ed1027a	0.40822202
186	0xbf154493	-0.5830776
187	0xbf247a2b	-0.64248914
188	0xbcca76c0	-0.024714828
189	0xbe8d7a02	-0.27632147
190	0xbeb07aac	-0.3446859
191	0x3f117d2f	0.5683164
192	0x3eb09ecd	0.34496155
193	0xbdb94fcd	-0.09048424
194	0x3e2b7098	0.1674217
195	0xbd489690	-0.048971713
196	0x3efa1320	0.48842716
197	0xbe8208b6	-0.2539727
198	0x3df5a3c4	0.119941264
199	0xbc958347	-0.018251074
200	0xbe8dc3c8	-0.27688432
201	0xbed6ed26	-0.41977805
202	0xbe902150	-0.28150415
203	0xbf06d3d1	-0.52666956
204	0xbe3e1880	-0.18564034
205	0xbf056e09	-0.52121025
206	0x3e7ae0c4	0.24499804
207	0x3b67d100	0.0035372376
208	0x3eea3b09	0.45748165
209	0x3df1df03	0.11810114
210	0x3e79af32	0.24383238
211	0x3f29176e	0.66051376
212	0xbf0bf1c8	-0.54665804
213	0xbde6f1d0	-0.11276591
214	0xbe7c6d6e	-0.24651119
215	0xbf00652c	-0.50154376
216	0xbd909ae8	-0.07060796
217	0x3e4e5939	0.20151223
218	0xbd8dc8fe	-0.06923102
219	0x3f4a2d8d	0.78975755
220	0x3f2226ea	0.6334063
221	0xbe7e8b2b	-0.24857776
222	0x3e421a60	0.18955374
223	0x3dac1658	0.08402699
224	0x3f121329	0.57060486
225	0x3ec26c76	0.37973374
226	0x3f031e0d	0.5121773
227	0xbee7b220	-0.45253086
228	0x3da35540	0.079752445
229	0x3e3283fc	0.1743316
230	0x3f2ca280	0.67435455
231	0x3edb64d8	0.42850375
232	0xbef54946	-0.47907466
233	0xbf091805	-0.53552276
234	0xbe34a28c	-0.17640132
235	0xbeef3eb2	-0.4672752
236	0x3e611c8f	0.2198355
237	0x3f0eea5c	0.55826354
238	0x3f206a25	0.62661964
239	0x3ecb0bbe	0.39657396
240	0xbf10304a	-0.56323683
241	0xbe633ec2	-0.22191909
242	0xbd04c8ad	-0.03241794
243	0x3e301c3e	0.17198274
244	0x3e9a9dda	0.30198556
245	0x3cb688c0	0.022282004
246	0x3e0bcbbf	0.13651942
247	0x3ea72009	0.32641628
248	0x3f37193b	0.71522874
249	0x3f52eb86	0.8239063
250	0xbeca2c51	-0.39486936
251	0x3e9a00ad	0.3007864
252	0x3e2cf331	0.16889645
253	0x3ef51227	0.47865412
254	0xbe9c7032	-0.30554348
255	0x3df2a320	0.1184752

fc_1.bias f4 [128]
0	0xbe561955	-0.20908101
1	0x3d51947e	0.051167004
2	0x3ebeaf47	0.372431
3	0xbeded38a	-0.43520766
4	0x3ecb0e04	0.3965913
5	0x3e88e295	0.26735368
6	0xbedfb2a2	-0.43690974
7	0x3da375c0	0.079814434
8	0xbe82d51b	-0.25553212
9	0x3eea8868	0.45807195
10	0x3e60cabd	0.21952339
11	0x3ec7ea49	0.39045933
12	0xbecde20c	-0.40211523
13	0xbf30e54b	-0.69099873
14	0xbf17f36e	-0.5935582
15	0xbde07eb0	-0.10961664
16	0xbf1af294	-0.60526395
17	0x3e27007c	0.16308779
18	0x3e6f5dac	0.23375577
19	0x3dd2e6f8	0.1029796
20	0xbe745770	-0.2386148
21	0xbe192f08	-0.14959347
22	0x3f217e57	0.63083404
23	0xbee14bd1	-0.44003156
24	0xbbe439c3	-0.0069648935
25	0x3eb9de74	0.3630253
26	0xbeb994ef	-0.3624644
27	0xbe81a718	-0.25322795
28	0x3f02525f	0.5090694
29	0x3f0d0729	0.5508905
30	0x3ea8ba36	0.32954568
31	0x3e35563b	0.17708676
32	0x3e160be2	0.1465297
33	0xbe86ea7d	-0.26350775
34	0x3e5c7fbf	0.21533106
35	0xbec28106	-0.37989062
36	0xbd1d76a7	-0.038443234
37	0x3f258733	0.6465942
38	0xbeb13765	-0.34612575
39	0xbe27d0ae	-0.16388199
40	0xbecc96c7	-0.39958784
41	0xbf18799a	-0.5956055
42	0xbf02c40f	-0.5108041
43	0x3f2d9580	0.67806244
44	0x3e5306f0	0.20608115
45	0xbd94d287	-0.072667174
46	0x3e32273a	0.17397776
47	0xbeca3314	-0.39492095
48	0x3da9ce68	0.08291322
49	0xbd53207f	-0.051544663
50	0x3e5f5187	0.21808444
51	0xbf229aa1	-0.63517195
52	0x3e2f3f7b	0.1711406
53	0xbf1a8d4e	-0.60371864
54	0xbef929d0	-0.48664713
55	0x3f38e704	0.722275
56	0xbf133cbf	-0.57514566
57	0xbeb850f0	-0.3599925
58	0x3f18d887	0.59705395
59	0xbf024dba	-0.5089985
60	0xbefe0b08	-0.4961779
61	0x3ee48ed0	0.44640207
62	0xbe1ad5c8	-0.15120614
63	0x3eba9548	0.36442018
64	0x3f19d3cb	0.60088795
65	0xbf037d40	-0.5136299
66	0x3f12cfc1	0.5734826
67	0xbed74ed4	-0.4205233
68	0x3e572b61	0.21012641
69	0xbd64f988	-0.055902034
70	0xbe8ba61e	-0.27275175
71	0xbe750f98	-0.2393173
72	0xbebe36b0	-0.37151098
73	0xbebc56e2	-0.36785036
74	0x3eb27829	0.348573
75	0xbd559380	-0.05214262
76	0xbf0e33da	-0.5554787
77	0xbdd2aa10	-0.10286343
78	0xbf03db9d	-0.5150698
79	0xbeb4706a	-0.35242015
80	0xbecc7a43	-0.39937028
81	0xbeec9412	-0.4620672
82	0x3e392d8f	0.18083785
83	0xbd17ed7a	-0.03709171
84	0xbe9f6774	-0.31133616
85	0x3e380e8d	0.179743
86	0x3f29e26d	0.66361123
87	0xbe899568	-0.268718
88	0xbdd780a8	-0.10522586
89	0xbeba94c1	-0.36441615
90	0x3f25dbd8	0.6478858
91	0x3d47bfaf	0.048766788
92	0xbed53250	-0.41639948
93	0xbef97358	-0.48720813
94	0xbe5412f8	-0.20710361
95	0x3db91650	0.09037459
96	0x3c8c1aa6	0.01710255
97	0xbeab2727	-0.33428308
98	0x3f3235b9	0.69613224
99	0x3e34f6a9	0.17672218
100	0xbd0bc546	-0.03412368
101	0x3eb54e0c	0.35411108
102	0xbea83928	-0.32856107
103	0xbf0945d5	-0.5362218
104	0xbdd45c6f	-0.10369193
105	0xbe66767f	-0.2250614
106	0xbe2e50b0	-0.17022967
107	0xbe83854c	-0.25687635
108	0xbde27836	-0.11058085
109	0xbebc376d	-0.36761037
110	0x3f0264e3	0.5093519
111	0xbe7cf712	-0.24703625
112	0xbd8af146	-0.067843005
113	0xbeb25e57	-0.348376
114	0xbf0a8c00	-0.54119873
115	0x3e8a8742	0.2705632
116	0x3e113d8c	0.14183635
117	0x3f2a02c7	0.6641049
118	0x3f19f71d	0.6014269
119	0xbf1f4106	-0.6220859
120	0xbf019e68	-0.50632334
121	0xbce4db38	-0.027936563
122	0xbf25d51f	-0.6477832
123	0xbee135ad	-0.43986264
124	0xbf0e0241	-0.5547219
125	0x3dcc727b	0.09982773
126	0xbdf5131c	-0.119665354
127	0xbd9d24f8	-0.07673067

fc.weight f4 [1, 128]
0	0x3fd4e488	1.6632242
1	0x3d1a59d2	0.037683316
2	0x3d70ef41	0.05882192
3	0xbfa5b92c	-1.2947135
4	0x3daae364	0.083441526
5	0x3d18f4aa	0.037342705
6	0x3d4ba266	0.049715422
7	0x3d5c659b	0.053807836
8	0xbd031442	-0.03200174
9	0x3e1be091	0.15222384
10	0x3d1bcfe0	0.038040042
11	0x3e88ac39	0.26693895
12	0x3d18a8f2	0.037270494
13	0xbd57e755	-0.05271085
14	0x3bcf66b0	0.00632938
15	0xbce5bfb4	-0.028045513
16	0xbcbfa564	-0.023394294
17	0x3e2ef370	0.17085052
18	0x3d5b2c57	0.053509083
19	0xbead2cba	-0.33823186
20	0xbd5d9ae1	-0.054102782
21	0x3d17cefa	0.037062623
22	0x3e3c6829	0.18399109
23	0x3cd5b8e0	0.026089132
24	0x3d217bc5	0.039424676
25	0x3cf91543	0.030405646
26	0xbd9ccab0	-0.07655847
27	0xbc3a5388	-0.011372454
28	0x3dd95da8	0.10613567
29	0x3e4a89af	0.19779085
30	0x3e231fde	0.15930125
31	0x3df9b8a8	0.121934235
32	0x3d873852	0.06602539
33	0xbd942ccb	-0.07235106
34	0x3dd54bc8	0.10414845
35	0x3d8f1f17	0.06988352
36	0x3c00b64d	0.007855964
37	0x3e437551	0.19087721
38	0x3d42bc92	0.047543116
39	0x3e02d386	0.12776002
40	0x3f8d68de	1.1047628
41	0x3d5fcce2	0.05463875
42	0x3acc6f80	0.0015597194
43	0x3e42b5e7	0.19014703
44	0x3da860f4	0.08221617
45	0x3be6fd37	0.0070492285
46	0x3d40932a	0.047015347
47	0xbc51d8d8	-0.012808047
48	0x3dcf356c	0.10117611
49	0x3db5ebd7	0.088828735
50	0x3d1ea2f8	0.038729638
51	0xbd906681	-0.07050801
52	0x3d6b1093	0.057388853
53	0xbd8f3140	-0.069918156
54	0xbd859149	-0.065218516
55	0x3e31d925	0.1736799
56	0x3d93a247	0.07208686
57	0xbd07d224	-0.03315939
58	0x3e298bf5	0.16557296
59	0x3c0c16f0	0.008550391
60	0xbd81708f	-0.06320297
61	0x3e12a531	0.14320828
62	0xbda90514	-0.08252922
63	0x3e0e9100	0.139225
64	0x3e0a42df	0.13502072
65	0x3d20adca	0.03922824
66	0x3e37219a	0.17883912
67	0x3dab3b0f	0.08360874
68	0x3d5a4a60	0.053293586
69	0x3d8d38ad	0.06895576
70	0xbfc2bc9a	-1.5213807
71	0x3d71eb1a	0.0590621
72	0x3d09cd76	0.03364321
73	0xbd7d0e16	-0.06178101
74	0x3e275621	0.1634145
75	0xbd85abd6	-0.06526916
76	0x3d48d09e	0.049027078
77	0xbd8966a2	-0.06709029
78	0xbc871319	-0.016488599
79	0x3ca79818	0.020458266
80	0x3c8a1f80	0.016860723
81	0x3c42d2a0	0.011891037
82	0x3d45600b	0.048187297
83	0x3c7733fb	0.015088077
84	0x3d0538ec	0.032524988
85	0x3dd7ed25	0.105432786
86	0x3e293053	0.1652234
87	0xbca2ffbc	-0.019897334
88	0xbcfefe10	-0.031127006
89	0x3ce4bcbc	0.027922027
90	0x3e43c4e1	0.19118072
91	0x3d54d595	0.0519615
92	0xbce6bbae	-0.028165665
93	0x3c98dee8	0.018660977
94	0x3dab5251	0.0836531
95	0x3d75431e	0.05987846
96	0x3c82d3de	0.015970167
97	0x3d0d345c	0.034473762
98	0x3e4ec50a	0.20192352
99	0x3d98fe8c	0.07470426
100	0x3d74fda4	0.059812203
101	0x3d4e8ab2	0.05042524
102	0x3d162956	0.036660515
103	0x3cae3ab4	0.021268226
104	0xbd6073d0	-0.054797947
105	0xbe58d176	-0.21173653
106	0xbd8ece56	-0.06972949
107	0x3b8eb6d0	0.004355289
108	0x3c9f5a85	0.019452343
109	0x3f01b5e0	0.50668144
110	0x3e01fab4	0.12693292
111	0x3d978133	0.0739769
112	0x3d3c7ca4	0.046017304
113	0xbd6cd7fa	-0.05782316
114	0xbd340df0	-0.043958604
115	0x3e3a78be	0.18210122
116	0x3e1ba12a	0.15198198
117	0x3e1799fd	0.14804836
118	0x3e2e2b07	0.17008601
119	0x3c2ada70	0.010428056
120	0xbd851a3d	-0.06499145
121	0x3c19fd5f	0.009398787
122	0x3d268582	0.040654667
123	0x3e4256e7	0.18978463
124	0xbf7504ec	-0.95710635
125	0x3d3cf1c9	0.04612902
126	0x3d8b936a	0.068152264
127	0xbc992688	-0.018695131
