output/models/best-model-10.pt (torch, 4623 bytes, 7 tensors)

lstm.weight_ih_l0 f4 [8, 4]
000000 3a 03 1f 3f 92 e8 8a 3d a5 16 cb 3e d9 87 4e 3f
       0.621143 0.067826405 0.39665714 0.8067604
000010 ab 9c 08 40 97 e6 37 be 12 48 d0 bf 4d 1d 6d 3f
       2.1345623 -0.17959057 -1.6271994 0.92622834
000020 82 32 b7 3e bb 9c 0e 3f ed c1 1c 3f 80 bd 4a be
       0.35780722 0.557079 0.6123341 -0.19798851
000030 48 8b 4a 3e 20 c7 02 be ad be 27 bf 3e 2b 93 3e
       0.19779694 -0.12771273 -0.65525323 0.2874393
000040 f1 1e 86 be 88 c6 ac bc 57 f3 0f bd ff 58 12 3e
       -0.2619548 -0.02109076 -0.035144176 0.14291762
000050 04 4c 76 3d 73 3c de 3c b3 6f 88 3e d3 ce ca 3d
       0.060131088 0.027128434 0.2664772 0.0990273
000060 16 23 9b be b4 1d 89 bd 5d 21 81 be ce 99 aa 3f
       -0.30300206 -0.066951185 -0.25220767 1.3328187
000070 bd fa bb 3f a1 79 c2 3c 40 7c a0 be bd d7 6a bf
       1.4685894 0.023739638 -0.31344795 -0.9173544

lstm.weight_hh_l0 f4 [8, 2]
000000 1d a4 06 3f 53 86 16 3f 0a 1a 32 bf 02 04 b5 3e
       0.52594167 0.5879871 -0.6957098 0.3535462
000010 d2 5f cb be aa 94 b1 3e ed e0 2f bf 31 c2 00 3f
       -0.39721543 0.34683734 -0.68702585 0.5029631
000020 a2 8d d6 be da 0f fd 3e b0 a9 74 bd 81 b4 e9 be
       -0.41904932 0.49426156 -0.05973214 -0.45645526
000030 9e 6c 98 3e 7e 60 08 bf 1f b5 0f 3f 7f 52 af be
       0.29770368 -0.53272235 0.56135744 -0.34242627

lstm.bias_ih_l0 f4 [8]
000000 ea d3 9e 3c 89 ce 0d be 16 cc af be 2a 93 c8 be
       0.019388158 -0.13848318 -0.34335393 -0.39174777
000010 9a e6 85 3f c0 6f 82 3e ab 01 cc 3b b4 d6 ec 3e
       1.0460999 0.25475883 0.006225785 0.46257555

lstm.bias_hh_l0 f4 [8]
000000 94 52 70 3f c9 14 a3 3e e1 79 0e 3f d2 ac f2 be
       0.93876004 0.31851795 0.5565472 -0.47397476
000010 0b c9 e1 3d 48 41 cc 3d 8b 22 dd 3e 32 69 bc 3e
       0.11024674 0.09973389 0.43190417 0.36799008

fc_1.weight f4 [128, 2]
000000 3b b3 86 3e 00 c6 c8 3d 77 1a 20 bf 60 bd 8d 3c
       0.26308617 0.098033905 -0.6254038 0.017302215
000010 5b 68 b9 3f 96 ea 6e 3d 5e ca 02 3f b5 ab 0f 3f
       1.4484972 0.058329187 0.5109004 0.5612138
000020 c6 cf c6 be c0 3b 84 3e 51 b2 b7 be 13 1f 2a bf
       -0.38830394 0.25826836 -0.35878232 -0.66453665
000030 d0 de 76 3e db 4c 25 bf b6 90 c6 3e 3e 06 1d bf
       0.24108434 -0.645704 0.3878228 -0.6133765
000040 eb 06 b7 be aa 9c a0 3e 80 39 8d 3c bb fd d0 be
       -0.35747465 0.31369525 0.017239332 -0.4081858
000050 24 e1 4e be e4 4c 1d be 98 b7 96 be 80 98 33 3c
       -0.20203072 -0.15361363 -0.29436946 0.010961652
000060 33 36 d7 bd cb de ac be 70 89 dd 3e d7 7e 89 3e
       -0.105083846 -0.33763728 0.4326892 0.26854584
000070 df 11 09 3f a0 79 2f 3f 25 99 d4 be 14 49 0b be
       0.53542894 0.6854496 -0.4152309 -0.13602096
000080 37 56 4b 3e 3c 0b 0b 3f 1b cf 36 bf de 5e 9c 3e
       0.19857107 0.5431402 -0.7140977 0.30541128
000090 c0 d2 64 be 0b 99 42 3e 80 31 e9 bd 4a 01 b7 3e
       -0.2234602 0.19003694 -0.113863945 0.3574317
0000a0 a0 d4 83 be 53 0a f7 be dc 77 09 3e e3 66 e5 be
       -0.25748158 -0.48250064 0.13424629 -0.4480506
0000b0 44 d9 d4 bc e2 0c 06 bf 08 3a 60 3f 12 fe 13 bf
       -0.025982507 -0.5236341 0.8758855 -0.57809556
0000c0 a1 9f 48 3f be ff 9e 3e 9c 23 0c bf c9 69 33 3f
       0.78368574 0.3105449 -0.54741836 0.7008329
0000d0 aa 6b aa 3e 2d a0 9a 3d 40 1f 3b bc 78 0a eb be
       0.33285266 0.07550082 -0.011421025 -0.45906425
0000e0 71 bd d1 3f e4 92 19 3e 51 66 4a 3f 5b 02 e9 3e
       1.6385938 0.1499744 0.7906237 0.4550961
0000f0 32 28 70 3f 5e 1c 66 3f b0 f5 7e be fb 35 ee 3e
       0.93811333 0.89887035 -0.2489841 0.4652556
000100 18 41 16 bf 02 1a 29 bf e2 72 14 3f 05 76 1e bf
       -0.58693075 -0.6605531 0.579878 -0.61898834
000110 1b ad 13 3f de 4d 89 3e e5 c1 02 3f 8f 60 7c 3e
       0.57686013 0.2681722 0.5107711 0.24646209
000120 81 d9 4a be 02 59 0e c0 85 5d 44 be 51 f9 b1 3e
       -0.19809534 -2.2241826 -0.191763 0.34760526
000130 0a 2c a9 3e 41 e7 4f 3f 92 5b cc 3e f2 17 e9 be
       0.33041412 0.8121224 0.39913613 -0.4552608
000140 e1 59 25 3f 6c 61 c7 3d 4a e5 1a 3f be 81 01 bf
       0.6459027 0.097353786 0.6050612 -0.50588596
000150 a1 a5 13 3f 90 43 c6 3d 0e 97 1d bf 4d 5b be 3e
       0.57674605 0.09680855 -0.61558616 0.37179032
000160 b0 17 a2 be aa 55 b6 be 82 a6 0a bf 0c 55 92 3e
       -0.31658697 -0.35612231 -0.5416032 0.2858051
000170 65 7f 12 3e 62 d7 7c 3e 7e da 1e 3f 85 a2 ec be
       0.1430641 0.24691537 0.6205214 -0.46217743
000180 a0 31 03 bd c0 2d 65 bc c2 31 92 be 10 52 ca bd
       -0.032029748 -0.013987958 -0.28553587 -0.098789334
000190 fa 25 4a 3f f7 6e 05 bf f0 28 0c bf ad 54 3e 3f
       0.789642 -0.52122444 -0.54749966 0.74347955
0001a0 0c 54 bb be ec 85 58 be 5f 64 3e 3f fd 0c aa 3e
       -0.3658756 -0.21144837 0.74371904 0.33213034
0001b0 3c c5 3e be 22 5c 72 3e f3 ac 3a bf d1 26 52 bf
       -0.18629926 0.23667958 -0.7292015 -0.8209048
0001c0 5a d6 19 bf aa 05 8d 3e 78 f2 32 bc c8 de 7a be
       -0.600927 0.27543384 -0.010922067 -0.24499047
0001d0 61 42 b4 3e a6 75 d0 3e e9 d9 6c 3e 99 80 97 3e
       0.35206893 0.4071476 0.23130001 0.295903
0001e0 ba 30 3f 3e 62 a6 c9 be 95 3d 06 bf 74 94 c5 be
       0.18670931 -0.39384753 -0.52437717 -0.38589823
0001f0 f7 4f f7 3e 10 1a 02 3f b4 4c 82 bf 0d 9f 44 bf
       0.48303196 0.5082102 -1.0179658 -0.7680519
000200 80 fe ef 3b c3 65 a5 be 47 d3 cf be 40 ad 11 be
       0.00732404 -0.323042 -0.4059088 -0.14226246
000210 e6 af b5 3d 7e 8d b5 bc 0c 8f 34 be ce f8 5d be
       0.088714406 -0.022162195 -0.17632693 -0.21676943
000220 d0 0c c2 bd 00 1f 30 bd cf 4c 03 3f 67 ee ff be
       -0.094751 -0.042998314 0.51289076 -0.49986574
000230 91 d3 d7 be 6e d3 82 3e 37 ce 88 be 32 08 87 3e
       -0.421536 0.25551933 -0.2671983 0.2637344
000240 46 27 c2 be ec 25 03 3e 6c 77 a4 3e 81 d3 31 3f
       -0.37920588 0.12807435 0.32122362 0.69463354
000250 32 ca 88 be 46 9a 19 3f db f6 8f bf fe 91 7c 3e
       -0.26716763 0.6000103 -1.1247209 0.24665067
000260 c3 62 ef 3c 75 a6 98 3e 60 68 50 3d bf 79 26 bf
       0.029221898 0.29814497 0.05088079 -0.6502952
000270 db 28 48 bf dc 7d f2 3e f2 c2 0b bf 48 a1 1c be
       -0.7818734 0.47361648 -0.5459434 -0.15295899
000280 d2 a1 80 be b2 03 d7 3e a9 fd 66 bf c8 77 d9 be
       -0.2512346 0.41995007 -0.90230805 -0.42474198
000290 bf 96 85 be 52 16 94 be 29 19 dd be af 19 f9 be
       -0.26091573 -0.2892328 -0.43183258 -0.48652408
0002a0 da 8e 56 3e af 61 c0 3d 5a 15 3e 3e 96 6d d6 be
       0.20952931 0.09393632 0.18562832 -0.41880482
0002b0 1c e8 4e bf ab be 36 3e 4d c9 87 be b0 a2 48 be
       -0.8082292 0.17846172 -0.26520768 -0.1959331
0002c0 02 2e 18 3f d8 fe 9f be 80 98 95 bd d8 e0 be 3d
       0.594452 -0.31249118 -0.07304478 0.09320229
0002d0 88 9c 33 bf cb 1e 36 3d a0 2d a1 bc 90 e0 b8 3e
       -0.7016072 0.04446296 -0.019675076 0.36108828
0002e0 37 29 c3 3d 6a 17 33 bf 9b 6e b0 be 14 bb 0d 3f
       0.095293455 -0.699576 -0.34459385 0.55363584
0002f0 0f 91 78 bf ee 0f 17 3f 78 52 a7 3e 0e fe 08 3e
       -0.9709634 0.5900868 0.32680106 0.13378164
000300 80 6c cd 3e 12 ce 7d 3f 66 3e bd 3e 54 36 12 bf
       0.4012184 0.99142563 0.3696167 -0.5711415
000310 4a 17 a3 3e 49 a3 9c be d6 47 e6 3d 59 a7 08 3f
       0.31853706 -0.30593327 0.1124417 0.5338035
000320 c6 0b 30 3b 6c 78 1b 3f 92 76 12 bf b2 5f bb 3d
       0.0026862486 0.60730624 -0.57212174 0.09149112
000330 44 8a 58 be 69 a0 1c 3e 1c 26 eb 3e 24 18 b6 3d
       -0.21146494 0.15295567 0.45927513 0.08891323
000340 24 77 76 3e b5 58 20 3f 6c 43 17 be 30 82 31 bf
       0.24068886 0.62635356 -0.14771813 -0.69339275
000350 8e 4d b0 be d9 d2 a5 ba c0 ac 82 be 17 f1 cc 3e
       -0.3443417 -0.0012651338 -0.25522423 0.40027687
000360 28 de 1e be 26 9f 90 be 84 c6 6c bf 83 a5 0f 3f
       -0.15514433 -0.2824642 -0.9249041 0.56111926
000370 96 2b a4 3e 97 96 01 3f aa df 33 bf aa b7 88 be
       0.32064503 0.50620407 -0.7026316 -0.26702625
000380 a8 43 7f 3e 7f ab 88 3e 10 0e bd be 76 92 b6 3f
       0.24928153 0.2669334 -0.3692479 1.4263446
000390 80 f3 c2 3e 52 06 2f 3f ce 7b 1c 3e 9c 91 b0 3e
       0.380764 0.6836902 0.15281603 0.3448609
0003a0 fc 44 20 3f fe a3 4a 3e f9 47 86 3f 14 d5 bb 3f
       0.6260526 0.1978912 1.0490714 1.4674401
0003b0 4b bd ff 3e 32 74 76 3e c8 23 b2 bd e1 5f 1f 3f
       0.49949107 0.24067762 -0.08698231 0.62255675
0003c0 91 6d 34 3e 93 cb 2d bf 37 ba ee 3e 24 84 11 3f
       0.17619921 -0.67888755 0.46626446 0.56842256
0003d0 db 79 fa be dc dd 1c 3e 67 d1 fa be e6 7d 08 3f
       -0.48921093 0.15319008 -0.48987886 0.53317106
0003e0 33 99 08 bf c3 65 53 3d 4e 2c d1 3e 90 36 3b 3e
       -0.53358763 0.05161072 0.40854114 0.18282533
0003f0 fc 88 83 3e b8 2a 1f 3f 9d 90 cc 3f 43 3b 03 3f
       0.25690448 0.6217456 1.5981632 0.512623

fc_1.bias f4 [128]
000000 c5 e6 f8 be f1 ef 21 bf c2 4d 96 bc 99 46 31 bf
       -0.48613563 -0.63256747 -0.018347625 -0.6924835
000010 e5 92 24 3f 05 67 d5 3e 7b 1e b3 be ab d1 e5 be
       0.64286643 0.4168016 -0.34984192 -0.44886526
000020 86 92 1d bf 8c fb b2 be 79 3c 1e bf c2 10 09 3e
       -0.615517 -0.3495754 -0.61811024 0.13385299
000030 a0 75 1b 3f 0e 04 71 3e 84 96 82 3e bf f1 06 bf
       0.60726357 0.23536703 0.2550546 -0.52712625
000040 a0 2b 48 bf 23 f2 b6 3e 6f f1 1a 3f 19 3a 24 bf
       -0.78191566 0.3573161 0.6052465 -0.6415115
000050 93 cf d2 3e a9 55 23 bf 19 22 5d 3e 32 df 83 be
       0.41173992 -0.6380258 0.21595038 -0.25756222
000060 1c 1c be bc 8b 14 04 bf 8a d9 a7 be 3c 8c 96 be
       -0.023206763 -0.51593846 -0.32783157 -0.29403865
000070 86 00 c2 bc 8f 80 22 3f 4e 02 32 be d5 bb fb be
       -0.02368189 0.63477415 -0.17383692 -0.49166742
000080 03 8f bf 3e 97 fc 29 3f 9a d4 08 bf d4 78 09 3f
       0.37413797 0.66401047 -0.53449404 0.53699994
000090 b1 23 9c 3e be ab 98 3d ab c9 7a be 4d f7 28 bf
       0.3049598 0.07454632 -0.24490993 -0.6600235
0000a0 b6 d2 dc be 41 b4 8c 3e 3f 48 60 3e 8d d6 8c 3e
       -0.4312951 0.27481273 0.2190256 0.2750744
0000b0 ba a3 4e 3e be 78 0d bf 37 35 bf be 21 c7 20 3d
       0.20179644 -0.5526236 -0.37345287 0.039252404
0000c0 a6 cd 6e be 94 0c 05 be e7 d0 73 3e 88 48 76 3e
       -0.23320636 -0.1299308 0.23810159 0.24051106
0000d0 68 c8 d8 bd 71 c9 90 3e cd a0 73 3e e7 ee ed 3e
       -0.105850995 0.28278688 0.2379181 0.4647133
0000e0 96 30 32 bf 52 f7 ce 3e 25 c3 b6 3d b4 3b 01 3e
       -0.69605386 0.40423065 0.089239396 0.12620431
0000f0 90 b4 82 3e 5e df c4 be bb c6 15 3f 04 5f 27 bc
       0.25528383 -0.38451666 0.58506364 -0.010215525
000100 70 33 0a bd da 76 30 bf 72 1a 2a 3e cf aa 05 bf
       -0.03374046 -0.68931353 0.1661165 -0.5221376
000110 42 a6 33 bf ac 26 e3 be 34 ec 0e bf c5 54 27 bf
       -0.70175564 -0.44365442 -0.5582917 -0.65363723
000120 70 5e c1 bd da 6e 64 bc 2e 3f 60 3e 7a 83 8c 3e
       -0.09441841 -0.013942445 0.21899101 0.2744406
000130 af 97 72 3e 1a 07 15 bf 45 cb b2 3e 31 33 c3 be
       0.23690675 -0.5821396 0.34920707 -0.38124993
000140 64 26 cf be 57 ad d7 ba 86 92 af 3e 58 f7 8c 3e
       -0.40458977 -0.0016454858 0.34291476 0.27532458
000150 af df 24 bc cb e1 c0 3e 8d 30 4a 3e b0 dc 34 bf
       -0.010063096 0.37672266 0.19745083 -0.7064924
000160 56 70 9b bc a6 3b 2a bf 3d 48 2c 3e f3 04 ba be
       -0.018974464 -0.66497266 0.16824432 -0.363319
000170 f1 21 8d 3e c0 0c 01 3f 9b 4c de 3e 62 28 93 be
       0.27564958 0.5041008 0.4341782 -0.28741747
000180 18 7b 98 be f3 2c 9f 3e 10 77 6b be fb c7 2b bf
       -0.29781413 0.3108898 -0.22994637 -0.6710202
000190 5d 31 02 bc 39 fc a0 3e 74 ea b6 3d 43 84 09 3d
       -0.007946339 0.3144243 0.08931437 0.0335734
0001a0 cf 87 31 bf 3c 82 1e bf f5 cb 3d 3e 94 08 e6 bd
       -0.6934785 -0.6191747 0.18534835 -0.11232105
0001b0 0c 54 37 be a1 8f d3 3e b0 68 1a bf f8 96 57 be
       -0.17903155 0.41320518 -0.6031599 -0.21053684
0001c0 8e a6 47 bc 1b b5 04 3d d7 0b 17 3f e4 8f e9 bd
       -0.012185706 0.032399278 0.5900244 -0.11404398
0001d0 9b d5 8a 3e ee de 3e be 64 b7 eb be 68 41 14 bf
       0.27116093 -0.18639728 -0.46038353 -0.579123
0001e0 f7 cc 07 bf 4d 95 0e 3f f3 c3 01 bf 0a be df bd
       -0.53047127 0.55696565 -0.5068962 -0.10924919
0001f0 2f 6d 0f 3f 56 6f 27 bf 75 14 fa 3e a1 3e 0b bd
       0.56025976 -0.6540426 0.48843732 -0.033995274

fc.weight f4 [1, 128]
000000 5e d9 4b 3d 14 04 a5 bd 05 7d 52 3f 75 93 9e 3d
       0.049767844 -0.080574185 0.82222015 0.07742969
000010 f4 4b cc 3d f0 ce 89 3d 5c 30 ba 3c 80 6a 5d 3a
       0.099754244 0.06728923 0.022728138 0.00084463507
000020 cb 59 92 3d 6e 21 6b 3d 34 3f ec 3c 76 87 32 3c
       0.07146033 0.057404928 0.028838731 0.010896554
000030 5f a9 f5 3d 25 bd 35 3e 07 84 13 3e 58 e1 26 3c
       0.119951956 0.17747934 0.14405833 0.010185562
000040 6d 9e 23 bd 37 01 e4 3c 74 85 20 3e c6 e9 53 bd
       -0.03994601 0.02783261 0.15675908 -0.051736616
000050 f2 35 69 3d 77 5b b2 3d e9 8d e3 3c ae f6 20 bf
       0.056936212 0.08708852 0.027777629 -0.62876403
000060 a8 74 1d 3e 4a be d5 bc 6a 00 6e bd 76 f9 64 3d
       0.15376532 -0.026091713 -0.058105864 0.055901967
000070 c0 16 49 3f 7a f7 1f 3e 13 2b 7f bf 9a 83 15 3d
       0.7855034 0.15621749 -0.996751 0.03650246
000080 4e b0 00 3e bf 2e 1e 3e e0 b5 b7 3b 58 3a 4b 3e
       0.12567255 0.1544752 0.005606398 0.19846475
000090 8c 7d 6f 3e 9d 17 f9 3b 1d 93 d6 3e f8 e1 6f bc
       0.23387736 0.007601692 0.41909114 -0.0146412775
0000a0 3c e1 31 40 b7 23 40 3e 61 e1 14 3e 5c 94 eb 3d
       2.7793722 0.18763624 0.145391 0.11502907
0000b0 a8 40 15 3e e7 ae a8 3d 75 5a 68 3c 4d 95 ca 3d
       0.14575446 0.08236485 0.014181723 0.09891758
0000c0 a0 b9 1f bb ce 8a 02 bd 37 0d 26 3e 5b 1a a1 3d
       -0.0024372116 -0.031870656 0.16215979 0.07866355
0000d0 88 75 e3 3c 85 2e 36 3e 05 b4 74 3d c7 42 d5 3d
       0.027766004 0.17791183 0.059741993 0.104131274
0000e0 50 34 01 3d a9 68 22 3e 0c f1 8a 3d 8b ad 8e 3d
       0.03154403 0.15860237 0.06784257 0.069666944
0000f0 73 6c c1 3d 3a a9 1a 3d fa 1b 21 3e 2d f8 02 3e
       0.09444513 0.037759043 0.15733328 0.12789984
000100 79 c1 b3 3d 9a 56 3f 3d 2f 49 55 3d c4 84 a7 3c
       0.08777136 0.04671345 0.052071746 0.02044905
000110 3d b3 9a bd 71 2f a6 3d 3b 74 9d bd db ff 96 3d
       -0.07553718 0.081145175 -0.07688185 0.07373019
000120 76 eb 70 3d b6 43 f4 3d 2c ae 5f 3d d4 ca 2d 3e
       0.058818303 0.11926977 0.054609463 0.16971904
000130 42 47 4a 3d e9 01 93 3d fe 77 ef 3d 73 6d 9e 3d
       0.049384363 0.07178099 0.116928086 0.077357195
000140 d5 a5 a1 3d 4b 16 f8 3d 21 2f de 3d b6 8d 30 3e
       0.07892958 0.12113627 0.10848833 0.17241558
000150 70 dd e0 3c 2c c2 d0 3d 2d f5 0e 3e 70 55 23 bc
       0.02744934 0.10193285 0.13960715 -0.0099691
000160 e0 76 a1 3d 51 99 8a 3d 22 f7 06 3e 93 c7 90 3c
       0.07884002 0.06767524 0.13180211 0.01767329
000170 a6 48 c8 3d 11 e6 fb 3d d4 81 3b 3e f2 24 21 3d
       0.097794816 0.12299741 0.18311244 0.039341874
000180 1d 04 9e 3e d1 2a 02 3e ac 1f b0 3c 44 be 16 bd
       0.30862513 0.12711646 0.021499477 -0.036802545
000190 3c 3e 41 3d 10 b4 d5 3c b7 20 ce 3c 31 e8 ab 3d
       0.047178492 0.026086837 0.025162084 0.08393896
0001a0 a0 b0 0a 3d c0 4f ff 3c fb 1d c5 3b 11 a0 fb 3d
       0.03385985 0.031165957 0.006015537 0.122863896
0001b0 28 e0 4b bc 6b c0 fa 3d 9e 51 33 3d 7e 78 50 3d
       -0.01244358 0.12243732 0.043779008 0.05089616
0001c0 4d 9d de 3c 29 a3 84 3f 14 88 11 3e 2c 8f 15 3d
       0.027174616 1.0362293 0.14212066 0.036513492
0001d0 bf ef 32 3e b5 ba 8a bf d2 1b cb bd 41 ae a2 bc
       0.17474268 -1.0838228 -0.09917416 -0.019858481
0001e0 0e a2 9a be f5 38 2f 3e ee a8 51 bd 89 98 09 3e
       -0.30201763 0.17111571 -0.051186495 0.13437094
0001f0 08 6a c3 3d 70 53 01 bc 61 1d 41 3e ae 67 31 3f
       0.09541708 -0.007893428 0.18858863 0.6929883
