output/models/best-model-8.pt (torch, 4687 bytes, 7 tensors)

lstm.weight_ih_l0 f4 [8, 5]
0	0xbf9bf164	-1.2183042
1	0xbf0e5752	-0.5560199
2	0xbf73eda4	-0.95284486
3	0xbe2bd6bd	-0.16781135
4	0x3f7b4627	0.9815392
5	0xbfaab5d2	-1.3336737
6	0xbe50609d	-0.20349355
7	0xbf4cbc9e	-0.79975307
8	0x3f9163d8	1.1358595
9	0x3fc8d998	1.5691404
10	0x3ec51c96	0.38498372
11	0xbe64ecd0	-0.22355962
12	0x3f329f97	0.69774765
13	0x3ea1e93e	0.31623262
14	0xbed0d490	-0.40787172
15	0x3f07abab	0.5299632
16	0xbd5b85c0	-0.05359435
17	0x3e7b7908	0.24557889
18	0x3f0a0159	0.53908306
19	0xbf040514	-0.5157025
20	0xbe04d342	-0.12971213
21	0x3f04fb42	0.5194589
22	0xbe895643	-0.26823625
23	0x3d44a805	0.0480118
24	0x3e52205b	0.20520155
25	0xbebc80f9	-0.36817148
26	0x3e8c2219	0.27369764
27	0xbed67c36	-0.4189164
28	0xbe0103cb	-0.12599103
29	0xbe9ac720	-0.30230045
30	0x3e171eeb	0.14757888
31	0x3d85ebb3	0.06539097
32	0xbe9d3c14	-0.30709898
33	0xbf14bd7d	-0.58101636
34	0xbde597f5	-0.11210624
35	0xbf2f9491	-0.6858607
36	0xbf3d3541	-0.73909384
37	0x3f900b74	1.1253495
38	0x3f633742	0.8875619
39	0xbfa6510b	-1.2993482

lstm.weight_hh_l0 f4 [8, 2]
0	0x3ec52e66	0.38511962
1	0xbd8e7090	-0.06955063
2	0xbf000440	-0.50006485
3	0xbd9e0640	-0.07716036
4	0xbe6c96a8	-0.23104346
5	0x3f0362f5	0.5132287
6	0xbf07cbfe	-0.5304564
7	0x3ed97eee	0.42479652
8	0x3e375248	0.17902482
9	0x3eaa652a	0.33280307
10	0x3d1adf50	0.037810624
11	0xbef0cfa0	-0.47033405
12	0x3f28841d	0.6582659
13	0x3c5ca740	0.01346761
14	0xbf08dcc0	-0.5346184
15	0xbe3e51a0	-0.18585825

lstm.bias_ih_l0 f4 [8]
0	0xbf99aee1	-1.2006494
1	0xbf724bd3	-0.9464695
2	0x3ebe8b12	0.37215477
3	0xbf2a8263	-0.66605204
4	0xbf2ee1ba	-0.6831318
5	0xbf115d02	-0.56782544
6	0xbdfddb2f	-0.123953216
7	0xbf35328e	-0.70780265

lstm.bias_hh_l0 f4 [8]
0	0xbef3e959	-0.47638968
1	0xbe84e720	-0.25957584
2	0xbf00df28	-0.5034051
3	0x3f11cdf7	0.569549
4	0xbf436545	-0.763264
5	0xbfad9d55	-1.3563639
6	0xbfb90fd2	-1.4457953
7	0xbf17a7be	-0.5924033

fc_1.weight f4 [128, 2]
0	0xbeaf492b	-0.3423551
1	0xbf79372e	-0.9734982
2	0xbf60aa62	-0.87759984
3	0xbf191aa8	-0.598063
4	0x3d5a0ff0	0.053237855
5	0x3e24b7a0	0.16085672
6	0x3edf6a00	0.4363556
7	0xbdebe64d	-0.11518536
8	0x3b708100	0.0036697984
9	0xbda9fbe0	-0.082999945
10	0x3e0799f4	0.13242322
11	0xbf1df57e	-0.61702716
12	0x3efa1d14	0.4885031
13	0x3e957bd3	0.29196033
14	0xbeda8bbb	-0.4268473
15	0xbf561991	-0.8363276
16	0xbeeb04f2	-0.4590221
17	0x3b0bd577	0.0021336952
18	0xbec0193a	-0.37519246
19	0xbf4d9e16	-0.80319345
20	0xbeaae621	-0.333787
21	0xbf292e86	-0.66086614
22	0xbf2d1f70	-0.67626095
23	0xbd890902	-0.06691171
24	0x3d9e19f1	0.07719792
25	0xbc82d710	-0.01597169
26	0xbfa802ac	-1.3125815
27	0xbf794660	-0.9737301
28	0xbf936209	-1.1514293
29	0xbf9006a0	-1.1252022
30	0xbdf9afa7	-0.12191706
31	0xbd41d9fa	-0.04732702
32	0xbf8e3cdd	-1.1112324
33	0xbfbb8d69	-1.465253
34	0xbf8ac2be	-1.0840681
35	0xbf3a8758	-0.7286277
36	0x3f182c7b	0.5944287
37	0xbd567ab0	-0.052363098
38	0xbf351c95	-0.7074674
39	0xbf1686ea	-0.5879961
40	0xbeead71f	-0.4586725
41	0xbf83cfa8	-1.0297747
42	0xbf652af9	-0.89518696
43	0xbdb10a86	-0.08644585
44	0xbed805b8	-0.42191863
45	0xbeea8659	-0.45805624
46	0xbe2db240	-0.16962528
47	0xbf0628e9	-0.52406174
48	0xbe0583f3	-0.13038616
49	0x3c799547	0.015233344
50	0xbf687ef2	-0.90818703
51	0xbeeceff7	-0.4627683
52	0xbde5bb49	-0.112173624
53	0x3da0e0d8	0.078553855
54	0x3dbbb338	0.09165043
55	0xbf21b12c	-0.6316097
56	0x3d9a6d33	0.07540359
57	0x3e36cf1b	0.17852442
58	0x3d50bad0	0.05095941
59	0x3f009d27	0.50239795
60	0x3df57bd8	0.11986512
61	0x3e82a2f0	0.25514936
62	0x3f3cbd00	0.7372589
63	0xbdd61a7c	-0.1045427
64	0x3d752280	0.059847355
65	0x3f10666f	0.564063
66	0xbe95ee1f	-0.29283234
67	0xbf9e15c4	-1.2350392
68	0xbf10d8b7	-0.5658068
69	0xbfa3916b	-1.2778753
70	0x3f3171c7	0.69314235
71	0xbeae1c3c	-0.34005916
72	0x3e43be5c	0.19115585
73	0xbf8e42da	-1.1114151
74	0xbda7eb3d	-0.08199165
75	0xbf9fc05d	-1.248058
76	0x3f680749	0.90636116
77	0x3e1c46f7	0.15261446
78	0xbfad3384	-1.3531346
79	0xbeb56a85	-0.3543283
80	0xbe8699f4	-0.26289332
81	0x3f203591	0.62581736
82	0xbdc9f6a4	-0.09861496
83	0xbfa06bc4	-1.2532887
84	0x3e9e3823	0.30902204
85	0xbeb77264	-0.3582946
86	0xbef7c4f1	-0.48392442
87	0xbee2de9d	-0.44310465
88	0x3e06659c	0.13124698
89	0x3f344b53	0.70427436
90	0x3f732d0f	0.9499063
91	0xbf4c60fb	-0.7983548
92	0xbf1de6a5	-0.6168006
93	0xbe3a8e03	-0.18218236
94	0xbf4c1ada	-0.7972847
95	0xbe713de3	-0.23558764
96	0xbef6714b	-0.4813331
97	0x3dc6fc80	0.09716129
98	0x3cf8b24b	0.030358454
99	0xbf547382	-0.8298875
100	0xbf1aa90d	-0.604142
101	0x3d9a5085	0.07534889
102	0xbf84486c	-1.0334601
103	0xbf01a609	-0.50643975
104	0x3eea169e	0.4572038
105	0x3ecc2402	0.39871222
106	0xbe27a014	-0.16369659
107	0xbf302063	-0.6879942
108	0xbecffc6a	-0.40622264
109	0xbd9a3006	-0.07528691
110	0xbdd6b2f8	-0.10483354
111	0xbe9d22c0	-0.30690575
112	0xbdcd6600	-0.100292206
113	0xbd620dd0	-0.055188954
114	0xbcc56403	-0.02409554
115	0xbf812aff	-1.0091246
116	0x3f20b26b	0.62772244
117	0x3e13fc44	0.144517
118	0xbe95f74a	-0.2929023
119	0x3c9f07a0	0.019412816
120	0xbf09b210	-0.53787327
121	0xbe92ece6	-0.28696364
122	0xbe7b4d43	-0.24541192
123	0xbdfc8168	-0.1232937
124	0x3f0c4470	0.5479193
125	0x3eb31fc5	0.34985176
126	0xbef3c376	-0.47610062
127	0xbf6dd35f	-0.9290065
128	0x3eed23fe	0.46316522
129	0xbde16e28	-0.11007339
130	0x3f3c7b16	0.73625314
131	0xbf85eb0b	-1.0462354
132	0x3ec528f6	0.38507813
133	0x3f2c1e19	0.67233425
134	0xbed7e40d	-0.42166176
135	0xbecd413a	-0.40088826
136	0xbdbae559	-0.09125776
137	0xbe3c3249	-0.18378557
138	0xbea4dd29	-0.32199982
139	0xbf1a6230	-0.6030607
140	0xbf178ff6	-0.5920404
141	0x3ee6f00e	0.45105022
142	0xbba51080	-0.0050373673
143	0x3e0f8128	0.14014113
144	0x3dcd19e0	0.10014701
145	0x3f115e53	0.5678455
146	0xbf267708	-0.6502538
147	0x3e9a100a	0.30090362
148	0x3eddcf52	0.43322235
149	0x3de2c9a0	0.11073613
150	0xbf330978	-0.69936323
151	0xbeec3fba	-0.4614237
152	0x3c2d60a2	0.010582121
153	0xbf587716	-0.8455671
154	0x3f1d9611	0.6155711
155	0xbd0fb611	-0.03508574
156	0x3e320099	0.1738304
157	0xbf1e8736	-0.61925066
158	0xbf158a10	-0.5841379
159	0x3ce44c9b	0.02786856
160	0x3dc42f48	0.09579331
161	0x3e27960c	0.16365832
162	0x3ee87686	0.45402926
163	0xbe05e3b4	-0.13075143
164	0x3f498dac	0.787318
165	0x3ccb71bd	0.024834508
166	0xbe1633f4	-0.14668256
167	0xbf0d2a0c	-0.55142283
168	0xbee95122	-0.45569712
169	0x3e216cc8	0.15764153
170	0x3f6b7521	0.919756
171	0xbe58c0c9	-0.21167292
172	0x3d847df8	0.06469339
173	0xbf7611ec	-0.96121097
174	0xbefa5ca5	-0.48898807
175	0x3e519fc0	0.20471096
176	0xbdb375c8	-0.08762699
177	0x3e19fd24	0.15037972
178	0x3f4fdeea	0.81199515
179	0x3d1fc629	0.03900734
180	0xbf4a6228	-0.79056025
181	0xbf64a37e	-0.8931197
182	0xbea14552	-0.314982
183	0xbf573aa1	-0.84073836
184	0xbf1dbf9e	-0.6162051
185	0xbe485729	-0.19564499
186	0x3e98cb9f	0.2984285
187	0xbcb6a509	-0.022295492
188	0x3ec99bde	0.3937673
189	0xbeb72c9a	-0.35776216
190	0xbeae3323	-0.3402339
191	0x3e44c4c8	0.19215691
192	0x3f064e97	0.5246367
193	0xbf011124	-0.5041678
194	0x3ee36f52	0.44420868
195	0xbecea74f	-0.4036202
196	0x3ee9c69f	0.45659348
197	0xbf95e261	-1.170971
198	0xbf5128cb	-0.8170287
199	0xbf90655a	-1.128093
200	0xbe9d9151	-0.3077493
201	0xbf0d7abc	-0.552654
202	0xbeab6f07	-0.33483145
203	0xbf7bcd71	-0.98360354
204	0xbe686645	-0.22695263
205	0xbf8e4f9a	-1.1118042
206	0x3f067f2d	0.52537805
207	0x3df68720	0.12037492
208	0x3d885347	0.06656509
209	0xbef6e015	-0.48217836
210	0xbe687cd6	-0.22703871
211	0xbeaa145b	-0.33218655
212	0x3edfb998	0.43696284
213	0xbd1af118	-0.03782758
214	0xbf7a07d4	-0.97668195
215	0xbfd8d125	-1.6938826
216	0x3f38bff7	0.72167915
217	0xbf653f06	-0.8954929
218	0xbf667470	-0.9002142
219	0xbf8331b1	-1.024954
220	0x3ea3b982	0.3197747
221	0x3e47bd8c	0.195059
222	0xbbc33e80	-0.0059583783
223	0x3e4746b0	0.19460559
224	0xbdb21b72	-0.08696641
225	0xbeb49276	-0.3526799
226	0xbf906440	-1.1280594
227	0xbf89d98e	-1.0769517
228	0xbe0b817d	-0.13623615
229	0xbf4ae995	-0.7926267
230	0xbf4044bf	-0.751049
231	0xbe75f480	-0.2401905
232	0x3e362f10	0.1779139
233	0xbec1dd82	-0.3786431
234	0x3f1e2509	0.6177526
235	0x3f105405	0.56378204
236	0xbeca587c	-0.39520633
237	0xbf19988e	-0.59998405
238	0xbe70f564	-0.23531109
239	0xbf0fadc1	-0.561245
240	0xbe8cecd7	-0.27524444
241	0xbe599f70	-0.21252227
242	0xbee171f4	-0.44032252
243	0xbf1768fc	-0.5914457
244	0xbe3255e8	-0.17415583
245	0x3e9393cc	0.28823698
246	0x3f2440c1	0.64161307
247	0x3f163d91	0.5868769
248	0xbc257480	-0.010098577
249	0x3da8a808	0.082351744
250	0x3f305821	0.68884474
251	0xbe84f5ef	-0.25968882
252	0xbee4bce5	-0.44675365
253	0xbf14b50f	-0.58088773
254	0xbd4cd4a0	-0.050007463
255	0xbf00024d	-0.5000351

fc_1.bias f4 [128]
0	0xbedee446	-0.43533534
1	0xbf381446	-0.71905935
2	0xbf236852	-0.63831055
3	0xbb2eacb6	-0.0026653237
4	0xbe0e03d0	-0.13868642
5	0xbe4d5848	-0.20053208
6	0xbe7d3b46	-0.24729642
7	0xbeaf6a8a	-0.3426097
8	0xb6b045c2	-5.2533296e-06
9	0xb9c4e518	-0.0003755472
10	0xbee172b0	-0.44032812
11	0xbf4707f7	-0.7774653
12	0xbf3dc36c	-0.74126315
13	0xbcbec9b1	-0.023289533
14	0xbf0f2856	-0.5592092
15	0xb8ccdefc	-9.769012e-05
16	0xbf35e7a0	-0.71056557
17	0xb8a8c735	-8.0479695e-05
18	0xbf06ae44	-0.5260966
19	0xbf3aa384	-0.72905755
20	0xbf233f2a	-0.63768256
21	0xbf0e2985	-0.55532104
22	0xb8a2e78f	-7.767893e-05
23	0xba703fa2	-0.00091647555
24	0xb9626d0c	-0.00021593663
25	0xbf28ca2c	-0.6593349
26	0xbf15c731	-0.58507067
27	0xbee8dcf2	-0.45481068
28	0xb92ce626	-0.00016488935
29	0xbf26b932	-0.65126336
30	0xbf33aa64	-0.7018187
31	0xbe961d17	-0.2931907
32	0xbebd01ac	-0.36915338
33	0xbf189888	-0.59607744
34	0xbf0f3562	-0.5594083
35	0x3f5c294a	0.860005
36	0xbd8a1e9b	-0.06744119
37	0xbf36321a	-0.711702
38	0xbc287a88	-0.01028312
39	0xbae3da2a	-0.0017383744
40	0xbeeed794	-0.46648848
41	0xbf01b5b1	-0.50667864
42	0xbae13fda	-0.0017185167
43	0xbed23e0b	-0.4106296
44	0xbf254bed	-0.6456898
45	0xb7b5bd09	-2.1664908e-05
46	0xbf21f989	-0.63271385
47	0xb9eabfdb	-0.00044774901
48	0xbe7c0b40	-0.24613667
49	0xbf026d8a	-0.50948393
50	0xb80330d4	-3.127831e-05
51	0xbf1e040f	-0.6172494
52	0xbead1d66	-0.33811492
53	0xbf25e9d4	-0.6480992
54	0xbf4acdb2	-0.79220116
55	0xbf2e1d04	-0.68013024
56	0xbcdbd460	-0.026834667
57	0xbf0e089a	-0.55481875
58	0xbeacf224	-0.3377849
59	0xbe893505	-0.26798263
60	0xbdbc71a8	-0.09201366
61	0xbf3e3291	-0.7429591
62	0xb9602687	-0.00021376657
63	0xb88f79a2	-6.841427e-05
64	0xbf26c818	-0.6514907
65	0xbeec0f9b	-0.46105656
66	0xbf10c822	-0.5655538
67	0xb88d21c4	-6.729693e-05
68	0xba09916b	-0.0005247804
69	0xbe95119a	-0.2911499
70	0xbe52f580	-0.20601463
71	0xbf250039	-0.64453465
72	0xbec3de1a	-0.38255388
73	0xbe9bb934	-0.30414736
74	0xbed20154	-0.41016638
75	0xbe1a3550	-0.150594
76	0xb7f3bbe9	-2.905536e-05
77	0xb7ad682d	-2.0671718e-05
78	0x3d9b0588	0.075694144
79	0xbb7d2da9	-0.0038631952
80	0xbe555920	-0.2083478
81	0xbeb15bb6	-0.34640282
82	0xbe879495	-0.26480547
83	0xbeabf29d	-0.33583537
84	0xbe116330	-0.14197993
85	0x3e8cfc81	0.27536395
86	0xbb2e5795	-0.0026602496
87	0xbec15f98	-0.37768245
88	0xbebf4f74	-0.37365305
89	0xbc91a13c	-0.017777078
90	0xbede0734	-0.4336487
91	0xbef1a12f	-0.47193286
92	0xbeec81fb	-0.46192917
93	0xbb394afb	-0.0028273452
94	0xbf32de62	-0.6987058
95	0xbef67c82	-0.48141867
96	0xbeee60f0	-0.46558332
97	0xbeb75494	-0.35806715
98	0xbef8d555	-0.4860026
99	0xb9261576	-0.00015838988
100	0xbf45381e	-0.77038753
101	0xbedd0720	-0.43169498
102	0xb99130f0	-0.00027693016
103	0xbf2b36e4	-0.6688063
104	0xbf1cf2d5	-0.6130803
105	0xbf0d64e8	-0.55232096
106	0xbb911239	-0.004427221
107	0xb9bc1d6e	-0.0003588008
108	0xbccedd8c	-0.025252126
109	0xbf2d9685	-0.678078
110	0xbedce738	-0.43145156
111	0xbf091810	-0.5355234
112	0xba5da8a3	-0.000845561
113	0xbf39d417	-0.7258925
114	0xb90ac9ae	-0.00013235837
115	0xba9fe022	-0.0012197534
116	0xb9316a84	-0.00016919716
117	0xbf07e548	-0.5308423
118	0xb7088bbb	-8.138765e-06
119	0xbf12bcf4	-0.5731957
120	0xbe368f78	-0.17828166
121	0xbd9fe128	-0.07806617
122	0xbeab1e2c	-0.33421457
123	0xbf304bd9	-0.68865734
124	0xbefdd008	-0.49572778
125	0xbf0bc2be	-0.5459403
126	0xba2a4962	-0.000649592
127	0xbef0ef5b	-0.47057614

fc.weight f4 [1, 128]
0	0x3e81850b	0.25296816
1	0x3e8e5770	0.27801085
2	0xbc5eaf40	-0.013591588
3	0x3992f02b	0.0002802623
4	0x3cb27d60	0.0217883
5	0x3c7401a0	0.014892966
6	0xbe8d6ca1	-0.2762194
7	0x3f157788	0.58385515
8	0xb68ae8e2	-4.1398316e-06
9	0xb9944b73	-0.00028284974
10	0xbec77e50	-0.38963556
11	0x3f0a5d27	0.5404839
12	0x3f05b9e6	0.52236784
13	0x3bc39adf	0.00596939
14	0x3f147cbe	0.5800284
15	0xb89b3369	-7.400552e-05
16	0x3e96fd51	0.2949014
17	0xb85f84b6	-5.329094e-05
18	0xbd92a73a	-0.07160802
19	0x3ede2ea1	0.4339495
20	0x3f0ab5c2	0.5418359
21	0x3f0703fe	0.52740467
22	0xb8c44e84	-9.360633e-05
23	0x39b5ea09	0.0003469738
24	0xb92ba8c5	-0.00016370702
25	0x3f0b3624	0.5437949
26	0xbeba3e92	-0.36375862
27	0xbd7e5232	-0.062090106
28	0xb9046eb3	-0.0001262974
29	0xbd98453c	-0.074350804
30	0x3a9f3600	0.001214683
31	0xbe8c1b02	-0.27364355
32	0x3b9a7e50	0.0047147647
33	0x3f02bda1	0.510706
34	0x3f10f365	0.5662139
35	0x3f3d7d53	0.74019355
36	0xbc5b9deb	-0.01340435
37	0x3f148c99	0.58027035
38	0xbcbed618	-0.023295447
39	0x3988cae5	0.0002609111
40	0xbc12bc48	-0.008956023
41	0x3f1106f9	0.56651264
42	0x3ac8c85f	0.0015318504
43	0x3e3e8684	0.18606001
44	0xbd82ad5a	-0.063807204
45	0xb78ac039	-1.6540393e-05
46	0x3f03f824	0.5155051
47	0xb9a6f74c	-0.00031846238
48	0xbd678d1d	-0.05653106
49	0x3f10d877	0.565803
50	0xb7a14904	-1.9226696e-05
51	0x3e86ea97	0.26350853
52	0x3d611b0e	0.054957442
53	0x3f0c84e8	0.548903
54	0x3f0770ae	0.5290631
55	0xbccf0a4c	-0.025273465
56	0xbcd395dc	-0.025828294
57	0x3f09854b	0.53719014
58	0x3da83ffd	0.0821533
59	0xbd734115	-0.05938824
60	0x3d35ee5e	0.044416778
61	0x3f0ec9e1	0.5577679
62	0xb93dd527	-0.0001810385
63	0xb85775d4	-5.136973e-05
64	0xbd803d99	-0.06261749
65	0x3d483c8d	0.04888587
66	0xbd6e8ed2	-0.058241673
67	0xb83dd0a0	-4.525541e-05
68	0xb9d5c8d5	-0.00040776157
69	0x3d5e2cde	0.054242007
70	0x3ce7e914	0.028309382
71	0x3d823b23	0.06358936
72	0x3d018b88	0.031627208
73	0xbe923878	-0.28558707
74	0xbb55e7c0	-0.0032639354
75	0x3d99cb41	0.07509471
76	0xb77b45f8	-1.4977057e-05
77	0xb78d97ba	-1.6879163e-05
78	0x3d899d2d	0.06719432
79	0x3b609662	0.0034269323
80	0xbc937738	-0.018001184
81	0x3d7ec79e	0.06220209
82	0xbe78002a	-0.24218813
83	0x3cc9862c	0.024600111
84	0x3c1f9160	0.00973925
85	0x3e7bac4d	0.24577446
86	0x39e3ec1f	0.00043472738
87	0x3d8a0003	0.067382835
88	0x3d296252	0.04135353
89	0xbcdf5dd9	-0.02726643
90	0xbec1ed92	-0.37876564
91	0x3f105c3d	0.56390744
92	0xbee31d66	-0.44358367
93	0x39f600a9	0.00046921268
94	0xbd6ab66c	-0.057302877
95	0xbd1c610c	-0.03817849
96	0xbbf7b810	-0.0075597838
97	0xbdac0491	-0.083993085
98	0xbe8b69b3	-0.2722908
99	0xb90cefb2	-0.00013440734
100	0x3ed57910	0.41693926
101	0x3f0c9677	0.5491709
102	0xb9437b02	-0.00018642473
103	0x3d87995d	0.066210486
104	0x3f0ee5e8	0.5581956
105	0x3f05ab02	0.5221406
106	0x3ba9767d	0.0051715956
107	0x3b1b8e71	0.0023736025
108	0xbc051db8	-0.008124761
109	0x3eda4676	0.42631882
110	0x3d8018a1	0.062546976
111	0x3cc92590	0.024554044
112	0x3a5649d1	0.00081744517
113	0x3eb85cde	0.36008352
114	0xb708558c	-8.12615e-06
115	0x3a5249a5	0.0008021838
116	0x36e5b1ac	6.8454156e-06
117	0x3ce1a7a4	0.027545758
118	0xb6aeffa6	-5.2153655e-06
119	0x3da93163	0.08261373
120	0xbd8c14b4	-0.06839886
121	0x3bbc2dc0	0.0057427585
122	0x3db4e109	0.088319845
123	0xbcd0ccd4	-0.025488295
124	0xbd7299ce	-0.05922871
125	0x3d8716f7	0.06596177
126	0xb9dc7a3b	-0.0004205274
127	0xbd816aeb	-0.06319221
