backups/2022-06-03/best-model-1.pt (torch, 4687 bytes, 7 tensors)

lstm.weight_ih_l0 f4 [8, 6]
000000 ff b7 5e 3e b3 12 18 be bb 31 80 bf 31 fa ab 3f
       0.21749876 -0.14850883 -1.0015177 1.3435727
000010 40 fc 76 be de 83 7e bc a6 81 f6 bd 27 cf c2 bd
       -0.24119663 -0.015534369 -0.12036447 -0.095121674
000020 ce b8 df 3d 42 cc 10 3f 16 25 94 3f 3b 0a a5 be
       0.109239206 0.5656167 1.1573818 -0.32234368
000030 64 9d 10 bf e0 8c 7a 3d 6d b7 1c bf 9c f4 03 be
       -0.5649016 0.061169505 -0.61217386 -0.1288628
000040 46 95 9d 3e ac a6 7d 3e 69 b3 86 be 44 2f 29 3e
       0.3077795 0.24770612 -0.26308754 0.16521937
000050 e2 94 ee 3e 76 28 fd 3e 18 26 c7 bd ef 40 b5 be
       0.46597964 0.49444932 -0.09724063 -0.35401103
000060 d1 c5 5e 3f 9c 60 e4 3d ee a7 38 bf bf 21 03 3f
       0.87020594 0.11151239 -0.7213124 0.5122337
000070 34 20 60 3f bb d4 bd 3e 54 29 81 3e 6e e6 4a 3b
       0.8754914 0.37076363 0.25226843 0.00309601
000080 c6 8d 86 be f8 dc 1c bf a9 14 23 3f c4 31 0b 3e
       -0.2628004 -0.6127467 0.637034 0.13593203
000090 0e 12 3c bf 8e a8 82 be ae 93 e8 3e 5c f5 86 3f
       -0.7346505 -0.25519222 0.4542517 1.0543628
0000a0 08 ca 8a 3e 82 33 af be d6 2e 7b be 9d 74 04 3e
       0.27107263 -0.34218985 -0.24529585 0.1293511
0000b0 33 d9 ba 3e 62 6d 70 bf 79 0f de 3e 92 76 bb 3d
       0.36493835 -0.93916905 0.4337118 0.09153475

lstm.weight_hh_l0 f4 [8, 2]
000000 e0 2e a2 bc 17 ec 0d bf 73 a1 27 3f 5c 1c 01 bf
       -0.019797742 -0.5543837 0.65480727 -0.504339
000010 e2 f7 fa 3e 48 5c 3d 3e c6 53 e9 be 14 6d 59 be
       0.49017245 0.18492234 -0.45571727 -0.21233016
000020 05 c0 1e 3f 60 9e 02 bd a5 5f 26 3f 49 f9 1b 3f
       0.6201175 -0.03188932 0.6498969 0.60927254
000030 c0 5d 2f 3d 48 f3 c5 bd a6 17 08 bf ef a7 21 3f
       0.042814016 -0.09665543 -0.53161085 0.6314687

lstm.bias_ih_l0 f4 [8]
000000 d8 35 d9 be c8 fa d4 be 1c d6 e1 be fc 12 82 be
       -0.42423892 -0.4159758 -0.44108665 -0.2540511
000010 b0 2a 4d bc 2a 6b 52 3f 06 7c 9e be d5 95 b6 bd
       -0.0125223845 0.8219477 -0.30953997 -0.08915297

lstm.bias_hh_l0 f4 [8]
000000 d5 60 83 3e ac d3 67 3f 7a b6 b4 3e 68 7f 93 3d
       0.25659814 0.9055736 0.3529547 0.07202035
000010 e3 db 04 3e a2 e4 cc 3d 6c 2e 25 be 80 46 37 3d
       0.12974505 0.10004546 -0.1613099 0.04474497

fc_1.weight f4 [128, 2]
000000 3b 48 2a 3f 75 2b fa 3e 10 ec bc 3d 44 d7 04 3e
       0.66516465 0.4886128 0.09224713 0.12972742
000010 65 79 5f 3d f9 f3 f3 bd 8c ca 67 be 59 1f d6 be
       0.05455913 -0.119117685 -0.22635859 -0.4182079
000020 0e 4c 1a 3f 7b 32 34 3f 3f 50 08 bf 71 25 7d 3e
       0.602723 0.7038953 -0.53247446 0.24721314
000030 84 38 5e bf ed b1 cd be f0 6a b8 be 04 bf d5 3e
       -0.86804986 -0.4017481 -0.36019087 0.41747296
000040 d6 9a d2 3e 49 4c b8 3e c6 76 d0 bd 90 21 42 3f
       0.41133755 0.359957 -0.10178904 0.7583246
000050 31 a5 69 3e 38 ae 92 be 9a 6d db be ba 6e ac 3e
       0.22816922 -0.28648543 -0.42857057 0.33678228
000060 4e 96 58 3e 5b a4 80 bd 41 19 c3 3e f6 8d e6 be
       0.21151087 -0.06281348 0.38105205 -0.45030183
000070 78 ef ff 3e dd 10 40 3f 44 0b 0d bf e0 e5 ab bd
       0.49987388 0.7502573 -0.55095315 -0.083934546
000080 1a 08 13 be f4 c7 21 3d bc e8 ea be 3c fb 69 3e
       -0.14358559 0.03949733 -0.45880687 0.22849745
000090 d6 6f e5 be cd ad d8 3e fd 85 18 3f 28 4a fc be
       -0.44811887 0.423201 0.5957945 -0.49275327
0000a0 b4 38 cc 3e d5 c5 5e bb 48 81 ed 3d 25 af 02 3f
       0.3988701 -0.0033992429 0.11596924 0.510485
0000b0 4e 18 37 bf 56 9e 0a 3e 77 bc 2e bf 25 da 77 3e
       -0.7152146 0.13536963 -0.68256325 0.2420431
0000c0 db b1 90 be 9e b6 88 3e 87 8d cd 3e 73 38 3f be
       -0.28260693 0.26701826 0.4014704 -0.18673877
0000d0 8f 89 1d bf 52 38 ce 3e e2 3c 84 be d5 35 7b be
       -0.6153802 0.40277344 -0.258277 -0.24532254
0000e0 bc 58 35 3f 48 0c 1a bf f3 22 75 3e fe 8d 11 3f
       0.7083852 -0.6017499 0.23939113 0.5685729
0000f0 f7 45 2d 3f d8 13 56 3e 07 ac 59 3f 16 d2 94 3e
       0.6768488 0.20906007 0.8502812 0.29066533
000100 d7 94 4e 3e c5 9e 19 3f de 94 81 3e 70 37 bb 3d
       0.20173965 0.6000789 0.2530889 0.09141433
000110 50 4b 4c 3e 93 95 94 be 69 a0 95 bd 4a c1 b9 be
       0.19950604 -0.29020366 -0.073059864 -0.3628028
000120 3c d8 5e 3f 95 d8 e7 3e 44 df f4 be 58 66 ff 3e
       0.870487 0.45282426 -0.47826588 0.4988277
000130 80 f3 19 bd 36 5a fb 3e 63 2c dc be 6b e3 7c be
       -0.037585735 0.49092263 -0.43002614 -0.24696128
000140 eb 33 34 3f c2 12 d9 be 20 88 e2 3c 38 79 9f 3d
       0.7039172 -0.42397124 0.0276528 0.077867925
000150 10 16 43 bc d0 1c 51 3f b8 4c f5 3e ca dc c8 bd
       -0.011907116 0.8168459 0.47910094 -0.09807737
000160 d9 bd 16 bf d8 23 0a 3e 18 be 25 3e b1 45 14 3f
       -0.58883435 0.13490236 0.16185796 0.5791884
000170 e9 49 24 bf d8 7a 40 be ac e4 3e 3f f1 bf e5 3e
       -0.6417528 -0.18796861 0.74567676 0.44873002
000180 a7 28 2e 3f f0 2a f6 3e 40 58 63 bd 91 fb c5 be
       0.6803078 0.48079634 -0.055504084 -0.38668492
000190 b2 20 9f 3e 58 96 61 3e ec 7e f4 3e 54 c3 f0 3e
       0.31079632 0.22030008 0.47753084 0.47024024
0001a0 7c b5 56 3e 36 32 0c bf e9 3a 0f 3f 27 1d a6 be
       0.20967668 -0.54764116 0.55949265 -0.32444116
0001b0 70 29 77 3e 15 be 52 3f 80 59 1b 3f 11 bf 98 bd
       0.24136901 0.8232129 0.6068344 -0.07458318
0001c0 a6 e0 8b 3e 76 89 6d be a6 fc b9 3e 30 a7 00 3f
       0.2731983 -0.23196968 0.36325568 0.5025511
0001d0 53 86 d1 3e 73 97 fa 3e ab fc e5 3e 8f 0f bd 3e
       0.40922794 0.48943672 0.44919333 0.36925933
0001e0 f7 aa 4b 3e 55 00 29 3f 7e 03 c6 3d 03 1e 07 bf
       0.19889437 0.6601613 0.09668635 -0.5278017
0001f0 e1 8c 21 bf d2 99 f4 be 48 76 79 3f 3c 7c 8f be
       -0.6310559 -0.47773606 0.9744611 -0.2802447
000200 e4 0a 02 3f 38 ae 3d 3e 82 b0 31 be 05 c5 93 be
       0.5079787 0.1852349 -0.17352489 -0.2886125
000210 ad c8 bb 3e 85 cf 5e be 22 39 d3 3e 78 17 b2 bd
       0.3667654 -0.2175885 0.41254526 -0.086958826
000220 1c 28 09 3e 60 fb e4 bd bc d5 e3 3e 23 de 2f 3f
       0.13394207 -0.111807585 0.44499004 0.6869833
000230 13 50 21 bf 7c c4 04 3e 1d e8 cd be ce 8f 5b 3e
       -0.6301281 0.12965578 -0.4021615 0.21441576
000240 2c 21 0f be e8 7f e3 3d b8 1e a3 be 42 40 df be
       -0.13977498 0.111083806 -0.31859374 -0.43603712
000250 00 49 c7 bb b8 b9 5f 3e 78 2f 52 3f 96 db bd be
       -0.0060817003 0.2184819 0.8210368 -0.37081593
000260 dd af 2a bf fc 05 4b 3e 2b f6 80 3e 55 c8 e2 3e
       -0.66674596 0.19826502 0.2518781 0.44293466
000270 35 8d 17 3f 01 3b 12 3f 44 88 31 be c0 15 d0 bc
       0.5919984 0.5712128 -0.17337137 -0.025400996
000280 3f 12 ee be cd 52 f7 3d 68 72 5c 3e 04 91 1e bf
       -0.46498296 0.1207634 0.21528018 -0.61940026
000290 6b bd 05 3f 9e 46 ae 3e 40 e7 2b bf f3 ee 18 bf
       0.52242154 0.34038252 -0.67149734 -0.5973961
0002a0 48 b3 dc bd 01 f9 2e 3f fc c4 9c bd 6e 1e 0d 3e
       -0.10776383 0.683487 -0.07654759 0.13781139
0002b0 64 04 50 be d3 c5 bb be 15 67 bc 3c 4b cc d0 be
       -0.20314175 -0.36674365 0.022998372 -0.40780863
0002c0 c2 b0 f0 3e bc 12 54 be 6e 26 08 bf ec e4 6c be
       0.47009856 -0.20710272 -0.5318364 -0.23134202
0002d0 5e 79 cf be 19 ae a1 3e c4 36 16 be 1a f6 f5 be
       -0.40522283 0.31578138 -0.14669329 -0.48039323
0002e0 0b 2e 80 3e d9 0f 11 be 18 b7 97 bd c2 de 0b 3f
       0.25035128 -0.14166202 -0.07407969 0.54636776
0002f0 ff 4e 17 3f ee 91 e4 bd 4f ed ac be 4f 0b ad 3d
       0.59104913 -0.111606464 -0.33774802 0.084494226
000300 d7 f7 d5 3d a4 73 c8 3e 00 20 2b ba b6 75 67 be
       0.10447662 0.39150727 -0.00065279007 -0.22603497
000310 e0 29 be 3c d3 50 32 bf d1 06 aa 3d a4 19 e7 be
       0.023213327 -0.6965458 0.083020814 -0.4513675
000320 ad 76 db 3e ad 3a 61 bf c4 49 2f be c6 ef c1 3e
       0.4286398 -0.8798016 -0.17117983 0.37878245
000330 59 5a ab 3d c2 a8 e1 be 19 96 b3 3e ff 94 8f bc
       0.08366842 -0.44074064 0.35075453 -0.017527102
000340 27 ca 33 bf 6b 65 d4 be 00 4b 68 3d 38 00 46 be
       -0.70230335 -0.41483626 0.05671215 -0.19336021
000350 66 cd 3b 3e 0c fc 78 be f4 f3 d7 3e f4 55 c8 3e
       0.18340072 -0.24314898 0.4217831 0.39128077
000360 8a 97 37 3e 38 ca 1e 3f d6 a8 7e be cf b6 36 3f
       0.17928901 0.6202731 -0.24869093 0.71372694
000370 46 6d 85 be 06 8b 97 be bd e9 54 3f 8e 14 01 bf
       -0.26059932 -0.29598254 0.83169156 -0.5042199
000380 8f e5 9a 3e de 40 12 bd f8 a3 7f be dc f8 4b 3e
       0.30253264 -0.035706393 -0.24964893 0.19919151
000390 8c d9 01 be 68 2e 31 bf dd 70 86 be 2e 50 14 bf
       -0.12680644 -0.69211435 -0.26257983 -0.57934844
0003a0 82 ce be 3e 5c 62 65 3e 13 1b d8 3e 1a f4 41 3f
       0.37266928 0.22400802 0.42208156 0.75763094
0003b0 40 5c 44 3d f4 24 6f 3e c8 de e1 bd 70 d9 b3 bd
       0.04793954 0.2335394 -0.1102882 -0.08781707
0003c0 08 1b 93 be 76 70 90 3e c0 ce e0 3d de e6 bc be
       -0.2873156 0.282108 0.109769344 -0.36894888
0003d0 98 36 98 3e 53 06 1e 3f 5c 72 84 3e 58 1f 2d 3f
       0.29729152 0.617284 0.258685 0.6762595
0003e0 e3 9d dc bd 94 9e b4 be 2c a0 92 bd c8 5a f7 be
       -0.10772302 -0.35277236 -0.071594566 -0.48311448
0003f0 bf c1 5c 3e d0 4a 71 3e 5a 2a f0 3f 31 3a b3 be
       0.21558283 0.23563695 1.8762925 -0.35005334

fc_1.bias f4 [128]
000000 2f 15 13 3f 17 6b a5 be 2f 97 ff 3e 18 e9 b2 be
       0.574542 -0.32308266 0.4992003 -0.3494346
000010 56 0e 17 3e 22 a0 18 be 44 16 86 3e de dd 0c be
       0.14751562 -0.14904836 0.26188862 -0.1375651
000020 9f 91 2e bd 65 07 02 3f 6b 4a 6c 3e 3e d7 ef be
       -0.042619344 0.50792533 0.23075263 -0.46843904
000030 11 df 8f bd 3d 5b 59 3e 04 2e c0 3c bc 9a 87 be
       -0.070249684 0.21226211 0.023459442 -0.2648524
000040 1f 04 90 3e 3e a9 d0 be 27 96 2d be ea c4 3f 3f
       0.28128144 -0.40754122 -0.1695181 0.7490984
000050 bf 8e d5 3e c8 78 20 bf fc 37 0f bd 48 37 f4 bd
       0.4171047 -0.626843 -0.0349655 -0.119246066
000060 61 7e f7 be 1a 5e c1 3d 96 a8 11 bf 16 2f f0 bc
       -0.48338607 0.094417766 -0.56897867 -0.029319327
000070 77 45 09 be e0 35 02 3e 18 9e d2 be 49 c3 f3 3e
       -0.13405405 0.12715864 -0.4113624 0.47609928
000080 c6 57 51 3e 84 7a 01 bf 78 90 be 3e 94 9e 7d 3e
       0.20443639 -0.5057757 0.37219596 0.24767524
000090 ec a2 c2 3e 99 4e cc 3e e7 c2 90 3e d6 aa 1c 3e
       0.38014925 0.39903715 0.282737 0.15299544
0000a0 45 85 2e bf 23 ae bb be 18 2b 21 3f 6c 70 45 3f
       -0.68172103 -0.36656293 0.6295638 0.7712467
0000b0 27 e6 bb bd 4f f7 1b bf a4 ab 3a be fb 05 1b 3f
       -0.091747575 -0.6092424 -0.18229538 0.60556
0000c0 24 c3 08 3f 1e d5 84 be f2 21 6b be 01 77 ea 3d
       0.5342276 -0.25943846 -0.22962168 0.114484794
0000d0 cc 29 0c be db 1e 17 3e 43 ae 05 3f 6a f2 b1 3d
       -0.13687819 0.14757864 0.5221903 0.08688815
0000e0 a5 72 a5 be be 9b 4e 3e 4b 5e f6 3e 53 0c 6b 3e
       -0.3231403 0.20176598 0.48118815 0.2295392
0000f0 27 ce 27 3f 5a d3 b2 3e 57 f9 fb be 97 ba 4c bd
       0.6554894 0.34926873 -0.4921367 -0.049982633
000100 53 2d d4 3e a9 72 d4 3e 5e 5c b4 3e ca c1 af be
       0.4144083 0.4149373 0.3522672 -0.34327537
000110 34 8a 0e be d3 0f 19 3e 14 3e 50 be ea 90 23 3f
       -0.13919908 0.14947443 -0.20336181 0.63892996
000120 b0 f2 ef be 85 40 96 be 78 4a 03 bf 76 0b 6f 3e
       -0.46864843 -0.293461 -0.51285505 0.23344216
000130 c0 d2 61 be 9e be 41 be d2 33 ff 3d 93 35 89 be
       -0.22053051 -0.18920371 0.12461056 -0.26798686
000140 40 a7 05 be a9 1f 50 be 0e 90 c9 be ec b5 8b bd
       -0.13052082 -0.20324577 -0.39367718 -0.06821808
000150 55 67 20 bf 6a 13 15 3e ab a9 a3 be 0b a8 4a 3d
       -0.6265767 0.14558187 -0.31965384 0.049476665
000160 89 97 da be 44 3b fa bc 03 e6 0d 3f e0 cd b3 bd
       -0.42693737 -0.030545838 0.55429095 -0.08779502
000170 27 9e 99 bd 79 60 05 3e 06 ba 04 3f 84 bf e8 3d
       -0.07500868 0.13025083 0.5184635 0.11364654
000180 1f 67 8f bb a0 a7 26 bd e0 ba ef bc 68 3c 59 be
       -0.0043763067 -0.040687203 -0.029263914 -0.2121445
000190 04 13 47 bd 97 18 cf be 98 4c 89 be 27 f0 e5 3e
       -0.04860212 -0.40448448 -0.2681625 0.44909784
0001a0 f9 4d 8a be 08 4e e1 bd c1 93 2c 3e dd 96 b3 3e
       -0.27012613 -0.110012114 0.16853239 0.35076037
0001b0 46 46 4d be ef fc 92 ba b5 6d 25 3f f3 84 07 3f
       -0.20046338 -0.0011214296 0.64620525 0.5293724
0001c0 8d cd 2c 3f 1a 39 5a be a5 71 04 3e 02 e2 8d be
       0.67501146 -0.21310845 0.12933977 -0.27711493
0001d0 10 4b 0e bf 94 fc 39 3f 1f 8e 1f bf 28 a5 b3 bd
       -0.55583286 0.7265103 -0.62326235 -0.087717354
0001e0 01 23 8d 3d 40 ff 5a bd 70 40 58 3e 7e 67 ca 3e
       0.06891442 -0.05346608 0.21118331 0.39532083
0001f0 2f b7 ae 3e 10 74 ad 3d fb 18 a1 3d 93 b8 55 3d
       0.34124133 0.08469403 0.07866093 0.052177977

fc.weight f4 [1, 128]
000000 7a bb 13 3e af 6a 11 bd aa 44 21 3e 99 44 86 3d
       0.14426985 -0.035502132 0.1574885 0.06556053
000010 35 39 dd 3d c3 b6 46 3d 1f 7b 68 3d 88 55 87 bd
       0.10801927 0.04851414 0.056758042 -0.06608111
000020 a1 0d 6c 3d d8 79 4c 3e e8 9d af 3d f7 af 9c 3d
       0.057630185 0.19968355 0.0857504 0.0765075
000030 0b d6 a0 3d 78 0d 21 3d 29 44 56 3e 30 53 75 bc
       0.078533255 0.039319485 0.20924439 -0.014973447
000040 7f 0b da 3d eb 13 89 3d b6 93 91 bd ab 4c 26 3e
       0.10646724 0.06693252 -0.07108252 0.16240184
000050 1d 29 d8 3d 17 f0 49 bd 9b ef 0a bc c3 46 6e 3d
       0.10554717 -0.049301233 -0.008479978 0.058172952
000060 62 b0 8b bd 56 41 73 3d 14 7a f5 bc 24 a6 8f 3d
       -0.06820752 0.05938848 -0.029965438 0.07014111
000070 9b 6f 4f bf fe 5d 07 3e 20 c1 f0 bc c8 a1 12 3e
       -0.8102967 0.13219449 -0.029388964 0.14319527
000080 d5 79 a6 3d f7 b1 ac 3d 17 91 55 3d 01 bc 46 3d
       0.08128706 0.084323816 0.05214032 0.04851914
000090 45 46 1b 3e 2e bc dd 3d a1 fb 4f 3d 30 84 c4 3d
       0.15163524 0.10826908 0.05077708 0.09595525
0000a0 aa b0 74 bd 91 5d 57 bd c9 47 f3 3d 11 3a 0e 3e
       -0.059738792 -0.052579466 0.11878926 0.13889338
0000b0 50 32 72 3d 8c 87 1f bd 70 3c de 3c 48 34 46 3e
       0.059130013 -0.038947627 0.027128428 0.19355881
0000c0 d6 a0 41 3e 60 30 d0 3b 1a 51 5b 3d 17 1c 1d 3e
       0.1890901 0.006353423 0.05354414 0.15342747
0000d0 70 7c 10 3c 6f cc 7b 3d 35 45 ee 3d b2 2a 8f 3d
       0.008818731 0.06147426 0.11634294 0.06990565
0000e0 c7 17 b1 3d 45 e3 8f 3d 63 09 3c 3e d6 5f 17 3e
       0.08647113 0.0702577 0.18362956 0.14782652
0000f0 91 5c 33 3e 9b 54 b9 3d f3 20 92 3d 89 98 ae bf
       0.1751578 0.0904934 0.07135191 -1.36403
000100 5b 9d 90 3d 77 2c 18 3e fe ab ab 3d a0 15 c4 3b
       0.07061263 0.14860712 0.08382414 0.005984023
000110 46 5d 4c bd b3 91 19 3e ef 2a 9a 3d e2 93 08 3e
       -0.04989364 0.14996986 0.0752772 0.13337663
000120 54 aa 96 bd f3 b5 b0 bd ee 92 16 3d a6 79 b4 3d
       -0.07356706 -0.08628454 0.036761217 0.08812265
000130 00 f6 3e bc ea ed e0 bd ea ed 3d 3e c2 fd 3f 3d
       -0.011655331 -0.109828785 0.18547788 0.04687286
000140 44 1e 0d 3d 66 9e 12 be 22 d0 3a 3d 8a 27 35 3d
       0.03445269 -0.14318237 0.045608647 0.04422716
000150 bc f5 0a bd 17 37 86 3d d2 1e 5d 3d 44 d9 c2 3c
       -0.033925757 0.06553476 0.05398447 0.023785241
000160 6b 1f 62 bd 03 9a 77 3d be b1 4d 3e 0e 6d 89 bd
       -0.055205744 0.06044961 0.20087335 -0.06710254
000170 e4 1d a5 3d a2 e1 1b 3e cc e8 ac 3d 9b b9 a6 3d
       0.08062342 0.15222791 0.0844284 0.0814087
000180 6d 70 94 3d d0 49 82 3b f8 f3 39 bc 33 68 81 bd
       0.07248006 0.0039760843 -0.011349671 -0.063187025
000190 02 19 24 3f 00 be 43 3c 42 92 5c be 04 1d 28 3e
       0.6410066 0.011947155 -0.21540168 0.16417319
0001a0 25 94 4b bd c3 b9 9c bd ae 21 03 3e fe ee bb 3d
       -0.04970183 -0.07652619 0.12805817 0.091764435
0001b0 a8 8c db bd e1 61 29 3e 9a 3f 2e 3e 8b 23 eb 3d
       -0.107201874 0.16541244 0.1701645 0.11481389
0001c0 7c 24 2e 3e 72 ac 58 3d f2 fa 21 3d be 2a 6e 3d
       0.17006105 0.05289883 0.03954596 0.05814623
0001d0 40 60 17 bb f5 02 39 3e e6 04 b2 bd 0a f6 07 bd
       -0.002309814 0.18067534 -0.086923406 -0.033193626
0001e0 45 da 05 3e 90 4f b2 3b e3 ea aa 3d 37 28 0b 3e
       0.13071544 0.0054416135 0.08345582 0.1358956
0001f0 ec 79 bb 3d 74 fc 43 3d f4 04 ef 3d 07 70 24 3e
       0.09154114 0.04784818 0.116708666 0.1605836
