backups/2022-06-03/best-model-6.pt (torch, 4687 bytes, 7 tensors)

lstm.weight_ih_l0 f4 [8, 5]
00000000: f43b a33e ce98 bdbd 7039 2ebf 6e94 43bf
00000010: d360 c33d 0351 22be 671a 0fbf 7acb 153e
00000020: 4206 773f 3ca0 923e 3cf5 393e 67f4 2c3f
00000030: 4862 24bf 6ad1 a93e fff8 333f d9eb f5be
00000040: 68a9 3abe b17a 01bf 4fa7 1a3f 03c4 053f
00000050: 4298 9ebe a456 d0bc ff4d 52be cafb 83bf
00000060: 618a ca3c 9773 483e 6cd1 e6bd af0c ce3e
00000070: d27d 9d3f 4fa3 dabe ee9d a6be 777c 873d
00000080: a5df 5b3f a5d8 18bf d511 bbbd a3ba 01bf
00000090: 40dc 593e 1339 c83e cf01 5a3f 96ec ecbe
0.31881678 -0.09257661 -0.6805639 -0.7639836 0.09539952 -0.15851216 -0.5589966 0.14628401
0.96493924 0.28637874 0.18159956 0.6756043 -0.64212465 0.33167583 0.7030181 -0.480315
-0.18228686 -0.5057784 0.6041154 0.52252215 -0.30975538 -0.025431938 -0.20537566 -1.0311215
0.024724187 0.19575344 -0.11270413 0.40244052 1.2304022 -0.4270272 -0.32542366 0.06615537
0.8588813 -0.59705573 -0.091342606 -0.5067541 0.21275425 0.39106044 0.8515901 -0.4627425

lstm.weight_hh_l0 f4 [8, 2]
00000000: 984c b6bd a5c1 fbbe 00b5 c7be 6d75 043f
00000010: e58b 283f bc47 303e c0ac 3c3c e4c6 573e
00000020: 6971 c2be e833 a43d 1041 dc3d 6020 863e
00000030: 1f7f 0b3f 5f47 253f 1293 0dbf ce48 b63e
-0.08901328 -0.49171177 -0.3900528 0.5174168 0.6583846 0.17214864 0.011515796 0.21071965
-0.3797715 0.08017713 0.10754597 0.26196575 0.54490846 0.6456203 -0.55302536 0.3560242

lstm.bias_ih_l0 f4 [8]
00000000: e26b f1be 08ef a23e 3aa4 e1be 90ee 5bbe
00000010: 4550 48bc 1c00 983e ff23 cc3d 45ec b6bd
-0.4715262 0.3182299 -0.44070607 -0.21477723 -0.012226169 0.29687583 0.09967803 -0.089317836

lstm.bias_hh_l0 f4 [8]
00000000: 80d0 df3d 2799 913e a232 07bf 9cef 193e
00000010: ecd5 66be fcb1 a9be 07a8 b8be f5e1 8a3e
0.1092844 0.28437158 -0.52811635 0.1503281 -0.22542542 -0.33143604 -0.36065695 0.27125517

fc_1.weight f4 [128, 2]
00000000: 28bc e33d 7a65 b23e e807 babd e9db 053f
00000010: 3a00 51be 87b9 033f ccde 75be 1e7c 68be
00000020: ba09 ac3e f131 053f 6249 3b3e 363c 31be
00000030: 0f75 2fbf c0c2 0cbc 020d 19bf 02ad 04bf
00000040: c004 1f3e 4ce2 57be 10d3 d13e 9f2d c83e
00000050: 50ae 76bd 56b8 11bf 2ed7 293f 81df fcbe
00000060: f955 7f3d 5d0f 82bd e40e 493e 24e3 1abf
00000070: 44cb afbe ca5a 2e3e 93f4 4dbe e59a 903e
00000080: 2412 2cbf c9e4 203f 8407 10bf 2055 3bbd
00000090: e1d9 0fbf ef29 24bf 4a6b 59bf 5430 b4be
000000a0: 792c 42bd 9ffb c5be 4a0d d23e 20ec 3ebd
000000b0: 32b8 34bf 27f1 0d3f e080 38bf d3c3 d5bd
000000c0: b0c8 66bf d2c5 113f 21e3 18bf 2a25 94be
000000d0: 105c ddbe a76b dabd 008e 3cbf 696d 473f
000000e0: 792e d43e 0063 d9be 8ac8 edbe 602c f33d
000000f0: 0d1d a53e 9e1c 553f 7cb1 edbe ca68 b83e
00000100: 6d6b b9be 4018 7a3c 6614 5abe ef25 c4be
00000110: 4b7d de3e 9727 383f 4674 11bf 58e2 cc3d
00000120: 8ed8 a5be e7e3 37bf 8ff6 0fbf 660d aa3e
00000130: 7410 07bf 0854 f8bd 277d 683e f685 123f
00000140: 71f1 893d 6e2b 173f 4be5 86be 7c3b 1cbe
00000150: c163 00bf 6980 2dbf 9961 813f 1a91 863d
00000160: 2ab5 e1be 57e1 d13e 4e5c 913e 68dd 6fbc
00000170: 10d3 4d3d b51b dbbe bdac a8be 90fb 03bf
00000180: ef45 083f 2879 0ebf a1a6 b8be 6c6e 383e
00000190: c665 2dbf 499c 8b3d 5527 023f 35d3 1bbf
000001a0: 36ac 3dbf b844 44bf 1389 81be eced 0c3c
000001b0: 70c9 4dbe aa49 46be 37ba 243f a521 173f
000001c0: 924d 4cbf 811d f03c 1bbd 3dbe a4de 17bf
000001d0: d056 ad3e df47 983c a013 6c3d 9c65 17be
000001e0: 144c 2dbe c0e4 4cbf 9bc0 10bf 43a5 723e
000001f0: 5063 0abf a0ad 36bf ed5a 2abf 19b9 c83d
00000200: e915 60bb a7a9 223f ced7 ac3e d0cf b33d
00000210: 2866 8a3d 58fa 8a3e 72eb c63e 0f48 2a3e
00000220: 408c 2ebe 2ea7 ca3e 8dd2 eb3e 9d86 1abf
00000230: c646 bf3e b1d8 92be b7e3 6bbf 7a08 61bf
00000240: c018 b2be 8e73 873e 3226 723e 9865 b2be
00000250: 3595 ba3c e62f 353f a55f 76bf 0b4c d73e
00000260: 6e37 2fbf 48b1 b33d dd17 0abe 0528 e8be
00000270: 67f6 133f b04c 1cbd 56a2 7f3d 4302 f83e
00000280: 1d92 053f f61e 68be 0ab3 8d3e 8125 b0be
00000290: 216d 26bf f066 21be 0027 e8be 00a1 bfbe
000002a0: 2e1a 99be fb76 1b3f 68e2 fbbd 7829 f0be
000002b0: ae4e f73e 727b 5dbe f12b 79be 4f51 5bbe
000002c0: 0d12 83be 107c 543d 236f c0bc e9d1 cb3e
000002d0: 90c7 1c3d 4477 05be 3068 c83d 9f8f 0ebf
000002e0: 4522 923e 007c 3d3e 0e9b de3e 5457 a8be
000002f0: b2b7 73bf 1518 37bf 45fb ab3e 0730 1dbf
00000300: ae34 24bf d922 143f a681 87bc 7927 973d
00000310: f564 cbbe f4a8 823e 3632 14bf edbd b13e
00000320: cd06 8b3e 00ba 2e3f c3ad 00bf 3396 4f3f
00000330: c09b bbbc 72a9 b73e 543b c0be 212e bf3d
00000340: 8f72 8ebe 9c97 1cbe 4066 33bf 1dea 813d
00000350: 1827 0f3e f295 a13e 3aef 0fbf e415 28bf
00000360: d0cb eabe 89df 863e c402 0c3f ce92 1e3f
00000370: 6844 95bd 80e3 53bc 4770 e5be b9bc 18bf
00000380: 2ed0 173e 69db 753d 73e2 2fbf d5d7 22bf
00000390: 2bb7 1bbe 9579 db3e a0c2 43bd b82d 07be
000003a0: b4fb 25bf e50c 303f e641 8abe 30ef c6be
000003b0: 5048 a63e 7d4d 063f 0c3d b8be f865 a5bc
000003c0: f084 2b3d 9a5a 8c3e 5d49 14bf 5eb9 163d
000003d0: dc52 26bf f0ba 2a3e ee0c 77be 7806 03be
000003e0: 879a 91be bebf b2be 5ef6 1a3d 0d8e 8bbe
000003f0: 5c12 d1be a7b6 19bf 41b6 01bf 78ce c43e
0.11119872 0.34843045 -0.09083539 0.5228868 -0.20410243 0.5145497 -0.24010772 -0.22703597
0.3360117 0.5202933 0.18289712 -0.17308125 -0.6853799 -0.008591354 -0.59785473 -0.5182649
0.15529156 -0.21082419 0.4098134 0.39097306 -0.06022483 -0.569219 0.66343963 -0.4938927
0.06233785 -0.063505866 0.19634587 -0.6050284 -0.34334767 0.17026821 -0.20112829 0.28243175
-0.6721518 0.628491 -0.5626147 -0.04573548 -0.5619183 -0.64126486 -0.84929335 -0.3519312
-0.047405694 -0.38668534 0.41025764 -0.046611905 -0.7059356 0.55446094 -0.7207165 -0.10437741
-0.90149975 0.56942475 -0.5972157 -0.28934604 -0.432343 -0.10665064 -0.73654175 0.7790132
0.41441706 -0.42458344 -0.46442062 0.11873698 0.32248726 0.8324679 -0.46424472 0.36017448
-0.36214772 0.015264571 -0.21296844 -0.3831019 0.43454966 0.7193541 -0.56818044 0.10004109
-0.3239178 -0.71832126 -0.56235594 0.33213347 -0.5275948 -0.12125403 0.22703992 0.5723566
0.067355044 0.59050643 -0.26346812 -0.15257066 -0.5015221 -0.67774063 1.010791 0.06570645
-0.4408353 0.40992233 0.28390735 -0.01464019 0.050250113 -0.42794576 -0.3294429 -0.5155573
0.5323171 -0.5565362 -0.36064628 0.18010873 -0.6773342 0.068169184 0.50841266 -0.6086915
-0.740909 -0.76667356 -0.25299892 0.008601647 -0.20096374 -0.19364038 0.6434664 0.5903571
-0.7980586 0.029310944 -0.1852917 -0.593241 0.33855295 0.018588958 0.057635903 -0.14784855
-0.16923553 -0.80036545 -0.5654389 0.23695855 -0.5405779 -0.7135868 -0.6654499 0.098009296
-0.0034192747 0.6354012 0.33758396 0.087798715 0.06757766 0.27144122 0.38851506 0.1662905
-0.17045689 0.39580673 0.46059075 -0.60361654 0.37358683 -0.28680947 -0.9214434 -0.8790356
-0.34784508 0.2645535 0.23647383 -0.34843135 0.022776226 0.7077621 -0.9623969 0.42050204
-0.68443954 0.08774048 -0.13485666 -0.45343032 0.57797855 -0.038159072 0.062410675 0.48439226
0.52176076 -0.2266806 0.27675658 -0.34403613 -0.6501027 -0.15761924 -0.45342255 -0.3742752
-0.29902786 0.60728425 -0.12299043 -0.46906638 0.48302215 -0.21629122 -0.24333169 -0.21417736
-0.2559971 0.051876128 -0.023490494 0.39808586 0.038276255 -0.13033777 0.09785497 -0.556879
0.2854177 0.18504333 0.43477672 -0.32879126 -0.9520217 -0.7152112 0.3359014 -0.6140141
-0.6414288 0.57865673 -0.016541313 0.07380576 -0.39725462 0.25519526 -0.57889116 0.34715214
0.27153626 0.68252563 -0.5026514 0.8108856 -0.022901416 0.35871464 -0.37545264 0.0933497
-0.27821776 -0.1529221 -0.70077896 0.06343482 0.13979757 0.31559712 -0.56224406 -0.656584
-0.45858622 0.2634242 0.5469172 0.61942756 -0.07288438 -0.012932658 -0.44812223 -0.5966297
0.14825508 0.0600237 -0.6870491 -0.63610584 -0.15206592 0.42866197 -0.04779303 -0.13201034
-0.64837193 0.68769675 -0.27003402 -0.3885436 0.32477045 0.5246199 -0.35984075 -0.020190224
0.041874826 0.27412874 -0.57924443 0.036797874 -0.64970183 0.16672873 -0.24126026 -0.12795436
-0.28438208 -0.34911913 0.03783261 -0.27256814 -0.4083432 -0.6004433 -0.5066872 0.38438773

fc_1.bias f4 [128]
00000000: 01df bdbe a8ee e6be 1161 c13e 2097 24be
00000010: f813 d4be d3c7 db3e 8083 78be 68a2 c9be
00000020: 7c9a 21bf c454 473f 55b7 07bf 9fc0 16be
00000030: c7a4 2a3f 74ff 12bf 5cda 0dbd 242c b03e
00000040: 1c67 24bf 7810 a2bd 030f ffbe 2aaf b33d
00000050: 5f8f 0f3f 3cca f4be 4c17 17bf 46e1 2c3f
00000060: 02e5 b03d 2ea9 3d3f d308 cf3e f887 813d
00000070: bf68 393f 616b 6b3e 9e97 a43e e0a1 aa3e
00000080: 5b1e a7be e18d 443f 8d5a 9d3e 7849 f2bd
00000090: b255 9d3e 5d15 26bf 60c1 1bbe 1ea4 8f3e
000000a0: 3296 153d d7c3 0bbf 1ca2 41be b369 c0bd
000000b0: 432c 3d3f 5bd7 2d3e baee 05bf 870e 003e
000000c0: 41f1 d3be 8499 0cbf 3952 903e d800 97be
000000d0: b748 a73e c6c4 143f b730 a63d ff86 25bf
000000e0: 7029 c13e 3f07 8fbc ce6e 463f 04c0 29be
000000f0: 77b3 03bc 89bc 4ebe f90b 9c3e 42fc 2f3f
00000100: 442e f23d 5c07 12bf 062e 6dbe c29d c83e
00000110: 3016 13bf a8d7 083f b3e7 bbbe e18a c23e
00000120: da98 5cbd 3c7f afbb d1fd 1c3f 85d9 e53e
00000130: 9c01 1abf 632b c63d 92f6 ccbe ac3e 2d3e
00000140: d1b0 83be 1996 32bf e234 12bf 7460 ddbe
00000150: e25f b53e e875 3d3f ec33 2ebf 098a 6b3e
00000160: 36e9 4d3e be7f a5bd 207c 13bd f803 2bbf
00000170: cf8f ce3e 2c26 14bf 4217 083f 9ab2 853e
00000180: 2c00 7d3e 90f4 fa3d 2330 21bf 6826 573e
00000190: 9b75 3c3f 2e4f cb3e e8a7 0bbf 385e 213d
000001a0: 70f1 57bd 9444 d83e 5455 0cbf e874 93be
000001b0: 7f0a 873e 5f8f ee3c 8040 e0bb ec58 c3be
000001c0: cab6 633e 3894 8b3e d1bb 3d3f de04 12bf
000001d0: 7842 03bf 1761 ac3e 3efc 303f f7b6 173f
000001e0: 8e6b 04bf a9a6 5c3d 3ee7 babe 3313 fdbe
000001f0: e1c6 b2be 71a8 ed3d 6e23 f5be 2222 98be
-0.370842 -0.45103955 0.37769368 -0.16073275 -0.41421485 0.4292589 -0.24268913 -0.3938172
-0.6312635 0.7786372 -0.5301412 -0.14721917 0.6665768 -0.5742104 -0.03463207 0.34408677
-0.6421983 -0.079132974 -0.4981614 0.08773644 0.5607814 -0.47810543 -0.59019923 0.6753124
0.0863743 0.7408627 0.4043642 0.06324762 0.72425455 0.2299018 0.32146925 0.33326626
-0.32640347 0.7677899 0.30733147 -0.11830419 0.30729443 -0.6487635 -0.15210485 0.280549
0.03652019 -0.545957 -0.18909496 -0.093951605 0.73895663 0.16976683 -0.5231739 0.12505542
-0.41395 -0.54921746 0.2818773 -0.2949283 0.32672665 0.5811275 0.0811476 -0.6465911
0.37726927 -0.01745951 0.77512825 -0.16577154 -0.008038393 -0.20189108 0.30477884 0.6874429
0.11825231 -0.5704248 -0.23162088 0.3918286 -0.5745573 0.53454065 -0.3670021 0.3799658
-0.053856708 -0.0053557437 0.61324793 0.44892517 -0.60158706 0.09676244 -0.40031868 0.16918439
-0.25720838 -0.6976028 -0.5711194 -0.4323765 0.35424715 0.74008036 -0.68047976 0.23001875
0.20108494 -0.080810055 -0.036007047 -0.6680293 0.40344092 -0.57870746 0.5316049 0.26112825
0.24707097 0.12253678 -0.62964076 0.21010745 0.7361695 0.39708847 -0.5455308 0.039396495
-0.052720487 0.4223982 -0.548177 -0.2880013 0.26375195 0.029121099 -0.0068436265 -0.3815378
0.22237697 0.2726152 0.7411471 -0.57038677 -0.512733 0.33667824 0.6913489 0.5926356
-0.51726615 0.053869877 -0.3650455 -0.4942871 -0.34917358 0.11604393 -0.47878593 -0.2971354

fc.weight f4 [1, 128]
00000000: 013f 983d e4c3 063d 4a24 fc3d f063 85bb
00000010: 4b97 13bc 88ad e63d e8e2 72bd bc8b d03c
00000020: 9476 873c 0fd2 1a3e 7406 c1bc 765b f2bd
00000030: 353b 313e 8627 573d b727 953d e264 c03d
00000040: e8d3 72bc dc30 dd3c 9fc3 833d 9356 b33d
00000050: 90e4 953d 8f6f 78bd dcb6 3cbd 6d6a 483e
00000060: 879f 873d a41a 433e 2a8e ca3d a9f8 3c3e
00000070: 0d8b ce3d 51e9 363e 4089 113e b787 243e
00000080: 28e5 a6bc 6071 0b3e 552e 0d3e 72ad 613d
00000090: 81fb 783d 0d7e 1cbd e357 03bd d18b 2c3e
000000a0: a944 d23d 1e97 7e3d e86e b53c 7b29 0dbf
000000b0: 4650 4a3e 0a07 a03d a870 473c 0724 733d
000000c0: a378 1abd 589f 6b3c ca84 953d 3b7a 913d
000000d0: 3ac3 ad3d e893 153e 53ed 813d 8fe5 86bd
000000e0: 1f2e ad3d 6509 b33d 8502 333e 8e4b 49bd
000000f0: ffaa 283d 4f81 b93d 0350 1f3e 2ec2 e03d
00000100: 0e86 e93d 267d 0dbd 9669 313d 8994 d53d
00000110: 583b 2d3c b3e2 723d 0627 aabd df46 b33d
00000120: 1d30 a83d ccea 313b 54be 133e e8eb 463d
00000130: 1801 a63c 4510 a93d 844a e13c 63ad a63d
00000140: 6c0b f3bc 9879 933c c83b d23c d27f 6d3d
00000150: d02a b93d 0c2a e43d 9802 bf3c 76c5 fc3d
00000160: 1d8f a63d 34ab a03d 267b 1d3d 6707 91bd
00000170: dba9 0d3e dfa1 9b3d 1914 223d 4752 983d
00000180: 4407 2c3e 5be7 8f3d da86 87bd 3e3f 2e3e
00000190: 28a0 323e 1b66 523e f352 9bbd 5692 4b3d
000001a0: 7d0b 8f3d 70fc 183e 9209 653d febb 253d
000001b0: 4a13 ea3d 4e5d 113e fc4c ef3c 9f1d a0bd
000001c0: 8d73 e73d 3a39 b23d b02e 353e af83 51bd
000001d0: aad9 7e3d 1fc3 0b3e e80c 343e 1b5e 293e
000001e0: 70b8 68bc db57 a63d b4dc 093d 407f 80bb
000001f0: 91cc 6bbd bb9f 0d3d 95e7 8c3d 1031 9f3d
0.07433892 0.03290166 0.12311609 -0.0040707514 -0.009008239 0.11263567 -0.059298426 0.025457256
0.016536035 0.15119193 -0.023562647 -0.11833851 0.17307742 0.052527927 0.07282966 0.09394242
-0.01482103 0.027000837 0.06433796 0.08756747 0.073189855 -0.060653266 -0.046072826 0.19571848
0.06622224 0.19053131 0.09890397 0.18454231 0.100851156 0.1786244 0.14212513 0.16067396
-0.020372942 0.13617468 0.13787206 0.05509705 0.060786728 -0.03820615 -0.032066237 0.1685021
0.10267002 0.062155835 0.02214761 -0.5514142 0.19757184 0.078138426 0.012172855 0.05936053
-0.037712704 0.014381252 0.07300718 0.07103392 0.08484502 0.14607203 0.06344094 -0.065867536
0.084560625 0.08742026 0.1748143 -0.04914432 0.0411787 0.09057867 0.15557866 0.10974537
0.11402522 -0.03454318 0.043313585 0.104287215 0.010573231 0.05929823 -0.083082244 0.08753752
0.08212302 0.0027148006 0.14428073 0.04856482 0.020264193 0.08255056 0.027501352 0.0813854
-0.029668532 0.018002316 0.025663272 0.057983227 0.09041369 0.11140832 0.023316666 0.1234235
0.081327654 0.078451544 0.03844752 -0.0708149 0.13834326 0.07599234 0.039569948 0.07437568
0.16799647 0.070265494 -0.06617518 0.17016312 0.17443907 0.20546763 -0.07584181 0.049700104
0.06984613 0.14940047 0.05591733 0.040462486 0.1142946 0.14195749 0.029211514 -0.0781815
0.113013364 0.08702321 0.17693591 -0.051150974 0.0622193 0.13648652 0.17583048 0.16539805
-0.01420413 0.08122226 0.033657745 -0.0039214194 -0.057568137 0.03457616 0.06880108 0.0777303
