backups/2022-06-03/best-model-4.pt (torch, 4687 bytes, 7 tensors)

lstm.weight_ih_l0 f4 [8, 5]
000000 fe 48 e1 3d 4c 0d 41 3f 9e c4 38 be 1b 8c f6 3e
       0.1100025 0.75410914 -0.18043754 0.48153767
000010 c6 db 18 bf b3 56 39 bd 78 a7 c0 3e 35 21 d6 be
       -0.5971035 -0.0452487 0.3762777 -0.4182221
000020 9e b8 ec 3e 2b 46 06 3f 72 77 89 be e8 b8 14 be
       0.46234602 0.5245082 -0.26848942 -0.14523661
000030 c0 3d 05 bf d2 56 e4 3e 06 84 ea 3e 00 a5 4d be
       -0.5204735 0.4459749 0.4580385 -0.20082474
000040 73 9f 10 3f a6 30 c5 3e d6 ae ab 3e 00 1c 3b bc
       0.564933 0.38513678 0.33531827 -0.01142025
000050 83 18 7e 3f 35 0f c0 be 71 3a 3e 3e d1 66 9c 3e
       0.9925615 -0.37511602 0.18576981 0.30547193
000060 48 e6 73 bf 4f 47 11 bf 93 71 fb be 3a aa 4f 3e
       -0.95273256 -0.56749433 -0.49110088 0.2027978
000070 11 89 36 3f 9d b3 26 3f e9 e4 a7 3d e0 90 0a 3e
       0.71302897 0.6511782 0.08197958 0.13531828
000080 da ff 6b be 18 62 2e 3f 86 24 06 3e 0f 24 e0 be
       -0.23046818 0.6811843 0.1309987 -0.4377751
000090 5c cb a5 bc b8 79 62 3c 30 6b de bc 94 72 1d 3f
       -0.02023857 0.013822965 -0.02715072 0.6150296

lstm.weight_hh_l0 f4 [8, 2]
000000 08 28 08 bf 9c 41 35 3e 96 eb f5 3e b4 0d 2a bf
       -0.5318608 0.17700809 0.480313 -0.6642716
000010 74 84 0e be 2e 15 bb 3e 6c 71 42 3e 8f 9e 21 3f
       -0.13917714 0.36539596 0.1898858 0.63132566
000020 4a 58 db 3e 32 81 fc 3e b4 92 30 3e 00 61 9f be
       0.42840797 0.49317318 0.17243463 -0.31128693
000030 b8 da b2 bd 40 86 bf bc 5a 37 f0 be 29 99 25 bf
       -0.087331235 -0.023379445 -0.4691723 -0.6468683

lstm.bias_ih_l0 f4 [8]
000000 5d b7 e7 bd 99 77 de bd 0c 23 06 be d0 2c d5 3d
       -0.11314271 -0.10862655 -0.13099307 0.10408938
000010 0c 9e 2a be 0c a3 c4 3e be 3a 06 3f 68 16 37 3f
       -0.16661853 0.38405645 0.52433383 0.71518564

lstm.bias_hh_l0 f4 [8]
000000 54 43 db be 65 e8 2e be a3 49 87 be 92 b2 db 3e
       -0.42824805 -0.17080839 -0.26423368 0.42909676
000010 11 9b ca bd 44 6d b9 3c 32 7b 0d 3f 0a 8f cb 3d
       -0.09892858 0.02263511 0.55266106 0.09939392

fc_1.weight f4 [128, 2]
000000 99 12 08 3f d2 e7 83 3e 6c a1 ff be f7 26 e7 3e
       0.5315338 0.25762802 -0.49927843 0.45146915
000010 c0 7d c0 3c 00 4f 48 3b ad c1 18 3e 4b 4d e8 be
       0.023497462 0.0030564666 0.14917631 -0.4537147
000020 af 69 bc bd 18 e3 15 3f e8 0c 84 bd 1a 52 22 bf
       -0.09199845 0.5854964 -0.06447774 -0.6340653
000030 71 12 0d 3f 12 96 bf 3e a9 ce 0c bf ac aa 9f 3e
       0.55106264 0.37419182 -0.5500284 0.311849
000040 ea 98 99 3e 3d 88 9e be b4 f9 61 3e a8 b9 32 3f
       0.29999477 -0.30963317 0.2206791 0.6981454
000050 26 9b 5d 3f a7 aa d4 3e 28 68 48 be b5 fa 1f bf
       0.8656486 0.41536447 -0.19570982 -0.62491924
000060 d8 0f be bd 54 1e 33 be 80 e6 ad bb 3c 8e bc be
       -0.09280366 -0.17492038 -0.0053070188 -0.36827266
000070 7e ec 25 3f 0f 58 cf be ee 82 b8 3f 7b 11 ab bf
       0.64813983 -0.4049687 1.4414957 -1.336471
000080 30 25 a2 bd 45 97 32 bf e1 b3 c0 3d 59 e9 bc 3e
       -0.07917249 -0.6976207 0.09409309 0.3689678
000090 ed f1 61 3e 82 2b ed be 19 6f 68 3f 67 0a 15 be
       0.22064944 -0.46322256 0.9079452 -0.1455475
0000a0 2e 83 ad 3e 26 da b2 3e af b1 83 bd 33 70 24 bf
       0.33889145 0.3493206 -0.06430375 -0.642337
0000b0 48 3c a7 be 75 79 0c bf 8c 39 46 3f 4c 62 3e 3f
       -0.32663178 -0.5487283 0.7743156 0.7436874
0000c0 52 cf b0 be 62 05 ed 3e 0a 15 a5 3e 16 38 90 3e
       -0.34533173 0.4629317 0.32242614 0.2816779
0000d0 6e 0b a6 be 85 65 38 3f fa d1 85 3e c5 ac 0d 3f
       -0.32430595 0.72029907 0.26136762 0.5534175
0000e0 5b db 33 be d6 ba 07 3f 36 e2 79 3f c3 17 0c 3f
       -0.17564146 0.53019464 0.97610795 0.5472376
0000f0 e7 af 06 3f d7 f8 83 3e 80 af 0a bf c8 63 dc 3d
       0.52612156 0.25775787 -0.5417404 0.10761219
000100 d5 bc 60 3f b6 39 db 3e e6 16 1d bf 20 af ed bd
       0.87788135 0.42817467 -0.61363065 -0.11605668
000110 48 a6 e5 bd a0 99 b7 3c 13 6b c5 be 90 43 54 be
       -0.11213356 0.022412121 -0.38558254 -0.20728898
000120 50 e2 f2 3d 7b 9b eb 3e 18 1a 7e 3e fb b0 c9 be
       0.11859572 0.4601706 0.24814641 -0.39392838
000130 74 1b 02 be c4 e4 35 3e 10 7a 04 3f d7 3e 2e 3e
       -0.12705785 0.17763048 0.5174875 0.17016159
000140 d7 5d 27 3f 77 47 13 3f bf 71 2b bf be a8 d3 be
       0.65377563 0.5753092 -0.6697044 -0.41339678
000150 04 b2 13 3e c0 1f 6b 3c cd e2 87 be a1 e6 e5 be
       0.14423376 0.0143508315 -0.26540223 -0.44902518
000160 a0 c0 e4 bc be 1f e0 3e ab f2 2f 3f be b4 b0 3e
       -0.027923882 0.43774217 0.68729657 0.34512895
000170 9e a9 7d be cb 98 93 be e8 21 4c 3f 3f 4a 7e be
       -0.24771735 -0.2882751 0.79739237 -0.2483301
000180 09 c9 62 3f 5f f2 18 3f 14 ea 32 bf d0 13 87 bd
       0.88588005 0.5974483 -0.69888425 -0.06595576
000190 f6 d6 24 3f 8d e8 0f 3f c3 51 80 be 60 78 73 be
       0.64390504 0.5621422 -0.2506238 -0.23776388
0001a0 d9 e2 2a be fb a9 2e bf 91 32 ba be e6 37 c8 3e
       -0.16688098 -0.6822812 -0.36366704 0.39105147
0001b0 02 04 1c be 10 48 2d be 14 71 62 3f d7 9f 2d bf
       -0.15235904 -0.16922021 0.88453794 -0.6782202
0001c0 3b 2d 14 3f f6 22 45 be b5 84 12 3f 31 e4 b6 3e
       0.57881516 -0.19251618 0.57233745 0.3572097
0001d0 02 94 29 bf c8 1c c2 3d 5a 0e b4 3e 84 68 cf be
       -0.66241467 0.09478146 0.351672 -0.40509427
0001e0 09 76 c2 be b5 98 c7 3e d4 d6 3d be f0 20 12 bf
       -0.3798068 0.38983694 -0.18538982 -0.5708151
0001f0 a3 5c 2a 3f b7 d6 e6 be c5 9c 0d 3f 94 3b ea be
       0.665476 -0.4508569 0.55317336 -0.4574858
000200 aa ef a8 be 41 24 00 bf 87 36 0f 3f 10 64 92 3e
       -0.3299535 -0.5005532 0.5594258 0.28591967
000210 8e c0 17 3f 32 85 b6 be c7 20 bc 3f 51 06 ff 3e
       0.5927819 -0.35648495 1.4697503 0.49809507
000220 88 31 47 be 00 46 e2 ba e5 d1 2d 3e ad 4a d5 be
       -0.19452488 -0.0017263293 0.169746 -0.41658536
000230 98 2d 00 bf 31 62 1e bf ec 91 f7 be c2 63 f3 3e
       -0.5006957 -0.6186858 -0.48353517 0.47537047
000240 1c e9 94 be 94 83 bd be 07 1e 1f bf c0 a8 64 be
       -0.29084098 -0.3701445 -0.62155193 -0.22329998
000250 fc 67 25 3e 4a 01 d6 3e f3 58 0b 3f b9 e9 21 3f
       0.16152948 0.41797858 0.544326 0.6324726
000260 2c 9d 08 3e 00 30 bf bc 67 b2 0a 3f fe df ca 3e
       0.13341206 -0.023338318 0.5417847 0.39624017
000270 77 5c 71 3e bf 12 25 3f a1 0c 3c 3f e9 ed 05 be
       0.23570429 0.6448173 0.7345677 -0.13079037
000280 1c a8 52 3f 7b 73 92 b8 09 a6 6f 3f af 10 2f be
       0.82287765 -6.9833324e-05 0.93612725 -0.17096208
000290 e9 29 c9 be 62 90 0f bf ea 67 27 bf 64 43 81 be
       -0.39289787 -0.56079686 -0.65392935 -0.25246727
0002a0 5e a2 60 be 50 20 8b 3d 90 c0 c6 be 7b 16 53 be
       -0.21936938 0.067932725 -0.3881879 -0.20614044
0002b0 33 45 4a 3f 10 1f 1c 3f ef 67 25 3f 77 5e a7 3d
       0.7901184 0.609849 0.64611715 0.081723146
0002c0 eb 51 c8 be 57 4c d9 be 93 62 0f bf 7f 62 fa 3e
       -0.39124998 -0.42441055 -0.5600979 0.48903272
0002d0 78 67 1f 3f 51 90 32 bf ac 2d 8c 3f ba 00 66 bf
       0.62267256 -0.6975146 1.0951438 -0.8984486
0002e0 9b 28 4b 3f dc e1 e1 3d 27 56 7a 3e ad 43 ef 3e
       0.79358834 0.110294074 0.24446927 0.4673132
0002f0 99 25 7a 3f cd 79 70 3f 2d b0 9b bd 90 c6 0e 3f
       0.9771362 0.93935853 -0.07601962 0.5577173
000300 67 6f 4a 3d f6 47 0e bf 15 f9 a4 3e 23 ae 06 3f
       0.049422648 -0.55578554 0.32221285 0.5260946
000310 af 90 33 3f 96 ff dc 3e 98 c4 0b 3e f8 03 c2 bd
       0.70142645 0.43163747 0.13649213 -0.09473413
000320 7f 39 c8 be b4 7c 03 bf c0 02 34 bd bd ef e8 be
       -0.39106366 -0.51362157 -0.043947935 -0.45495406
000330 88 e0 32 bf 90 5b 20 bf 37 d7 8f be 1e cb f0 3e
       -0.6987386 -0.62639713 -0.28093883 0.47029966
000340 78 a9 3d bf ba 04 89 be 4c 95 f6 3c 43 7a 1c bf
       -0.74086714 -0.2676142 0.030100487 -0.61124057
000350 8c 59 2d bf e4 90 74 be eb 7d 6b 3e fc 90 18 3f
       -0.6771476 -0.23883396 0.22997253 0.5959623
000360 d2 c2 e7 be ae 17 96 3e c6 9d 49 3f c6 54 3b 3f
       -0.45265824 0.2931494 0.7875637 0.7317623
000370 60 06 9b 3c 00 45 f6 be a0 65 03 bd 05 ad 0c 3f
       0.018923938 -0.48099518 -0.03207934 0.54951507
000380 38 73 45 3e 90 7a a3 bd be 8c 25 be 1d 6d da 3e
       0.19282234 -0.07982361 -0.1616697 0.42661372
000390 47 d5 7c 3e 3e 88 3c 3f c7 a6 9a be bc 4d 32 be
       0.24690734 0.7364539 -0.30205366 -0.17412466
0003a0 be 54 14 bf eb 9b 80 be 23 c8 67 3f 73 49 40 3f
       -0.57941806 -0.25118956 0.9053976 0.75112075
0003b0 76 00 55 3e 0f c6 1b bf 96 d8 4f bf 48 90 05 3f
       0.20800957 -0.6084909 -0.8118986 0.5217328
0003c0 80 ab 35 bc aa b0 91 3e 9e cc 24 bc ec 1b 1c bf
       -0.011088252 0.28455096 -0.01005855 -0.60980105
0003d0 a8 a4 eb 3d 10 d4 21 bd 83 ff 61 be 34 a3 2f 3e
       0.11506015 -0.03950888 -0.22070126 0.17152101
0003e0 0e 70 0c 3f f2 d6 c7 3e a4 34 dd 3d 71 1f 28 bf
       0.5485848 0.39031178 0.10801056 -0.65672976
0003f0 98 46 0f be e3 a2 a2 be 07 63 87 bd eb e7 9c bb
       -0.13991773 -0.31764898 -0.06610685 -0.004788389

fc_1.bias f4 [128]
000000 c1 9d 17 bf c7 39 f8 3e bf 4d d5 be a3 08 0c 3f
       -0.5922509 0.4848158 -0.41660878 0.5470068
000010 6e 16 06 3e 32 06 fb be 67 99 2e bf 5c 56 9b 3e
       0.13094494 -0.49028164 -0.68202823 0.30339324
000020 c8 80 05 bf 68 56 ca be 42 a4 2b 3f ff 78 32 bf
       -0.5214963 -0.39519048 0.6704751 -0.69715875
000030 f3 c0 9c be 18 09 b7 bd 9b 2c e6 3d f9 99 17 3d
       -0.3061596 -0.08937281 0.112389766 0.037012074
000040 f1 1b 12 3f e4 d9 d4 3e 49 a6 34 3f ea 5c eb 3e
       0.57073885 0.41572487 0.7056623 0.45969325
000050 b2 19 16 bf 06 9e 64 3e 20 fc 38 3f 81 17 65 be
       -0.5863296 0.22325906 0.7225971 -0.22372247
000060 e4 74 c4 be b4 ab 27 bf 85 60 5c 3f 47 ed 1f 3f
       -0.3837043 -0.65496373 0.8608478 0.6247143
000070 88 df ec 3e 8f 8a 32 3d eb fa 09 3f 9a db 02 bf
       0.4626429 0.04358917 0.53898495 -0.51116335
000080 6b 06 d7 be 00 79 43 bc da 4d 03 bf 4c 71 73 be
       -0.41997084 -0.011930704 -0.5129067 -0.23773688
000090 e3 66 0e 3f 23 9a ca be 84 c0 0a be bc e6 f3 3e
       0.5562574 -0.39570722 -0.13550001 0.47636974
0000a0 73 36 62 3d 6d 51 1d bf 4f c2 31 bf c8 60 07 bf
       0.055227708 -0.6145237 -0.69437116 -0.5288205
0000b0 e7 51 a4 be e2 75 6f 3e ba 06 20 bf 18 3c 23 3f
       -0.32093737 0.23384812 -0.62510264 0.6376357
0000c0 b2 e1 07 3f d0 d5 63 bd 58 5c c6 be d3 f2 e5 3e
       0.5307876 -0.05562383 -0.38742328 0.44911823
0000d0 a1 a5 5c 3f 46 7c 2f bf d5 75 05 3f 68 02 36 3e
       0.8619023 -0.68549 0.5213292 0.17774355
0000e0 c6 83 a7 3e 27 ca da 3e 4b 1f ef be 23 4b 0e bf
       0.32717723 0.42732355 -0.46703562 -0.555834
0000f0 f5 ce 49 3e 58 ff fc be 89 81 bf 3e 65 e8 4a 3f
       0.19707854 -0.49413562 0.37403515 0.79260856
000100 45 bb a4 3e dc 53 21 bf f1 5b b3 3e 33 d7 fe bd
       0.32174125 -0.63018584 0.35031083 -0.1244339
000110 14 cc 14 be 16 5f 46 3f 61 b3 d1 be 4c a2 0b bf
       -0.14530975 0.7748884 -0.40957168 -0.5454452
000120 31 e7 b3 be 0c 56 fe be 2b c9 e6 be 89 87 02 bf
       -0.35137323 -0.49675024 -0.45075354 -0.5098806
000130 d8 85 1b bf de 0b 0e 3f 6b d0 28 3f a1 61 8a 3e
       -0.60751104 0.5548686 0.6594302 0.2702761
000140 10 52 28 3f 1f 3b 23 3e 7c b5 03 be 68 fc 4c be
       0.6575022 0.15940522 -0.128622 -0.2001816
000150 c8 07 d2 be f8 a1 1e 3f dd ab 84 3e 25 8d be 3e
       -0.41021562 0.61965895 0.2591237 0.3721706
000160 ac e5 14 3f c8 51 76 3d 65 46 ef 3e f4 d5 b7 3c
       0.5816295 0.060136586 0.46733394 0.022440888
000170 29 56 94 be ed 90 9a 3e 6f f6 0a bf 0c 0f 46 3f
       -0.28971985 0.30188695 -0.5428228 0.7736671
000180 04 15 2e bd ab fc 51 3f 9c 5a 0a bf ea d0 c6 be
       -0.04250051 0.82026166 -0.5404451 -0.38831264
000190 70 11 2c bf 57 32 e5 be b0 00 09 bf da 88 cf 3e
       -0.6721411 -0.4476497 -0.53516674 0.40534097
0001a0 11 33 a3 3e f4 e4 41 3e 8c b4 9d be 5f 73 1d 3d
       0.31874898 0.18934995 -0.3080181 0.038440105
0001b0 10 3b 27 bf 3b cf e5 3e 26 76 2b bf d8 7e a1 be
       -0.653245 0.44884667 -0.66977155 -0.31542087
0001c0 f4 c7 18 bf 29 74 1a 3e c6 46 be 3d a4 f1 40 be
       -0.59680104 0.15083374 0.09290843 -0.18842179
0001d0 20 d4 3c bd 35 85 65 3c 33 2b 3d 3e 25 35 f0 b9
       -0.046100736 0.01400881 0.1847351 -0.00045815963
0001e0 fa de cf be 2d 4f 90 3e 58 28 26 bf 4d d7 11 3f
       -0.40599805 0.28185406 -0.6490531 0.5696915
0001f0 c8 f7 1c 3f 64 8a 10 3f 50 61 47 be 69 b7 f4 3e
       0.61315584 0.5646117 -0.19470716 0.4779618

fc.weight f4 [1, 128]
000000 97 de b4 3d 3c f8 4b 3d d8 4c e1 bc d8 20 a4 3c
       0.08831518 0.04979728 -0.027502462 0.020035192
000010 bb d8 83 3d d5 bd 2b bd c8 e7 d1 bc ce bb 0e 3d
       0.064378224 -0.041929085 -0.025623217 0.034847073
000020 14 8c 06 3d 27 41 61 3c 49 71 0f 3e 20 57 01 bb
       0.032848433 0.013748444 0.14008059 -0.0019735768
000030 21 77 b3 3d 00 a9 7e 3a 26 36 c8 3d 5c 46 1c bf
       0.087629564 0.0009714514 0.09775953 -0.6104486
000040 68 a4 92 3c 8d 9a c7 3d 65 ce d7 3d fb 3d d9 3d
       0.01790066 0.09746275 0.105374135 0.10607525
000050 28 ec d5 3c ef 2c 5c 3e ec 34 05 3e c6 1d 0c 3e
       0.026113585 0.21501516 0.1300847 0.13683233
000060 58 66 13 bc e0 d5 ed bb 4e 7c e8 3d 68 41 1a 3e
       -0.008996569 -0.007258162 0.11351834 0.15064013
000070 84 29 ed 3c 26 3d 75 3d 6d 6d 74 3d 00 41 9e ba
       0.02895046 0.05987277 0.05967467 -0.0012073815
000080 c5 a8 b5 be f5 41 a5 3d 26 d6 4e 3d f2 f0 02 3d
       -0.35480323 0.08069221 0.050497197 0.031968065
000090 26 fd 22 3e 06 e0 29 3d 48 3c 3d bc db 1e 14 3e
       0.15916881 0.04147341 -0.011550017 0.14464895
0000a0 c4 0b bd 3c 1e 1c 78 3d 14 c5 06 3d 78 a1 1f bc
       0.0230769 0.06057369 0.032902792 -0.009743087
0000b0 44 05 c8 3c 45 97 e5 3c 53 3f 94 3d a4 4b 93 3d
       0.024416573 0.028026232 0.07238641 0.07192162
0000c0 cc eb 09 3e 98 47 55 bc 7e 32 34 3b fa df 4c 3e
       0.13468856 -0.013017558 0.0027495916 0.20007315
0000d0 ed d9 e4 3d 10 fa 8a bc c8 44 48 3e 84 b8 10 3f
       0.111743785 -0.016964942 0.19557488 0.5653155
0000e0 29 df e0 3d 89 ac 0b 3d 56 92 e5 bc 64 91 f0 3c
       0.109800644 0.03410009 -0.02802388 0.029366203
0000f0 43 f1 65 3d 73 4a 8d bd 9f f0 f6 3d 4b b5 a7 3d
       0.05613829 -0.06898966 0.120576136 0.08188876
000100 67 10 e3 3d 45 01 6e bd 59 bc 17 3d 35 7d 49 3f
       0.11087113 -0.05810668 0.037044857 0.78706676
000110 bc 93 82 bd 68 a1 ee 3d f0 48 db bb 24 0e af bd
       -0.06375834 0.116518795 -0.0066920444 -0.08547619
000120 26 f1 66 3d 07 fa b4 3d 29 c4 ad bd 08 fe 3b bc
       0.05638232 0.088367514 -0.0848468 -0.01147414
000130 51 b8 b0 bd c2 be 0b 3d 30 91 d1 3d 84 f4 1b 3e
       -0.086289056 0.034117468 0.102327704 0.15229994
000140 4f f1 9c 3d c7 f1 74 3e 56 dd 29 3d 9c 8b 87 bc
       0.076632135 0.23920356 0.041470848 -0.016546063
000150 a6 c7 5b 3d 35 dc ef 3c 92 5e da 3d a9 be 02 3e
       0.053657196 0.029279808 0.10662569 0.12768044
000160 c9 60 40 3e 35 7a 0e bc 03 d5 44 3d 13 37 24 bf
       0.1878692 -0.008696129 0.048054706 -0.64146537
000170 67 bf 10 bf 34 04 f0 3d b6 e3 34 bf 48 56 fa 3d
       -0.56542057 0.11719552 -0.7065996 0.12223488
000180 4c c4 bc 3b 59 13 05 3e a6 71 6a 3d 86 17 59 3d
       0.005760705 0.12995662 0.05723729 0.05300095
000190 3c eb 92 3c 08 bf 04 3c 39 47 99 bd 13 5b 1c 3e
       0.017934434 0.008102186 -0.07484288 0.15269117
0001a0 ce 25 55 3c e7 c7 24 3e 74 d9 92 bd ed b7 8e 3d
       0.013009502 0.16091882 -0.07170382 0.06968675
0001b0 60 53 02 bd c7 b8 33 3e d4 02 37 bd 23 5a 5b bd
       -0.031817794 0.17550956 -0.04468043 -0.053552758
0001c0 8f 48 90 3d f2 80 10 3e c9 82 df 3d 10 f7 da bb
       0.070450895 0.14111689 0.10913617 -0.006682284
0001d0 00 55 48 3b 7b 9b a6 3d a8 49 c2 3d db 1f e9 be
       0.0030568242 0.08135124 0.09486705 -0.45532116
0001e0 1e 4b 03 bd d6 06 f1 3c 8a b2 89 bd 8f 8b cd 3d
       -0.03205406 0.029422205 -0.06723507 0.10036384
0001f0 b6 0e 23 3e 71 b1 26 3e e6 c0 25 3d 9d 66 a6 3d
       0.1592358 0.16278626 0.040467165 0.08125041
