backups/2022-06-03/best-model-5.pt (torch, 4687 bytes, 7 tensors)

lstm.weight_ih_l0 f4 [8, 6]
0	0x3ee7f3fb	0.4530333
1	0xbd88fa55	-0.06688372
2	0xbed33532	-0.41251522
3	0x3e021755	0.12704213
4	0xc03049c6	-2.7545028
5	0x3f225be5	0.6342147
6	0x3fa36659	1.2765609
7	0x3e94d313	0.29067287
8	0xbfd395d7	-1.6530102
9	0xbfa68033	-1.3007873
10	0x3ec933c6	0.39297312
11	0xbfc04fc5	-1.5024344
12	0x39d45000	0.00040495396
13	0x3ed8ce1e	0.42344755
14	0x3f1ff10b	0.6247718
15	0x3f02547d	0.5091017
16	0x3f044a95	0.51676303
17	0xbefb83ce	-0.49123996
18	0x3db38d90	0.08767235
19	0xbdcbac80	-0.09945011
20	0xbf1dc89b	-0.61634225
21	0x3e86709e	0.26257795
22	0x3f03c147	0.5146679
23	0xbed9efe0	-0.42565823
24	0x3db9949b	0.09061547
25	0x3d990a26	0.07472639
26	0x3f6379aa	0.8885752
27	0xbceb9656	-0.02875821
28	0x3df44ae1	0.119283445
29	0xbe2e1b05	-0.17002495
30	0x3f29579e	0.6614932
31	0xbe744942	-0.2385607
32	0x3fa2dfc7	1.2724541
33	0xbe7eb2cc	-0.24872893
34	0x3f0679a4	0.5252936
35	0x3f851e63	1.0399898
36	0xbf7d103c	-0.98852897
37	0xbc81e232	-0.015854929
38	0xbf9bb71f	-1.2165259
39	0xbd445d76	-0.047940694
40	0xbf858413	-1.0430931
41	0x3f1965a2	0.59920704
42	0x3f6c3cf5	0.92280513
43	0x3f21340d	0.6297005
44	0xbf7feb6c	-0.999686
45	0x3e147db0	0.14501071
46	0x3f5a456c	0.8526218
47	0xbfdfdb9f	-1.7488898

lstm.weight_hh_l0 f4 [8, 2]
0	0xbe30cb48	-0.17265046
1	0xbef30ba4	-0.4746982
2	0x3eb75e0a	0.35813934
3	0x3f02f8b9	0.5116077
4	0xbf1f3c07	-0.6220097
5	0x3f2fc365	0.68657523
6	0xbba60200	-0.0050661564
7	0x3ebae156	0.36500043
8	0x3e1e8bd8	0.15483034
9	0x3e950350	0.2910409
10	0xbeda9871	-0.4269443
11	0x3ee1ddd2	0.44114548
12	0xbebe7a10	-0.372025
13	0xbea3335c	-0.31875122
14	0xbe6d8afc	-0.2319755
15	0x3d28cf90	0.041213572

lstm.bias_ih_l0 f4 [8]
0	0xbf05242c	-0.5200832
1	0xbe9c47d8	-0.30523562
2	0xbf09283a	-0.53577006
3	0x3dbef0e0	0.09323287
4	0x3f63dc8e	0.89008415
5	0xbf695473	-0.91144484
6	0x3f492676	0.7857431
7	0xbf8d3b8e	-1.10338

lstm.bias_hh_l0 f4 [8]
0	0xbf5ad104	-0.8547518
1	0xbfb308f4	-1.3987107
2	0x3ebea93a	0.37238485
3	0xbe8739ba	-0.2641123
4	0x3fc8ae83	1.5678257
5	0xbea38a46	-0.31941432
6	0x3e03a116	0.12854418
7	0xbf058d29	-0.5216852

fc_1.weight f4 [128, 2]
0	0x3ee0368a	0.4379161
1	0xbed9be9e	-0.42528242
2	0xbd34d300	-0.044146538
3	0xbe93971a	-0.2882622
4	0xc10d957b	-8.848994
5	0x3eb785ff	0.35844418
6	0xbeaa686a	-0.33282787
7	0xbf338e0b	-0.70138615
8	0xbe1ee2e3	-0.15516238
9	0xbe6f9956	-0.23398337
10	0xbf3aa038	-0.72900724
11	0xbe92392e	-0.2855925
12	0xbe4f9a99	-0.20273818
13	0xbe24cc6c	-0.16093606
14	0xc0edd18d	-7.43183
15	0xbf1d848b	-0.6153037
16	0xbfaa3b71	-1.329939
17	0xbdbcb080	-0.09213352
18	0xbda6d1a8	-0.081454575
19	0xbfc204d6	-1.5157726
20	0xbe3c23ff	-0.18373106
21	0xbdd38b14	-0.103292614
22	0xbe99e5e9	-0.3005822
23	0xbf06b698	-0.52622366
24	0xbeb49a4c	-0.3527397
25	0x3da68f20	0.08132768
26	0x3dd553a8	0.10416347
27	0x3d0b3d40	0.03399396
28	0xbe9af1f9	-0.30262735
29	0x3db3dae0	0.087819815
30	0xbf8b3414	-1.0875268
31	0xbd657904	-0.056023613
32	0xbfb5fb15	-1.4217249
33	0xbf167d94	-0.58785367
34	0xc24474f4	-49.114212
35	0xbfb04493	-1.3770927
36	0xbf9f2a9d	-1.243488
37	0x3da01289	0.07816035
38	0xbda90388	-0.08252627
39	0xbe302b1a	-0.17203942
40	0x3eb13a67	0.3461487
41	0xbf4bb78f	-0.79576963
42	0xbf208cfa	-0.62715113
43	0xbee4bced	-0.4467539
44	0xbea41d0e	-0.32053417
45	0xbe36adf5	-0.17839797
46	0x3ec0a57a	0.3762625
47	0xbb91f3dc	-0.004454119
48	0xbf5b270c	-0.85606456
49	0xbf04ef73	-0.5192787
50	0xbe715bc4	-0.23570162
51	0x3ed13a46	0.40864772
52	0x3e79b4bd	0.24385352
53	0xbf5c6e2f	-0.86105627
54	0xbf283fc3	-0.6572229
55	0xbe8bcae2	-0.27303225
56	0xbf05548f	-0.5208215
57	0xbd7a9990	-0.061181605
58	0xc0b345da	-5.602277
59	0xbf96835b	-1.1758837
60	0xc0ef9ee3	-7.4881454
61	0xbf979849	-1.1843349
62	0xbea24a71	-0.3169742
63	0xbea343e1	-0.31887725
64	0xc01557e4	-2.3334894
65	0xbfaa3597	-1.3297604
66	0x3e07a379	0.13245954
67	0xbe27ed20	-0.1639905
68	0xbd8c10e8	-0.06839162
69	0xbf047c6e	-0.51752365
70	0xbe8028ad	-0.25031033
71	0xbe9007a2	-0.28130823
72	0xc11e65a8	-9.899818
73	0xbf6b5c36	-0.9193758
74	0xc05c2396	-3.439672
75	0xbe075ed9	-0.13219775
76	0xbe13d7a9	-0.14437737
77	0x3d50431d	0.050845254
78	0xc12c6224	-10.77396
79	0xbfa2b0f7	-1.2710255
80	0xbf5a0da6	-0.85177076
81	0xbf5b63a8	-0.8569894
82	0xbe2c6b14	-0.16837722
83	0xbf9224c1	-1.1417466
84	0x3cfb99ef	0.03071305
85	0x3e5496f7	0.20760714
86	0xbff100d5	-1.8828379
87	0xbeb7393b	-0.3578585
88	0xbe5d0792	-0.21584919
89	0xbebc0999	-0.36726072
90	0xbdff1c70	-0.12456596
91	0x3bf15900	0.007365346
92	0xbdcf9ab0	-0.10136926
93	0xbe99de4a	-0.30052406
94	0xbf1aafbc	-0.604244
95	0xbec53e7c	-0.38524234
96	0xbeca15ee	-0.39469856
97	0xbf0da2a8	-0.5532632
98	0xbef681cc	-0.48145902
99	0xbe98aa88	-0.29817605
100	0xbe9bc62e	-0.30424637
101	0xbe83025e	-0.25587744
102	0x3c44e316	0.012017032
103	0xbf8a9aa2	-1.082844
104	0xbf208114	-0.6269696
105	0xbe3279d8	-0.17429292
106	0xbf8b31d3	-1.087458
107	0x3e094c56	0.13408026
108	0xbe021fa1	-0.12707378
109	0xbde87f40	-0.11352396
110	0xbf94c714	-1.1623254
111	0xbf98cc1a	-1.1937287
112	0xbf8e2d8c	-1.110765
113	0xbea622e9	-0.3244851
114	0xbe088762	-0.13332894
115	0xbf5b36ef	-0.85630697
116	0xbe0c0be6	-0.13676414
117	0xbddb248e	-0.10700332
118	0xbef5df7b	-0.48022065
119	0x3f7d4ed1	0.9894839
120	0x3dfd5888	0.123704016
121	0xbf54bd8c	-0.83101726
122	0xbfa0f37a	-1.2574303
123	0xbe121fb1	-0.14269902
124	0xbeb241d9	-0.34815863
125	0x3e2bc948	0.16776001
126	0xbe09e203	-0.13465123
127	0xbf4a212c	-0.78956866
128	0x3e8fafce	0.28063816
129	0x3f5a409d	0.8525484
130	0xbf4634f3	-0.77424544
131	0xbebff62b	-0.374925
132	0xbece1dd6	-0.40257138
133	0xbf905fbb	-1.1279215
134	0x3eb1a1cd	0.34693757
135	0xbf143955	-0.5789998
136	0xbe68389d	-0.22677846
137	0x3dec3c89	0.11534984
138	0x3ddb06f8	0.106946886
139	0xbe917f9a	-0.28417665
140	0xc113b211	-9.230973
141	0xbf8c253d	-1.0948864
142	0xbf229162	-0.63503087
143	0x3e66abc4	0.22526461
144	0xbe01626a	-0.12635198
145	0x3f177684	0.59165215
146	0xbf1b6104	-0.6069491
147	0x3f0a7ba7	0.5409493
148	0xbf6cbaae	-0.9247235
149	0xbf161ced	-0.5863789
150	0xbea4c6fd	-0.32183066
151	0xbcd27a85	-0.025693187
152	0xc193b0e2	-18.461369
153	0xbf0cbd94	-0.54976773
154	0xbd885600	-0.06657028
155	0xbded9ef8	-0.116025865
156	0xc06d7498	-3.7102413
157	0xbf6d33f1	-0.9265738
158	0x3dd737bb	0.105086766
159	0xbeefdcc6	-0.46848124
160	0x3ee7c95e	0.45270818
161	0xbde568c0	-0.1120162
162	0xbe62b758	-0.22140253
163	0x3e9fa84e	0.31183094
164	0xbf5826e7	-0.8443436
165	0xbeead0e6	-0.45862502
166	0xc223d5a6	-40.95864
167	0xbf981eae	-1.1884363
168	0xbf31755e	-0.69319713
169	0xbf26ada7	-0.6510872
170	0xc1d7b586	-26.963634
171	0xbe9e36a7	-0.3090107
172	0xbf67b09c	-0.9050386
173	0xbf8f8136	-1.1211307
174	0xc0348680	-2.8207092
175	0xbf3215bf	-0.6956443
176	0xbe6d6a71	-0.23185135
177	0xbf287691	-0.6580592
178	0xbf2b7106	-0.66969335
179	0x3f4f1695	0.8089383
180	0xbe9d0464	-0.30667412
181	0x3e1d0688	0.15334523
182	0xbeba5358	-0.3639171
183	0x3f13dc31	0.5775786
184	0xbf76e89b	-0.9644868
185	0xbf9fb309	-1.2476512
186	0xbee84f80	-0.45373154
187	0xbd916042	-0.07098438
188	0xbdc7c18a	-0.097537115
189	0xbf3a8a9d	-0.7286776
190	0xbecbe2b3	-0.39821395
191	0xbf1ccd89	-0.6125112
192	0x3d0b5750	0.034018815
193	0x3e3cc4b0	0.18434405
194	0xbe8af18c	-0.2713741
195	0x3e35b2e0	0.17744017
196	0xbf249931	-0.6429625
197	0xbf7fe242	-0.9995462
198	0xbe5f4e2e	-0.21807167
199	0x3e2e01d7	0.1699289
200	0x402c9d87	2.6971147
201	0x3e5fb0c5	0.21844776
202	0xbf82fd03	-1.0233463
203	0xbe9899f7	-0.29804966
204	0xbeb5d25f	-0.35512063
205	0x3f2cf7f9	0.67565876
206	0xc0416930	-3.0220451
207	0xbec6e225	-0.3884441
208	0x3e31f69c	0.1737923
209	0x3ef4b722	0.4779597
210	0xbdee46f2	-0.116346255
211	0xbe8ab677	-0.27092335
212	0xbf5bc1fa	-0.8584286
213	0xbda937b7	-0.0826258
214	0xbe9c8c78	-0.3057592
215	0xbed1d18e	-0.4098019
216	0xbf8250bf	-1.0180892
217	0x3f3249b1	0.69643694
218	0xbe75ace7	-0.23991738
219	0xbeb295f5	-0.34880033
220	0xbe235de4	-0.15953785
221	0xbea8b9a1	-0.32954124
222	0xbe0aaf94	-0.1354354
223	0xbf97b0e0	-1.1850853
224	0xbf253be5	-0.64544517
225	0x3dc15c89	0.09441478
226	0xbec42fad	-0.38317624
227	0xbef1885e	-0.47174352
228	0xbf041ece	-0.51609504
229	0x3f1af777	0.6053385
230	0x3fc6b514	1.5524011
231	0xbead6759	-0.3386791
232	0xbeec712e	-0.461801
233	0xbf593925	-0.8485282
234	0xbee39bda	-0.44454843
235	0x3f243f6d	0.6415928
236	0xbeaef3f5	-0.341705
237	0x3e2246aa	0.15847269
238	0xbf5e807a	-0.8691479
239	0xbedc677f	-0.4304771
240	0xbe8f528d	-0.2799267
241	0x3ec88080	0.39160538
242	0xbea9ece9	-0.3318856
243	0xbb778e18	-0.0037773903
244	0x3ee7f1e4	0.45301735
245	0x3f4440ef	0.7666158
246	0xbe078c03	-0.13237004
247	0x3ec33967	0.38129732
248	0xbe21a358	-0.15784967
249	0x3e17a956	0.1481069
250	0x3ec65626	0.387376
251	0xbe553774	-0.20821935
252	0xbf007e67	-0.50192875
253	0x3e2934d2	0.16524056
254	0x3e8ccbdb	0.2749928
255	0x3ede086a	0.43365794

fc_1.bias f4 [128]
0	0xbf33c8d7	-0.7022833
1	0xba82b8c8	-0.0009973282
2	0xbdede760	-0.11616397
3	0xbf372896	-0.71546304
4	0xbb03ebb0	-0.0020129494
5	0xbd1ea972	-0.038735814
6	0xbc8787f2	-0.016544316
7	0xbd93225e	-0.071842894
8	0xbf308567	-0.68953556
9	0xba836f4b	-0.0010027675
10	0xbae4a545	-0.0017444274
11	0xbe27fc60	-0.16404867
12	0xbef5d91f	-0.48017213
13	0xbeec456e	-0.4614672
14	0xbe0f57d0	-0.13998342
15	0xbf318554	-0.6934407
16	0xbe838f5d	-0.25695315
17	0x3dceee23	0.10104015
18	0xbf412749	-0.7545057
19	0xba8439f7	-0.0010088076
20	0xbf0fec6d	-0.5622013
21	0xbecd56f8	-0.40105414
22	0xbb9bdd5f	-0.004756614
23	0xbebfc3e4	-0.3745414
24	0xbf38072a	-0.7188593
25	0xbf3299d2	-0.6976596
26	0xbf219771	-0.63121706
27	0xbf004a8d	-0.50113755
28	0xbe0224c0	-0.12709332
29	0xbd20669e	-0.039160363
30	0x3d95c616	0.073131725
31	0xbf1b60f7	-0.6069483
32	0xbd1f348f	-0.038868483
33	0xbe1b1e9c	-0.15148395
34	0xbe61ca50	-0.22049832
35	0xbb2252ee	-0.0024768668
36	0x3dc660b7	0.09686416
37	0xbd010b2d	-0.0315048
38	0xbf7a10d9	-0.9768196
39	0x3e5dcc33	0.21659927
40	0xbef59b13	-0.47969875
41	0xbf483746	-0.7820934
42	0xbf3cf134	-0.73805547
43	0xc01d85f7	-2.4613016
44	0xbe6eef80	-0.2333355
45	0xbeae2ee5	-0.34020153
46	0xbe902f73	-0.281612
47	0xbeaaafaa	-0.33337146
48	0xbf1e6115	-0.61866885
49	0xbf18a133	-0.5962097
50	0x3ca1efd8	0.019767687
51	0xbf1408f3	-0.57826155
52	0xbe69582e	-0.22787544
53	0xbccfe2dd	-0.025376732
54	0xbacbae76	-0.0015539664
55	0xbf3fb25a	-0.7488152
56	0xbf0b2462	-0.5435239
57	0xbaf5ce99	-0.0018753588
58	0xbf1f3d07	-0.62202495
59	0x3ede9847	0.43475553
60	0xbef7d4ff	-0.4840469
61	0x3e54dbf3	0.20787029
62	0xbf08f429	-0.5349756
63	0xbbf8a9e0	-0.00758861
64	0xbf354f27	-0.708239
65	0xbf45227c	-0.77005744
66	0xbf2fda4a	-0.6869246
67	0xbef62a8f	-0.48079345
68	0xbed691a1	-0.4190798
69	0xbf0c0d20	-0.5470753
70	0x3e3bcd11	0.18339945
71	0xbf0d14af	-0.55109686
72	0x3d974282	0.07385732
73	0xbeea67e6	-0.45782393
74	0xbed05cce	-0.40695804
75	0x3d9b01e1	0.07568718
76	0x3ec6387f	0.38714978
77	0xbf09e30f	-0.5386209
78	0xbdc0360a	-0.09385307
79	0xbf89aaea	-1.0755284
80	0xbec46939	-0.3836153
81	0xbf34ea38	-0.7066989
82	0xbf048654	-0.5176747
83	0x3d9b70d0	0.07589877
84	0xbf0c3adb	-0.54777306
85	0xbdfd25dd	-0.123607375
86	0xbf1999d4	-0.6000035
87	0x3ef04323	0.4692622
88	0xbc83012f	-0.015991775
89	0xbf82cec9	-1.0219356
90	0xbefd4a90	-0.4947095
91	0xbee71452	-0.4513269
92	0xbf43d701	-0.76499945
93	0xbf2e36de	-0.6805247
94	0xba66c1f7	-0.0008802707
95	0xbd1a6760	-0.037696242
96	0xbf1e1c16	-0.61761606
97	0xbe0d11f8	-0.13776386
98	0xbf24aeb4	-0.64329076
99	0xbb01d621	-0.0019811469
100	0xbfc7eb6d	-1.5618721
101	0xbed11e8e	-0.40843624
102	0xbc38a9b3	-0.011270928
103	0xbd7ab36b	-0.061206263
104	0xbf0cc40c	-0.54986644
105	0xba850494	-0.0010148459
106	0xbf500b5a	-0.8126732
107	0xbf0c5685	-0.5481952
108	0xbd745cd2	-0.059658833
109	0xbf0847ec	-0.53234744
110	0xbe92186a	-0.2853425
111	0xbf1dac7b	-0.6159131
112	0xbe25ec8b	-0.16203515
113	0xbf3bbe0a	-0.7333685
114	0xbecd1c9c	-0.4006089
115	0xbedc02df	-0.4297094
116	0xbf284f74	-0.65746236
117	0x3f3cb594	0.73714566
118	0xbc3c18a3	-0.011480483
119	0xbf3cfe2c	-0.73825336
120	0xbc4e67aa	-0.012597958
121	0xbe0c6111	-0.13708903
122	0xbeec0650	-0.46098566
123	0xbaa65461	-0.0012689942
124	0xbac5581c	-0.0015056166
125	0xbf18526e	-0.5950078
126	0xbf0e5706	-0.5560154
127	0xbe8d59b8	-0.27607512

fc.weight f4 [1, 128]
0	0x3d5b761e	0.053579442
1	0xba674931	-0.0008822857
2	0x3ec701e2	0.38868624
3	0x3eb2a28a	0.34889632
4	0xbb1afb49	-0.0023648313
5	0x3c8ac33d	0.0169388
6	0xba1b8020	-0.0005931873
7	0xbe0a83f1	-0.13526894
8	0x3e9e15e7	0.30876085
9	0xbafcc56c	-0.001928491
10	0xbb3cf4e8	-0.00288325
11	0xbd619884	-0.05507709
12	0xbc736cd8	-0.014857493
13	0x3d128292	0.035769053
14	0xbd51fd62	-0.051267035
15	0x3e9ac77f	0.30230328
16	0x3e4183d6	0.18897948
17	0x3fb30f6f	1.3989085
18	0x3f19a9d9	0.6002479
19	0xbafdf3b1	-0.0019374994
20	0xbed0fb2e	-0.40816635
21	0xbc0e1360	-0.008671612
22	0xbc200f3e	-0.009769259
23	0xbea6fdd4	-0.3261553
24	0x3e950928	0.29108548
25	0x3d9534e5	0.072854795
26	0xbeba82c2	-0.36427885
27	0xbce1cdfa	-0.027564038
28	0xbd8654e5	-0.06559161
29	0xbdbc6281	-0.09198476
30	0xbe24e93f	-0.16104601
31	0x3f047857	0.51746124
32	0xbd668dc1	-0.05628753
33	0xbdaf3566	-0.08555107
34	0xbd46200a	-0.0483704
35	0xbbe149c5	-0.006875249
36	0xbe74ac00	-0.23893738
37	0xbd5cdeb9	-0.053923342
38	0x3f15384f	0.58289045
39	0x3e169a6b	0.14707343
40	0x3e3be1bb	0.18347828
41	0x3f197893	0.59949607
42	0xbdf796b7	-0.120892935
43	0xc00e2de8	-2.221552
44	0x3c228ca0	0.009921223
45	0x3c650ec8	0.013980575
46	0xbd10da72	-0.035364576
47	0xbd6baf99	-0.05754051
48	0xbd7d59ae	-0.061853103
49	0x3d58dda2	0.05294574
50	0xbcc2626a	-0.023728568
51	0xbed11c18	-0.40841746
52	0xbd9036b9	-0.070416875
53	0xbbd0454d	-0.0063559175
54	0xbb5b16d3	-0.0033430352
55	0x3ec5085e	0.38482946
56	0xbf01c2d7	-0.50687927
57	0xbb364464	-0.002781176
58	0x3f10ff4f	0.5663957
59	0x3e822df8	0.25425696
60	0xbe8e3f7f	-0.2778282
61	0x3ddb01ba	0.10693689
62	0xbeeae282	-0.45875937
63	0xbaf5ca32	-0.0018752276
64	0xbe830d6d	-0.2559618
65	0x3ed5dd6e	0.417705
66	0x3f0605fb	0.52352875
67	0xbe7e5741	-0.24837972
68	0xbecf6815	-0.40509096
69	0x3c8fc4d0	0.017549902
70	0x3dc081b7	0.09399741
71	0xbd70507d	-0.05867051
72	0x3c8cde6c	0.017195903
73	0xbcf3fc76	-0.029783469
74	0x3f118030	0.56836224
75	0x3ba9694f	0.0051700245
76	0x3f4041e2	0.7510053
77	0xbd86ae63	-0.065762304
78	0xbd6e748e	-0.058216624
79	0x3f17ddc4	0.5932276
80	0xbd95e46b	-0.07318958
81	0xbdb484ac	-0.08814368
82	0x3f1768f7	0.5914454
83	0x3f801fd0	1.0009708
84	0xbcd657a4	-0.026164837
85	0x3f3e8141	0.74415976
86	0x3f0146e6	0.5049881
87	0x3eb0409f	0.34424302
88	0xbd1f7d02	-0.038937576
89	0x3f0f6da4	0.56026673
90	0xbd7f1e1e	-0.06228458
91	0xbd33af02	-0.043868072
92	0x3ecbe771	0.39825013
93	0x3f194f41	0.59886557
94	0xbb06016a	-0.002044762
95	0xbca31090	-0.019905359
96	0x3d398a6a	0.045298018
97	0xbd13542e	-0.035968952
98	0x3e8d105e	0.2755155
99	0xbb33bb15	-0.0027424742
100	0xbf2bc48f	-0.670968
101	0x3f118ce3	0.568556
102	0xbb91eb69	-0.004453112
103	0xbd5d266f	-0.05399173
104	0x3dadce13	0.08486571
105	0xbb30d0ba	-0.002697988
106	0x3f173129	0.5905939
107	0xbd333664	-0.043753043
108	0xbcd9e725	-0.026599476
109	0x3f069220	0.5256672
110	0x3da4d74d	0.08048878
111	0x3eecf005	0.4627687
112	0x3c64ad97	0.013957403
113	0xbe57120d	-0.2100298
114	0x3ccf8260	0.025330722
115	0xbe922301	-0.2854233
116	0x3f0db327	0.5535149
117	0x3efc2e23	0.4925395
118	0xbc262e53	-0.0101428805
119	0x3eca294e	0.39484638
120	0xbb895b88	-0.0041918196
121	0xbd41f2dd	-0.047350753
122	0x3e797ae7	0.2436329
123	0xbaead145	-0.001791515
124	0xbaed9527	-0.0018126116
125	0xbd1475b5	-0.036245067
126	0xbe9f74d5	-0.31143823
127	0xbe886c00	-0.26644897
