backups/2022-05-20/best-model-3.pt (torch, 4623 bytes, 7 tensors)

lstm.weight_ih_l0 f4 [8, 4]
0	0x3e773bf3	0.24143963
1	0xbd5a0973	-0.053231668
2	0x3f0eda3b	0.55801743
3	0x3ef41ab0	0.4767661
4	0xbe1145a7	-0.14186727
5	0x3baeaa2e	0.0053303456
6	0x3d49493e	0.049142115
7	0x3f82f41f	1.023075
8	0xbe8badd9	-0.27281073
9	0x3d8ad788	0.067793906
10	0x3eecf216	0.46278447
11	0xbefb2cbe	-0.49057573
12	0xbea108e1	-0.31452087
13	0x3f0f3365	0.55937797
14	0xbc076040	-0.008262694
15	0x3ef0d092	0.47034127
16	0x3f2a0dfc	0.6642759
17	0xbd02c9ae	-0.031930618
18	0xbd1944b2	-0.03741903
19	0xbdb9020e	-0.09033595
20	0xbfef18bd	-1.8679425
21	0x3db66842	0.08906604
22	0x3e574402	0.21022037
23	0x3f3be2b5	0.733928
24	0x3d993e35	0.07482568
25	0x3cf005a3	0.029299563
26	0xbe7d84f5	-0.2475775
27	0x3f704e9a	0.93869936
28	0xbee4e912	-0.4470907
29	0x3c2c56dc	0.010518756
30	0xbf0e52f5	-0.5559533
31	0xbf37123c	-0.715122

lstm.weight_hh_l0 f4 [8, 2]
0	0xbdbe6d88	-0.09298235
1	0xbb5e1500	-0.0033887029
2	0x3e8904e2	0.26761538
3	0x3e4aeb00	0.19816208
4	0x3eb90c22	0.3614207
5	0xbf1a72b1	-0.60331255
6	0xbf20e44c	-0.62848353
7	0xbd38d0a0	-0.045120835
8	0x3e0d4528	0.13795912
9	0xbd3fc7d0	-0.046821415
10	0xbe676f0a	-0.22600952
11	0x3ed42cbe	0.41440386
12	0xbcd4c520	-0.025972903
13	0xbf318415	-0.69342166
14	0x3ece6002	0.40307623
15	0xbe3227dc	-0.17398018

lstm.bias_ih_l0 f4 [8]
0	0xbd7075c3	-0.058706056
1	0x3ef8fcec	0.48630464
2	0x3cf881e0	0.030335367
3	0x3ea0d32e	0.31411117
4	0x3f5347a9	0.8253122
5	0x3e808bfc	0.251068
6	0x3ec194ae	0.37808746
7	0xbea9dd5b	-0.33176693

lstm.bias_hh_l0 f4 [8]
0	0x3ec2d30d	0.38051644
1	0xbd17b913	-0.037041735
2	0x3e49f1e8	0.19721186
3	0x3f27cd5d	0.65547734
4	0x3f86f4fa	1.0543511
5	0x3ed23ed5	0.41063562
6	0x3eb3e379	0.35134485
7	0xbeb602b2	-0.3554893

fc_1.weight f4 [128, 2]
0	0xbf11f594	-0.5701535
1	0x3e665c21	0.22496082
2	0xbdb58798	-0.08863753
3	0x3df6c6d0	0.12049639
4	0xbee58435	-0.44827428
5	0xbe5561d4	-0.208381
6	0x3f5335b4	0.8250382
7	0x3e7b6ae9	0.24552502
8	0xbf1a31cb	-0.6023223
9	0x3f07f7b7	0.5311236
10	0x3c8778e0	0.01653713
11	0x3ee195f2	0.44059712
12	0xbe1464a4	-0.14491516
13	0x3eeeb9d2	0.46626145
14	0x3ded7c78	0.11596006
15	0xbe61c474	-0.22047597
16	0xbe88787e	-0.26654428
17	0x3e1b7bb8	0.15183914
18	0x3efcec04	0.49398816
19	0x3d891481	0.06693364
20	0x3f247c5a	0.64252245
21	0x3cfe5274	0.031045176
22	0xbef83b29	-0.48482636
23	0xbeb8ace7	-0.36069414
24	0x3dbfbd00	0.09362221
25	0xbcd527a0	-0.026019871
26	0xbedb1163	-0.42786703
27	0x3f1dfd4f	0.61714643
28	0xbea95a73	-0.3307682
29	0xbdafdbc3	-0.08586838
30	0xbe74e56e	-0.23915645
31	0x3d965807	0.07341009
32	0x3f682a2d	0.90689355
33	0xbf220945	-0.63295394
34	0xbe4e6e84	-0.20159346
35	0x3edc99d2	0.43086106
36	0x3b5a9d00	0.003335774
37	0x3c0ba100	0.008522272
38	0xbd898835	-0.067154326
39	0xbf158024	-0.5839865
40	0xbe8a6859	-0.27032736
41	0x3df61e90	0.12017548
42	0xbbbe5a41	-0.005809099
43	0x3e00a34d	0.12562294
44	0x3f1e5915	0.6185468
45	0xbcbeb055	-0.023277441
46	0xbf092c5e	-0.53583324
47	0x3ea77fba	0.32714635
48	0x3e07a399	0.13246001
49	0xbee5786c	-0.44818437
50	0xbf1c294e	-0.61000526
51	0xbed11848	-0.40838838
52	0xbee2ab61	-0.44271377
53	0xbf2d0ba9	-0.67595917
54	0xbdf0e5b3	-0.11762562
55	0x3daf17f1	0.08549488
56	0x3eac0953	0.33600864
57	0xbe87c261	-0.26515487
58	0xbec7bb0c	-0.39009893
59	0x3f32ab35	0.6979249
60	0x3efb1b5f	0.4904432
61	0xbf3582d6	-0.70902765
62	0x3f0ff4e3	0.5623304
63	0x3f0dfad1	0.5546084
64	0x3e6b8d66	0.23003158
65	0x3f3c2697	0.73496383
66	0x3f51fd7d	0.8202742
67	0xc001892d	-2.0239975
68	0xbd364aab	-0.044504803
69	0x3f1ae88a	0.60511076
70	0xbeded4b6	-0.4352166
71	0xbe66b369	-0.22529377
72	0xbedd2144	-0.43189442
73	0x3ddbc330	0.107305884
74	0x3f0fb71c	0.5613878
75	0xbf06b754	-0.52623487
76	0xbe448000	-0.19189453
77	0xbd6db200	-0.058031082
78	0x3eb1e2ff	0.34743497
79	0x3e45e065	0.19323881
80	0xbe4ced5e	-0.20012423
81	0x3f40ef46	0.753651
82	0x3f6289f0	0.88491726
83	0x3ebf7173	0.37391242
84	0x3d1f547f	0.03889894
85	0x3e45155f	0.19246434
86	0xbee7c4d5	-0.45267358
87	0x3c97d2a0	0.018533051
88	0x3f32b141	0.6980172
89	0x3f3477ed	0.7049549
90	0xbe93f470	-0.2889743
91	0x3f33b326	0.70195234
92	0x3d7f1e41	0.06228471
93	0xbed464ca	-0.41483146
94	0x3e9321e0	0.28736782
95	0x3e53e278	0.2069186
96	0xbe674d67	-0.2258812
97	0xbf181b2f	-0.5941648
98	0x3f5cbe9c	0.86228347
99	0xbf131c7e	-0.5746535
100	0xbe1f4f28	-0.1555754
101	0xbf31806d	-0.6933659
102	0x3f11ea66	0.5699829
103	0xbeb7bf0e	-0.3588795
104	0xbe0d548f	-0.13801788
105	0x3e685d6c	0.22691888
106	0xbeb8d30e	-0.36098522
107	0x3e3c0fe0	0.18365431
108	0x3e3ea730	0.18618464
109	0xbdcb147d	-0.09916017
110	0x3e25ddf0	0.16197944
111	0xbdb2a268	-0.08722383
112	0x3d509460	0.05092275
113	0xbf12e834	-0.57385564
114	0xbe3997a6	-0.18124256
115	0x3f3bd3f8	0.73370314
116	0x3f3ff329	0.7498041
117	0xc0602f5d	-3.5028908
118	0xbed0e82f	-0.40802142
119	0x3e82adee	0.25523323
120	0xbe078b11	-0.13236643
121	0x3ea5f6fd	0.32415
122	0xbe3a96b7	-0.18221556
123	0x3ee59495	0.44839922
124	0x3cb5e220	0.022202551
125	0xbe3828dc	-0.17984337
126	0xbf160948	-0.5860791
127	0xbefc340b	-0.49258456
128	0x3f08117c	0.5315168
129	0xbf103913	-0.5633709
130	0xbee3b07e	-0.4447059
131	0x3e58f370	0.21186614
132	0x3d28e330	0.041232288
133	0x3f21b133	0.6316101
134	0x3ec4c7fa	0.3843382
135	0xbef2aa18	-0.47395396
136	0xbec9fa25	-0.39448658
137	0x3f23f053	0.6403858
138	0xbd990210	-0.074710965
139	0xbf0d82fc	-0.5527799
140	0xbf0ef85c	-0.55847716
141	0xbcd034cb	-0.025415799
142	0x3e713c28	0.23558104
143	0x3ee19912	0.44062096
144	0xbd0d1730	-0.03444594
145	0xbf2cb704	-0.6746676
146	0xc008ba78	-2.1363811
147	0xbee45099	-0.4459274
148	0x3f0ba415	0.54547244
149	0xbee3b436	-0.44473428
150	0xbf8b0d92	-1.0863516
151	0x3efcdd7a	0.49387723
152	0x3ee11426	0.43960685
153	0xbe3bf8d4	-0.18356639
154	0x3f21a174	0.6313698
155	0x3ea9f1e3	0.33192357
156	0x3dfa7747	0.122297816
157	0x3e711215	0.23542054
158	0xbea8d9ca	-0.3297866
159	0x3ddb6dc0	0.107142925
160	0x3ed68594	0.41898787
161	0xbe36e359	-0.17860164
162	0xbd18a380	-0.0372653
163	0xbeb7d715	-0.35906282
164	0x3eb6fb0d	0.35738412
165	0xbed8ae1c	-0.42320335
166	0xbf1adf2b	-0.6049678
167	0xbee866d3	-0.4539095
168	0x3f06f46e	0.5271672
169	0x3cf447d2	0.029819403
170	0x3f3d8d87	0.7404408
171	0x3c924924	0.017857142
172	0xbe6a78f8	-0.22897708
173	0x3e484224	0.1955648
174	0xbeb240cb	-0.34815058
175	0x3ec243e0	0.3794241
176	0x3e2b38c5	0.16720875
177	0xbed6e534	-0.41971743
178	0xbd08f2c5	-0.033434648
179	0xbdd3c71e	-0.10340713
180	0x3ec7b779	0.39007166
181	0x3f0f68c2	0.5601922
182	0x3d319c60	0.04336202
183	0x3f15c4b7	0.5850329
184	0xbe9b73e9	-0.3036187
185	0x3e944ae2	0.2896338
186	0xbf1d9e2b	-0.6156947
187	0x3de480fc	0.11157414
188	0x3e71e7ea	0.23623624
189	0xbedbe845	-0.42950645
190	0x3f008575	0.5020364
191	0xbf02d700	-0.51109314
192	0xbed485ab	-0.4150823
193	0x3eb2a816	0.34893864
194	0x3e004c00	0.12528992
195	0x3ed2e01e	0.41186613
196	0x3e59bf54	0.21264392
197	0xbe8cd3f0	-0.27505445
198	0xbf297663	-0.6619627
199	0xbe2067ab	-0.15664546
200	0x3f31a673	0.69394606
201	0xbdfa1acc	-0.12212142
202	0x3f0226cd	0.50840455
203	0x3e613f7d	0.21996875
204	0x3ee66532	0.4499908
205	0x3ed2f04a	0.4119895
206	0x3ec14bb6	0.37753075
207	0x3e6702a0	0.22559595
208	0x3f2599c7	0.6468777
209	0x3f10bc3d	0.5653723
210	0x3ec53066	0.38513488
211	0xbf03ad6d	-0.514365
212	0x3f18cbe7	0.5968613
213	0xbfbd10db	-1.4770769
214	0xbe51a03e	-0.20471284
215	0x3ef1821e	0.47169584
216	0xbf317813	-0.69323844
217	0xbe678024	-0.22607476
218	0x3e88a0f5	0.266853
219	0xbdfad19a	-0.122470096
220	0x3ed9bcc2	0.42526823
221	0xbf167f04	-0.5878756
222	0xbda53654	-0.08067003
223	0x3f0d9204	0.5530093
224	0x3d8a89a4	0.06764534
225	0xbf03fb94	-0.5155575
226	0xbf2ad1e3	-0.6672651
227	0xbf173f77	-0.59081215
228	0x3f4fb5cb	0.8113677
229	0x3fce22c6	1.6104362
230	0x3f05bedd	0.5224436
231	0xbcd2e440	-0.025743604
232	0xbf315367	-0.69267887
233	0x3f340d5d	0.7033289
234	0xbe9c79a1	-0.30561545
235	0x3eb94828	0.36187863
236	0xbe24c303	-0.16090016
237	0x3efb2427	0.4905102
238	0xbe7a2a4e	-0.244302
239	0xbeb96f1b	-0.3621758
240	0xbe8a5ce7	-0.27024004
241	0x3e295d08	0.16539395
242	0xbf061d74	-0.5238869
243	0xbeaf50c0	-0.34241295
244	0x3f01ae5a	0.50656664
245	0x3e53bc03	0.2067719
246	0xbe2bb3f4	-0.16767865
247	0x3e4690a7	0.19391118
248	0x3e87e24e	0.26539844
249	0xbe2f9928	-0.17148268
250	0x3cbb9402	0.022897724
251	0x3f2c98d3	0.6742069
252	0xbf4b2ce3	-0.79365367
253	0x3e307d0f	0.17235206
254	0x3eb18104	0.34668744
255	0x3c60de16	0.013724824

fc_1.bias f4 [128]
0	0x3ebaa391	0.36452916
1	0xbeff10c2	-0.49817473
2	0xbcaffd00	-0.021482944
3	0x3d81456a	0.06312068
4	0x3e3b5f9a	0.18298188
5	0xbf11b271	-0.56912905
6	0x3e830ee9	0.25597313
7	0xbefb67fc	-0.4910277
8	0x3e2e334d	0.17011757
9	0x3f08ab09	0.5338598
10	0x3ef52307	0.47878286
11	0x3c5cd173	0.013477671
12	0xbf23d2d6	-0.63993585
13	0x3efd5445	0.49478355
14	0x3e601335	0.21882327
15	0x3f03c00d	0.5146492
16	0x3d7940b2	0.060852714
17	0xbf24598f	-0.64199156
18	0xbdbeea40	-0.093220234
19	0x3ede1485	0.4337503
20	0xbe94b9c4	-0.29047978
21	0x3eb37076	0.35046738
22	0x3ed0fa8c	0.40816152
23	0xbef2ba47	-0.47407743
24	0x3ef6977f	0.48162457
25	0xbeac7746	-0.33684748
26	0xbf04fec6	-0.51951253
27	0x3e751f50	0.23937726
28	0x3ef85e01	0.4850922
29	0x3e7c6772	0.24648836
30	0x3d5a7e27	0.053342965
31	0xbf2c8d4c	-0.674031
32	0x3eb945e1	0.36186126
33	0x3e5c079e	0.2148728
34	0x3e7cda23	0.24692588
35	0x3f3807e8	0.71887064
36	0xbdafc4e0	-0.08582473
37	0x3f1a430a	0.60258543
38	0xbf03db43	-0.5150644
39	0x3e8ccdc1	0.27500728
40	0x3e896fa3	0.26842985
41	0xbdeaa851	-0.11457885
42	0x3f0d90af	0.55298895
43	0x3f1054ed	0.56379586
44	0xbf22241a	-0.63336337
45	0x3e9471d5	0.28993097
46	0x3f52b966	0.82314146
47	0xbf262124	-0.6489432
48	0x3e226128	0.15857375
49	0x3d5553eb	0.052081984
50	0xbe3871f4	-0.1801222
51	0x3ee33b9c	0.44381416
52	0x3ea913db	0.3302296
53	0xbdf68d78	-0.12038702
54	0x3e74b008	0.23895276
55	0xbe85316e	-0.26014274
56	0xbe1441f4	-0.14478284
57	0x3eae9151	0.34095243
58	0xbe1568e4	-0.14590794
59	0x3da351ed	0.079746105
60	0x3f0107e3	0.5040266
61	0x3efeb58b	0.4974788
62	0xbea07ed1	-0.31346753
63	0xbbd8dbca	-0.006617998
64	0x3eead071	0.45862153
65	0xbec1286b	-0.3772615
66	0xbeb9d852	-0.36297852
67	0xbf2e2608	-0.6802678
68	0x3ef912ab	0.48647055
69	0xbe99f27c	-0.30067813
70	0x3f08d1a0	0.5344486
71	0xbf161f1c	-0.5864122
72	0xbf1f616d	-0.62258035
73	0x3e9eb918	0.3100059
74	0x3f32a677	0.69785255
75	0xbc878e6f	-0.01654741
76	0xbf293750	-0.66100025
77	0xbd99fa51	-0.07518447
78	0xbe0a6a02	-0.13517001
79	0xbe2c1f14	-0.1680873
80	0xbba031e6	-0.004888761
81	0xbe936d5f	-0.2879438
82	0x3ec8a21c	0.3918618
83	0xbd54c7e0	-0.05194843
84	0x3f480cec	0.7814472
85	0x3e32d06e	0.17462322
86	0xbe9a33a3	-0.3011752
87	0x3e626b28	0.2211119
88	0x3e856069	0.26050118
89	0x3f0add7a	0.54244196
90	0x3eece5ad	0.4626898
91	0xbee03764	-0.4379226
92	0x3dbb40d1	0.09143222
93	0x3e48ba4f	0.19602321
94	0x3e3755fe	0.17903897
95	0x3f08c63e	0.53427494
96	0xbeaaeb9a	-0.33382875
97	0xbebcede5	-0.3690025
98	0xbe410418	-0.18849218
99	0x3e527cfe	0.20555493
100	0x3d9d4ba9	0.07680447
101	0xbd328f61	-0.043593768
102	0xbf2a13db	-0.6643655
103	0x3e26f04f	0.16302608
104	0xbf2315c7	-0.63705105
105	0xbf22516f	-0.6340551
106	0x3e2149ad	0.15750761
107	0x3dca9340	0.09891367
108	0xbee4b18c	-0.44666708
109	0x3e6555aa	0.2239596
110	0xbf0dbe7c	-0.5536878
111	0x3e83c7bf	0.25738332
112	0x3f1d9244	0.6155131
113	0xbde1eee8	-0.11031896
114	0xbe29c070	-0.16577315
115	0xbeca7f80	-0.395504
116	0xbf0132bb	-0.50468034
117	0x3f1489e7	0.5802292
118	0x3e8ab66d	0.27092305
119	0xbc0ed704	-0.008718256
120	0xbf293ce4	-0.66108537
121	0xbe935c4d	-0.28781357
122	0x3e356f96	0.17718348
123	0xbc3367fb	-0.010950084
124	0xbec82848	-0.39093232
125	0x3e119009	0.14215101
126	0x3dea6945	0.1144586
127	0x3f0354ef	0.51301473

fc.weight f4 [1, 128]
0	0x3d28b69f	0.041189786
1	0x3d7c502a	0.061599888
2	0x3d98779b	0.07444688
3	0x3e353245	0.17694958
4	0x3dee91f6	0.116489336
5	0xbcc3f128	-0.023918703
6	0x3dc721c0	0.09723234
7	0x3d35857e	0.04431676
8	0x3dcf24f1	0.10114468
9	0x3d675db0	0.05648583
10	0x3e2812a8	0.16413367
11	0x3d4c65b2	0.04990167
12	0x3d110168	0.03540173
13	0x3e052207	0.13001262
14	0x3e320307	0.17383967
15	0x3e0b6282	0.13611796
16	0x3e8fb6fc	0.28069293
17	0x3d8be7fb	0.06831356
18	0xbd5ae406	-0.053440116
19	0x3dd54ba1	0.10414816
20	0xbce06702	-0.027392868
21	0x3dd1d72e	0.102461204
22	0x3df090fc	0.117464036
23	0xbd9e0b6c	-0.07717022
24	0x3e2b7176	0.167425
25	0x3d3804b6	0.044926368
26	0x3d232036	0.03982564
27	0x3c821ba1	0.015882315
28	0x3d4fb23b	0.050707083
29	0x3d9dbdfd	0.07702253
30	0x3d94071e	0.0722792
31	0xbb513200	-0.0031920671
32	0x3e0e5b9e	0.13902137
33	0x3ee2ae13	0.44273433
34	0x3de8a153	0.11358895
35	0x3dc1593d	0.09440849
36	0xbd500a66	-0.050791167
37	0x3e068841	0.13137914
38	0x3caddd40	0.021223664
39	0x3dd6f6b8	0.104962766
40	0x3dc7bc1c	0.09752676
41	0x3e2591be	0.16168877
42	0x3def1bf1	0.11675251
43	0x3d069bb0	0.03286332
44	0x3c9aa67c	0.018878214
45	0x3dcc6ff0	0.09982288
46	0x3ddd0c4e	0.107933626
47	0x3d87e9b9	0.06636376
48	0xbd7cd795	-0.061729033
49	0x3e431e2f	0.19054483
50	0x3d254baa	0.040355362
51	0x3d5e468d	0.0542665
52	0x3e025223	0.12726645
53	0x3daa07b9	0.08302254
54	0x3ca508b1	0.020145746
55	0xbc85ec00	-0.016347885
56	0x3c805af0	0.015668362
57	0x3e2e2c02	0.17008975
58	0xbf51b60d	-0.8191841
59	0x3d7deff1	0.061996404
60	0x3e2b9e2d	0.16759558
61	0x3dc95f9d	0.0983269
62	0x3c20a438	0.009804778
63	0xbcd90f70	-0.026496619
64	0x3e4206f7	0.1894797
65	0x3d7d7e12	0.06188781
66	0x3d40e0b6	0.0470893
67	0x3d59d502	0.053181656
68	0x3d87cdb5	0.066310324
69	0x3da32377	0.07965749
70	0x3cc95a71	0.024579259
71	0xbda2cf8d	-0.079497434
72	0x3da21663	0.07914426
73	0xbf5576b5	-0.8338426
74	0x3e380847	0.17971908
75	0x3ef83d4d	0.4848427
76	0x3d198b42	0.037486322
77	0x3b84a4e9	0.004047979
78	0xbbf0cf7b	-0.0073489523
79	0x3bef7ca0	0.0073085576
80	0x3d3acad2	0.04560358
81	0x3d9ad2bf	0.07559728
82	0x3e18aa6c	0.14908761
83	0xbd212ce5	-0.039349455
84	0x3df4f761	0.11961246
85	0x3e30078c	0.17190379
86	0xbb221a00	-0.0024734735
87	0x3dd0ad61	0.101893194
88	0x3e4205cc	0.18947524
89	0x3ca38213	0.019959485
90	0x3d7e33cf	0.062061127
91	0xbd88b64c	-0.06675395
92	0x3dbc35f2	0.09189977
93	0x3d14158c	0.03615336
94	0x3e0e2a3e	0.13883302
95	0x3da38027	0.079834275
96	0xbd8b8372	-0.068121806
97	0xbd2139d0	-0.039361775
98	0x3d001c14	0.031276777
99	0x3d03217a	0.032014348
100	0x3e6e5fbe	0.2327871
101	0x3c3a21c4	0.011360589
102	0x3d9b1ded	0.07574067
103	0x3d3d01f4	0.04614444
104	0xbd3af195	-0.045640547
105	0xbbac51c0	-0.005258769
106	0x3ea4407c	0.32080448
107	0x3c852440	0.016252637
108	0x3d6e1a82	0.05813075
109	0x3e21ad32	0.15788725
110	0x3b137400	0.0022499561
111	0x3dcf9148	0.10135132
112	0x3d6b2757	0.057410564
113	0xbc432080	-0.011909604
114	0x3f68bff3	0.9091789
115	0xbd9566ed	-0.07295022
116	0xbd9a686a	-0.07539447
117	0x3d74fa83	0.05980922
118	0x3d99ce05	0.07509998
119	0xbd020c53	-0.031750035
120	0xbdaf374c	-0.08555469
121	0x3d8652a9	0.06558735
122	0x3c849005	0.016181955
123	0xbb0e1d9b	-0.0021685127
124	0x3b19c5e0	0.002346389
125	0x3da587fb	0.08082577
126	0xbe370eea	-0.17876783
127	0x3d93589f	0.071946375
