backups/2022-05-20/best-model-2.pt (torch, 4687 bytes, 7 tensors)

lstm.weight_ih_l0 f4 [8, 5]
000000 c4 08 1d be 85 51 8b be 7f b8 d9 3e 6b 64 a2 3f
       -0.15335375 -0.27210632 0.42523572 1.2686895
000010 4d 75 86 be c9 05 8d bf 32 80 b9 3e b0 a9 2b bf
       -0.26261368 -1.101739 0.36230618 -0.670558
000020 c2 c8 b0 3d 2e 6b 0c bd 53 8b 03 bf 84 d6 41 3e
       0.086320415 -0.034281902 -0.51384467 0.18929487
000030 3c d1 39 be 93 2d 2f 3f 99 77 00 3f 92 89 a1 3e
       -0.18146223 0.68428916 0.5018249 0.3155027
000040 54 a7 7f 3e 94 27 99 be 00 6a f4 3a 5f ce a7 be
       0.24966174 -0.29913008 0.0018647313 -0.32774636
000050 8b 3f 2e 3f 6b cd 85 3e 75 91 1f 3f e3 28 55 3f
       0.6806571 0.26133284 0.62331325 0.83265513
000060 09 70 b5 be 29 c8 76 3e d3 46 8e 3d 26 75 0a 3d
       -0.3543704 0.24099793 0.069471024 0.033803128
000070 26 e6 37 3f 5e 1f 5c bc 2a d1 a8 3e 07 ef 06 3e
       0.71835554 -0.013435213 0.3297208 0.13177119
000080 c7 ee 6a bf 89 ec c3 3f 18 90 8b 3f 3c 50 a0 3d
       -0.91770595 1.530656 1.0903349 0.078278035
000090 5f c6 87 be 41 b3 4b 3e af ae 90 3e 08 4b 9b 3d
       -0.26518533 0.19892599 0.28258273 0.075826705

lstm.weight_hh_l0 f4 [8, 2]
000000 9d e1 e5 be 0a 94 6e be ba 4b 08 bf c2 14 e6 3e
       -0.44898692 -0.2329866 -0.5324055 0.44937712
000010 28 3f a0 bd 90 f8 3b bd d6 24 b5 be 56 45 00 bf
       -0.07824546 -0.045891345 -0.35379666 -0.501058
000020 b4 67 7b 3e 5c 77 84 3e 20 e1 f4 3c d0 ae d9 bd
       0.24551278 0.25872314 0.029892504 -0.10629046
000030 00 27 a2 bd 00 c8 f2 bc 53 8a 06 bf f3 fa 33 3f
       -0.07917595 -0.029636383 -0.52554816 0.70304793

lstm.bias_ih_l0 f4 [8]
000000 10 9c 00 be 3b 50 c6 3e 96 81 b0 3e 1d 0c 1b bf
       -0.12559533 0.38733086 0.34473866 -0.6056536
000010 4d 46 76 be 9f e8 83 3f 6d e5 ae 3e 3e 42 86 bc
       -0.24050255 1.0305365 0.34159413 -0.016389009

lstm.bias_hh_l0 f4 [8]
000000 af 7e d6 bd 31 c4 0f 3e 3c 90 54 3e 06 17 ec 3e
       -0.10473382 0.14039685 0.20758146 0.46111315
000010 a8 e1 d7 bd f3 d3 3f 3e 77 81 20 3f de bb 13 be
       -0.105410874 0.18733196 0.6269755 -0.14427134

fc_1.weight f4 [128, 2]
000000 2e 4f 04 3e 4d 8c cb bd ed 27 24 bf de db e9 3e
       0.1292083 -0.099388696 -0.6412342 0.45675558
000010 c9 6f cc bd c1 7a 26 be 58 95 ef bd dc fe 0c be
       -0.09982259 -0.16257764 -0.11698407 -0.13769096
000020 04 94 3b 3f 37 d5 58 3e ab 25 02 3d 90 36 0a bf
       0.7327273 0.21175085 0.031774204 -0.53989506
000030 84 58 d6 3d db 10 c3 be 28 44 43 be a8 9c 77 be
       0.10466102 -0.38098797 -0.19068968 -0.24180853
000040 90 63 4d be 60 73 f4 3e eb bd 33 3f 91 4c 66 bd
       -0.20057511 0.47744274 0.70211667 -0.056225363
000050 f8 b8 d3 bd 61 87 05 3f c8 08 6a 3e 03 b7 15 3f
       -0.10338014 0.52159697 0.22854912 0.5848238
000060 c0 e3 00 3e 09 91 17 bf 15 a7 03 bf 76 2f c2 3d
       0.1258688 -0.5920568 -0.5142682 0.09481709
000070 a5 ae cc be 20 62 61 3e af ab 98 be 8b 1c 02 bf
       -0.39976993 0.22010088 -0.29818484 -0.50824803
000080 de 3d f2 3e 12 31 b0 3e 06 a8 66 3e 68 16 94 3e
       0.47312826 0.34412438 0.22525033 0.28923345
000090 a7 d4 c7 3e 09 f3 9c 3e 70 22 84 3e d2 f8 ac 3e
       0.39029428 0.3065417 0.25807524 0.33783585
0000a0 f6 d8 56 3f 16 4b 14 3f c8 c1 da bc 02 1a ae bc
       0.83924806 0.5792707 -0.02670373 -0.021252636
0000b0 99 b3 a0 3c 31 88 e1 3e 10 9d 05 bf aa 8c 79 be
       0.019616889 0.44049218 -0.52192783 -0.24370065
0000c0 00 9d 73 3e d8 b9 3b be 5e e4 b3 3e b0 04 58 bd
       0.2379036 -0.18332613 0.35135168 -0.052738845
0000d0 e7 d6 6f 3e 63 13 24 3f f5 25 e2 be 00 a5 8d 3c
       0.23421822 0.6409208 -0.44169584 0.017290592
0000e0 d8 03 86 bd 27 c5 06 bf 31 48 b2 be a1 3e cb 3e
       -0.06543702 -0.5264458 -0.34820703 0.3969622
0000f0 7c 99 4b 3e 28 48 15 be 21 02 e1 3e 26 3f 9b 3f
       0.19882768 -0.14578307 0.43946937 1.2128646
000100 12 73 bd be 24 fe 16 bf 00 cb 34 3c 80 97 fe be
       -0.37001854 -0.5898154 0.011034727 -0.4972496
000110 28 88 42 be a3 70 c6 be 51 d0 0d bf 0c 1f 28 bf
       -0.18997252 -0.3875781 -0.5539599 -0.65672374
000120 35 6a bc be f4 db af 3e 19 47 71 be 64 6e 83 be
       -0.3679978 0.34347498 -0.23562278 -0.2567016
000130 a9 e6 42 3f 45 50 78 be c9 cc c3 3e f6 3e 54 3c
       0.7613321 -0.2424937 0.38242176 0.012954464
000140 f1 58 51 3f ce 11 a8 bd a4 88 04 bf d7 04 04 3f
       0.8177634 -0.08206521 -0.51771 0.51569885
000150 c2 4c 20 3f a3 86 15 3f fe d7 20 bf 42 80 b9 3e
       0.62617123 0.58408564 -0.6282958 0.36230665
000160 ca 64 6a 3e aa 77 92 3e ce a8 ee 3e d8 c5 20 bf
       0.2289001 0.2860692 0.46613163 -0.62801886
000170 d8 ec 01 3f 49 dd f1 be e8 04 fb 3d 78 4b 80 bd
       0.5075202 -0.4723914 0.12256795 -0.062643945
000180 73 d5 3a 3d df b6 33 3f cd b4 4f 3f 03 16 3d 3f
       0.045613717 0.70200914 0.81135255 0.7386171
000190 c7 38 16 3f 1e c5 a4 be 08 c0 13 3f 03 a0 b6 3e
       0.58680385 -0.32181638 0.5771489 0.35668954
0001a0 f2 da 84 be 98 68 8d 3c e4 95 65 3e 3a 83 18 3f
       -0.25948292 0.017261788 0.2242046 0.59575236
0001b0 58 82 2a 3f 36 09 d3 3d 0f 8d 98 be 66 39 7f 3e
       0.6660514 0.10304491 -0.2979512 0.2492424
0001c0 50 37 ce 3e 2d f6 1c be 10 24 f8 3d 5d c0 08 3f
       0.40276575 -0.15328284 0.121162534 0.53418523
0001d0 95 f1 2f 3d c8 0d a0 3f 96 58 24 3f c9 5a ee 3e
       0.042955 1.2504206 0.6419767 0.4655364
0001e0 ef 48 98 be eb 53 1c be 8b 2b 8d bd 02 7f f1 3d
       -0.29743144 -0.15266387 -0.06893071 0.11791803
0001f0 bd 3d c4 be f5 7c 02 bf f2 2e 9a bd 66 e1 87 3f
       -0.38328353 -0.5097192 -0.07528485 1.0615661
000200 1a c3 90 3f ed c9 c4 3e 80 7d f8 3c 6d 84 2a bf
       1.130954 0.38435307 0.03033328 -0.66608316
000210 c9 cf 92 be 2d 49 0c 3f 1e 70 2a bf 04 2b 31 bf
       -0.28674152 0.5479916 -0.6657733 -0.6920626
000220 94 2e 71 be e8 61 9a bd 6c e6 4f 3e 50 ac ec 3d
       -0.23552924 -0.075382054 0.20302743 0.115563035
000230 5b 20 06 bf d6 74 a4 3e 5f dd 03 bf 76 23 6c be
       -0.5239312 0.3212039 -0.5150966 -0.23060402
000240 f1 43 22 bf a1 1e 06 bf cf 80 6c 3f 9b 6f b1 3f
       -0.6338492 -0.52390486 0.92384046 1.3862184
000250 79 fe 95 be 45 68 03 3f 27 da f5 3e ca 75 f0 bd
       -0.2929571 0.5133098 0.48018 -0.117412165
000260 5f 0d 48 3f e8 03 9e 3e 25 6a 0c 3f f0 7c 43 bd
       0.781454 0.30862355 0.54849464 -0.04772657
000270 e9 a9 a1 be b2 de 07 3f 4a ee 32 bf 3a 44 fe be
       -0.31574944 0.5307418 -0.6989485 -0.49661428
000280 68 24 3f 3f 59 8c de be a8 05 bf be e9 37 56 be
       0.74664927 -0.43466452 -0.37309003 -0.20919766
000290 4c 84 41 be 98 4c e0 be 16 03 ec bd ef f2 89 be
       -0.18898124 -0.43808436 -0.11524026 -0.26943156
0002a0 26 be 2a 3f f1 38 3f 3f 2e 2e 73 3e c8 fb 33 3f
       0.66696393 0.7469626 0.23748085 0.7030606
0002b0 85 a7 03 3f 05 ba e8 be 83 7f 58 be 84 9b 66 3f
       0.5142749 -0.45454422 -0.21142392 0.9008105
0002c0 2a 15 cb 3e 73 6d 08 3f 15 b0 a7 be f8 7d 52 3e
       0.39664584 0.53292006 -0.32751527 0.20555866
0002d0 fc 68 0a be cb 9e 5b be d5 01 bb bd 06 13 0e 3f
       -0.13516611 -0.21447293 -0.09131209 0.5549778
0002e0 9a bb e9 3e d9 df 0f 3f 5c 44 01 3e 20 ed c4 3d
       0.4565094 0.5620094 0.12623733 0.096155405
0002f0 e9 a9 0a 3f 1b 7f c5 3d 00 25 81 3c 5d 44 08 3f
       0.5416551 0.09643384 0.015764713 0.53229314
000300 ae 09 97 bd ab 2a a5 3e 77 80 86 3e 71 9f 68 3f
       -0.07374893 0.32259116 0.26269886 0.9086829
000310 47 e4 ed bd c8 32 22 be 86 b8 2f be 8b 73 a8 be
       -0.11615806 -0.15839684 -0.17160234 -0.32900652
000320 9b 34 99 be f0 95 30 3f b8 ac 83 bd 8c c7 89 3e
       -0.29922947 0.68978786 -0.06429428 0.26910055
000330 80 c3 8a 3c 8c 82 30 3e 1b 55 2c 3f bf 36 a1 3f
       0.016938925 0.172373 0.6731736 1.2594832
000340 30 17 20 bd 40 c8 13 be ed 7d 0f 3d 08 37 56 3e
       -0.039084613 -0.14431858 0.0350322 0.2091943
000350 d3 5b 75 3e 83 ea 63 3e cc 2b 7f 3d 64 ff 09 3e
       0.2396081 0.22257428 0.062297627 0.1347633
000360 cf 94 c2 be fd 47 9f be c0 51 64 3c b8 fa 33 3f
       -0.38004157 -0.3110961 0.013935506 0.7030444
000370 a4 c4 46 be a0 ca 70 3d 75 94 19 3f ae ac 92 be
       -0.1941095 0.05878699 0.5999215 -0.2864737
000380 d0 25 06 bd 5e 1c 6c be 10 61 2b be bc a2 b3 be
       -0.032750905 -0.23057696 -0.16736245 -0.35085094
000390 f9 4f 16 3f 37 fb a0 3f ca fc cb 3e ba b4 0d bf
       0.5871578 1.2576665 0.398413 -0.5535389
0003a0 5a 4f e5 be 80 c8 b2 bc 2f 8a ad be 49 31 29 3e
       -0.44787103 -0.021824121 -0.33894488 0.16522707
0003b0 02 b1 0b bf c0 c8 03 3c 9f c0 8c 3e 4e 8c 58 3c
       -0.5456697 0.008043468 0.27490708 0.013217045
0003c0 84 52 31 bf 20 04 2d bd ef 94 b1 3f 5c dc 8a bf
       -0.69266534 -0.042240262 1.3873576 -1.0848498
0003d0 f2 49 41 3f 17 0a 80 3f 0c 27 72 be 4f c2 16 3f
       0.75503457 1.0003079 -0.23647708 0.5889024
0003e0 19 84 17 3f 61 84 d9 3e 03 87 8f 3e 21 ff f1 3e
       0.5918594 0.4248381 0.28032693 0.4726496
0003f0 cb da 9e 3e d0 76 77 be ab 7a cc 3e 57 90 ea bd
       0.310263 -0.24166417 0.39937338 -0.11453312

fc_1.bias f4 [128]
000000 24 56 ea 3e b2 ad bb be 7e 04 22 3e 2e 9d 15 bf
       0.45768845 -0.36655957 0.15822026 -0.5844296
000010 6e d4 0d bf 1a f0 0d 3f e3 c1 60 3e 68 26 b7 bd
       -0.55402267 0.5544449 0.21948962 -0.08942872
000020 39 b5 90 3d 21 11 5f 3e f6 ee bb be b0 31 0a 3e
       0.070658155 0.21783878 -0.3670575 0.13495517
000030 24 81 15 be 69 ed 07 3f 96 a8 0c bf f6 f4 68 3e
       -0.14600044 0.53096634 -0.5494474 0.22749695
000040 04 64 02 bf 93 be 32 3f 80 68 2f 3e a3 e5 e0 be
       -0.5093386 0.69822043 0.17129707 -0.439252
000050 80 94 d2 3e af 01 08 3f a9 24 f5 3e d3 1f 84 be
       0.41128922 0.5312757 0.47879532 -0.2580553
000060 f3 3f 24 bf 53 ee 2c bf 20 8a 78 3e 24 37 2f bf
       -0.6416008 -0.67551154 0.2427144 -0.6844351
000070 fd 41 28 bf 78 c9 0e 3e 05 24 8b 3e 62 62 f0 be
       -0.6572569 0.13944042 0.27175918 -0.4695006
000080 34 e9 f6 be b4 17 21 bf 40 99 01 bf d7 11 24 3f
       -0.48224795 -0.62926793 -0.50624466 0.6408972
000090 1c e9 3e 3f 09 cf 02 3f 49 ec 12 3f 49 d7 27 3f
       0.74574447 0.5109716 0.5739179 0.65562874
0000a0 03 84 ec 3d ed c9 65 3e 35 b8 6b 3d 85 27 23 bf
       0.11548617 0.2244031 0.05754872 -0.63732177
0000b0 92 0e a6 3e b9 f5 09 bf f3 9f a3 be d0 37 f2 bd
       0.3243299 -0.5389057 -0.3195797 -0.11827052
0000c0 00 40 9e 3e dd f8 3d 3e 2a a1 1d bf 34 99 b2 3c
       0.30908203 0.18551965 -0.6157404 0.021801569
0000d0 9d be b9 3e d0 19 a7 3e d5 c9 14 3f e7 51 de 3e
       0.3627824 0.3263688 0.5812047 0.43421862
0000e0 e8 79 f8 3d 3d 70 2c 3f e6 57 23 3c b7 28 7d 3e
       0.12132627 0.6735876 0.009969687 0.24722563
0000f0 e7 f9 df 3e 0f 20 01 3f 0e bd 95 be 52 2e a6 3b
       0.43745348 0.5043954 -0.292458 0.00507144
000100 22 2e 08 be 68 c9 15 bf 53 2b 02 bf 22 ec f8 be
       -0.13298848 -0.58510447 -0.5084736 -0.48617655
000110 19 a0 dc be 2c 96 80 be 42 d3 eb 3e 4b bd c0 be
       -0.43090895 -0.25114572 0.46059614 -0.3764442
000120 47 4a d5 be 80 bc 2c bf 7a 40 26 bf 09 ba 37 3e
       -0.41658232 -0.6747513 -0.64942133 0.1794206
000130 4d 48 2b 3f ea 04 14 bf bf 7e 07 3f 7e b9 34 bf
       0.669072 -0.5782 0.52927774 -0.7059554
000140 0d 24 c5 3e 59 e6 82 3d e8 31 4c be 61 e0 1c 3f
       0.38504067 0.063915916 -0.19940913 0.61279875
000150 ee 4f 46 3f 24 4a b5 3d 86 93 2b bf 0d a3 4f 3f
       0.77465713 0.08852032 -0.6702198 0.8110817
000160 2e 6b f7 be f3 8b 6a 3e ac 9c 46 3f ad 5f 03 3f
       -0.4832396 0.22904949 0.7758281 0.51317865
000170 da cf 13 bf d0 37 1e be b4 9a 30 3d 4e 85 02 bf
       -0.5773903 -0.15450978 0.043116286 -0.50984657
000180 c0 43 c5 3e 92 d2 de 3d 07 f2 3b 3e dd 1e 19 3f
       0.38528252 0.10880007 0.18354045 0.5981272
000190 fb 0e dc 3d d8 ed e3 be 2f 60 0b bf 7a 86 e0 be
       0.10745045 -0.44517398 -0.5444364 -0.43852597
0001a0 03 c3 0a bf cc e0 a0 3e 5c b4 f4 3d 49 4f af 3d
       -0.54203814 0.31421506 0.11948463 0.08560044
0001b0 9f 07 f8 3e 74 32 3d 3e 00 2f 0a bf 89 a8 35 3f
       0.48443314 0.18476278 -0.53977966 0.7096029
0001c0 e8 3b a7 bd 60 8f 91 bd fc ec 12 bf 39 29 1f bf
       -0.08165723 -0.07107425 -0.5739286 -0.62172276
0001d0 c7 06 2e bf 9b 54 23 3e e5 c7 1a bf f1 e6 ee 3e
       -0.6797909 0.15950243 -0.60461265 0.4666057
0001e0 9e 34 f3 be 57 2e b3 bc 06 f1 13 3e 62 8e 07 3f
       -0.4750108 -0.021872682 0.14447412 0.52951634
0001f0 c9 4a 9c 3e 11 2f a3 3e 62 bf 49 3f 19 42 75 3e
       0.30525807 0.31871846 0.7880765 0.23950996

fc.weight f4 [1, 128]
000000 40 c3 06 3e 96 46 2e 3d e6 9a 03 3e 73 7f 9a bd
       0.1316042 0.042547785 0.12852058 -0.0754384
000010 59 cc 05 40 cb be f3 3c fa 64 3c 3d d4 53 a9 bc
       2.0905974 0.029754063 0.045994736 -0.020669855
000020 ba d5 94 3d 2c f3 16 3e e9 23 8e 3d d3 1e 4b 3e
       0.072673276 0.147412 0.06940443 0.19835977
000030 70 b4 95 3c 43 bb 25 3e da 61 20 3d 4a cf 0a 3d
       0.018274516 0.16184716 0.03915582 0.033889093
000040 20 3f 89 3c af 56 24 3e d8 ee f8 3d 78 e9 cf 3c
       0.016753733 0.16048692 0.12154931 0.025379881
000050 0e 97 09 3e 77 32 03 3d 69 dc d1 3b 7a 44 16 3d
       0.13436529 0.03203055 0.0064044488 0.036686398
000060 ec e3 bc 3c 89 a9 9f 3d e0 87 30 3e e0 98 23 3c
       0.0230579 0.07796008 0.17239332 0.009985179
000070 a2 c6 59 3d fd b9 4a 3e 39 18 3f 3d a0 ef 6c bf
       0.053167947 0.19797511 0.04665396 -0.9255314
000080 a0 18 bf 3b f8 62 66 bd 50 cb ef bb 9b 00 2c 3c
       0.005831793 -0.056246728 -0.007317938 0.010498191
000090 6e 21 28 3e 9f 0e b3 3c 45 53 9e 3d 23 c7 b4 3c
       0.16419002 0.021857558 0.07730726 0.022067612
0000a0 6b 8d 30 3e 90 89 ff 3c 66 bb 9d 3e 3e b9 19 3d
       0.17241447 0.031193525 0.30807036 0.037530176
0000b0 58 c7 0c 3d 60 69 80 3c eb ef e2 3c 59 e4 81 bd
       0.034369797 0.015675247 0.027702292 -0.06342382
0000c0 47 78 10 3e e4 0d f9 3d c0 ab ed bc 0f da d8 3d
       0.14108382 0.121608526 -0.02901256 0.105884664
0000d0 af 00 a6 3b e6 41 b8 3d 73 97 d2 3d d0 f0 02 3d
       0.0050659995 0.08996944 0.10282793 0.031967938
0000e0 b3 73 7b 3b 29 27 1c 3e d3 7f 04 3f 99 1b 99 3d
       0.0038368523 0.15249313 0.51757544 0.07475967
0000f0 3f 10 45 3d ca cf 0a 3e 6e fa 45 3d 66 89 d7 3e
       0.048111197 0.13555828 0.04833453 0.42097014
000100 c9 75 d3 be e0 6e be bc cc b7 cb bc b4 4b cb 3c
       -0.413008 -0.023246229 -0.024867915 0.024816372
000110 40 fa 1c 3c 4c 5a 8d bc 4e 80 f4 3c e8 55 a5 3c
       0.009581149 -0.017254971 0.029846337 0.020182565
000120 fe e6 33 3d b0 ac a1 3f 3c 83 5b bd d9 38 07 3e
       0.043921463 1.2630825 -0.05359195 0.1320528
000130 ab 8b 36 3e c8 5c 8d bc 0d af 83 3d 50 c0 d6 bb
       0.17826717 -0.017256156 0.06429873 -0.006553687
000140 b7 8e 77 3d 22 a1 94 3c c0 cf 34 3c 13 ae 2b 3c
       0.060438838 0.01814324 0.01103586 0.010478514
000150 06 b0 12 3e fc f2 0b 3d f9 04 83 3d fb 66 19 3e
       0.1432496 0.034167275 0.06397433 0.1498069
000160 10 ba 1d bc b5 64 30 3d 2e 74 d2 3d 54 3d 3d 3e
       -0.00962688 0.04306479 0.10276066 0.18480426
000170 01 63 85 3d 70 1c 8f bc dc 5d e7 3c 21 b2 a0 3d
       0.06513024 -0.017469615 0.028242998 0.078464754
000180 37 dc 22 3e c4 c4 6b 3e 30 82 35 3e 22 28 27 3e
       0.15904318 0.23024279 0.17725444 0.16323903
000190 32 c3 b2 3d 68 e2 f8 bc 4e 13 e4 bc 10 a6 d1 bf
       0.08728637 -0.030381396 -0.027841236 -1.6378803
0001a0 c0 25 e6 bb 4a 05 1e 3e 37 7a 92 3c a9 a6 97 3c
       -0.007023543 0.15431705 0.017880542 0.018512087
0001b0 ec 34 2f 3d 6d 4c 06 3e e2 34 48 3d 2c a6 98 3d
       0.04277508 0.13115092 0.048878558 0.0745357
0001c0 b0 bf f1 3c 00 60 e2 b9 0e 7a 8b bf 9a af af bd
       0.029510349 -0.00043177605 -1.0896623 -0.08578415
0001d0 a4 bf 9b bd ea 01 9f 3b a6 99 46 3d 4b b4 56 3d
       -0.07604912 0.004852523 0.048486374 0.052418035
0001e0 c4 42 bc bc bf 00 22 3f c0 6a 20 3e e8 df 10 3e
       -0.022981055 0.6328239 0.15665722 0.14147913
0001f0 02 83 bd 3d 25 57 b7 3d 00 7e a1 3d 7a 2c 19 3d
       0.092535034 0.089521684 0.07885361 0.03739593
