backups/2022-05-20/best-model-8.pt (torch, 4623 bytes, 7 tensors)

lstm.weight_ih_l0 f4 [8, 4]
00000000: 0dc7 213f 7782 0b3f 356c cf3d 6967 c63e
00000010: f2b1 e83e 25b3 e33d a71e 62be 81b7 a43e
00000020: de1e b33e f5dd 15bf b7d2 e2be 7484 45be
00000030: 6943 86be 474e e8be eda6 9fbe 0014 973d
00000040: 54d8 e4be 19a3 e3be a574 a7bd 07fe d23e
00000050: 904d f73b 91bb a3bc 6445 aebc 657f e93e
00000060: e2c1 573e 6cfd 51be 5873 113c c656 993e
00000070: d02b f1be f4f3 77bd 7f45 d73e f148 163f
0.6319435 0.5449595 0.10128061 0.3875077 0.45448261 0.111181535 -0.22082005 0.32171252
0.34984487 -0.58541805 -0.44301388 -0.19288808 -0.26223305 -0.4537222 -0.31182042 0.073768616
-0.44696295 -0.4446037 -0.08176545 0.41209432 0.007547088 -0.0199869 -0.021273322 0.45605007
0.21070054 -0.20506829 0.008877598 0.29949015 -0.4710374 -0.060535386 0.4204521 0.5870505

lstm.weight_hh_l0 f4 [8, 2]
00000000: 5d1d 0a3f 08ca 4ebe e196 bbbe f021 1f3d
00000010: 6299 963e 13c9 a2be 605f 613d 1a54 b53e
00000020: 208f f3bd 80b0 d43d 412e 273f 5f1d 1bbf
00000030: 96ae 26bf 73cf 12bf 0119 a0be 95bb 10bf
0.53951055 -0.20194256 -0.3663855 0.038850725 0.29413897 -0.31794032 0.055022597 0.35415727
-0.11892533 0.10385227 0.6530495 -0.6059169 -0.65110147 -0.5734779 -0.31269076 -0.5653623

lstm.bias_ih_l0 f4 [8]
00000000: af55 c93d f5a3 f03e 7758 073f f519 153f
00000010: d41c e9be 2f1c 313f 9966 d1bd a2b6 b63e
0.09830796 0.4700009 0.5286936 0.5824273 -0.45529807 0.6918363 -0.10224647 0.35686213

lstm.bias_hh_l0 f4 [8]
00000000: 7a21 c73e 2a48 153f 7a34 f63e c832 dcbd
00000010: 9fb9 65bf 4471 093e 2403 6f3c eba8 463f
0.38892728 0.5831324 0.4808691 -0.10751873 -0.8973636 0.13422114 0.014588151 0.776015

fc_1.weight f4 [128, 2]
00000000: 2d1d 90be 218e 1dbd 1719 6a3e aada a93d
00000010: c76f 293f 78ce 93bd 8121 8b3d 05dc e53a
00000020: f6b9 a93e e4c2 0c3e 28f6 1dbe d3a8 2fbf
00000030: 617d 9cbe 7587 693f 8a6f c13e 7f18 803e
00000040: d4a7 dabd c547 9bbe 0395 5bbf cfba 19bf
00000050: f24a d8be 62be b83c 7b91 f1be 0ea9 0b3f
00000060: 8019 e1bb a043 1e3d 8ceb 02bf e563 343f
00000070: 3240 093e 1a1f dfbc 50cf 6b3d 952d b73c
00000080: 449f 98be 2847 a5be 787b 823e 717b 10bf
00000090: fc18 69be 727a e0be 3f80 343f 40c6 bfbc
000000a0: d2af dd3e 608e 36bf 4e8a eb3e cb81 31bf
000000b0: 5ac7 d4be 2079 25be c2d1 28be 6d8c dabc
000000c0: 6d38 333f 6ec6 97be 3cf7 a73e 0979 29bf
000000d0: 30e6 bfbd af5c 81be 202f f4bd 8389 bd3e
000000e0: a89e 1bbf b789 12bf 3395 8ebe 2026 753e
000000f0: 3a17 b43e 58d7 02be be1b 2dbf 488e 22bf
00000100: feed c13e a226 043f e1f6 de3e 7fa4 5c3f
00000110: f9fe 8ebe 786d 143e e6ad f93e 438f 28bf
00000120: 750f db3d 4710 28bf 1fa9 27bf fd7c 96be
00000130: 33e3 b13e cb2d 623d 9e71 1bbf 7090 b83e
00000140: ec3e 84be 83d8 ce3d dcfe 87be b542 3dbe
00000150: f8b0 debe 7187 27bf 0cfd 31be 201a cfbd
00000160: 8494 b23e 4edc 02bf 3cab 903e a03d f0bd
00000170: bd1b 83be 5f65 133f 2cce a1be 9823 f03d
00000180: 3257 17bf 650c 443f 11bd cdbe 3029 41be
00000190: 8e35 bc3e d4fb 0ebf f988 febe a09e 973e
000001a0: c8f8 d73d 8ae9 d3be b0ce 8a3e aea9 73be
000001b0: 5bdf 43bf 142d 8dbe c130 ce3e 9cdb 213f
000001c0: ef4a b03e f5d3 5d3f 5ef5 8dbd 9166 2b3f
000001d0: a8fd 20bf 300a c3be 4046 043c 228b c8be
000001e0: 0f58 c0be 2f0b 3d3e acd5 58be 50bd 1e3e
000001f0: e447 5d3d 8663 153c bb01 043f ef08 fabe
00000200: 3928 9f3d 2c5c 1f3f fccc 00bf b824 a03d
00000210: b134 ef3e 8e0f 04bf f7fb 34bc 38a5 72be
00000220: 42ec 123e 1a91 1f3f 1e92 88be 3a46 923e
00000230: 2cf7 4c3e 0e6c f93e 6be6 2c3f 23db 2a3f
00000240: 431f 1e3f a704 91be f680 10bf 15ea 96be
00000250: 65cb 88be 50ab 4bbd 4a8c 203f a838 ee3e
00000260: 50f0 b63d f84d 3b3e 7e55 b23e ce36 673f
00000270: 1839 fc3d 7807 953d 6acc 063e 48a3 303f
00000280: 4b3a e7be 5c82 553f c848 f53e cbea 14bf
00000290: 7558 0fbe 4132 323f 5b51 173f db99 1a3f
000002a0: d432 263e ff7b a0be 7d83 31bf 280d f9bd
000002b0: fbb4 2e3f 80ff 10bd 6663 c83e e0ec 983e
000002c0: 95e7 b93e 8044 a3be 2216 f7be 7970 833d
000002d0: df51 dd3d e62b d93b 2fad e93e 71d2 e5be
000002e0: e024 4cbe 74b5 0cbf bf5f d53e fc66 9a3e
000002f0: 9be5 c6bd 7133 3c3e c4a9 243e c02f b1bd
00000300: 35d4 2fbe 1e8e 023f 09e7 0cbf ce11 92be
00000310: 5aaa 11bf 1228 ffbe 6401 8fbe c017 26bf
00000320: 077e 1ebf 26b1 083f 613f 29bf 6be8 4b3f
00000330: d7df 27bf 93fb 163f 09af b8be 4891 103e
00000340: e3af 10bd f10c 32bf 0770 bd3d e99a f2be
00000350: 59a9 38bf f7a1 d43e 95e3 37bd fde3 ce3e
00000360: 4075 31bd 5c1d 60be 5012 e6bd 161d 6ebe
00000370: 9919 053f bcd3 cebe e7ea 08bf 8461 9b3e
00000380: 88ee 25be 90d9 83bd ade3 c4be b869 e4bd
00000390: f173 f53e 0dfa abbe 0d6b 26bf 3fb5 413f
000003a0: a92f d13e 1987 bebd d01f cb3e 420b 483d
000003b0: 9753 90be ab64 08bf 7aaa 0cbf 74a9 5cbe
000003c0: 6414 f33e c5ce ea3e f61e d43e ca9a e73e
000003d0: 800a 28bd 4113 8ebe c0cf f6be 19e8 b9be
000003e0: a15b 303f bf5c 193f 8465 453e 7a80 32bf
000003f0: aeb6 63be a06f 9b3d 8443 2c3f efd9 8bbe
-0.2814726 -0.038465623 0.22861134 0.0829366 0.66186184 -0.07217115 0.067935 0.0017536884
0.3314969 0.1374622 -0.15425932 -0.6861698 -0.30564407 0.91222316 0.3778041 0.2501869
-0.10676542 -0.30328193 -0.8577425 -0.6005067 -0.4224468 0.02255172 -0.47181305 0.5455483
-0.006869495 0.03863871 -0.51140666 0.70464927 0.13403395 -0.02723651 0.057570755 0.022360602
-0.2980901 -0.3228085 0.25484824 -0.56438357 -0.22763437 -0.43843418 0.7050819 -0.023409963
0.43298203 -0.71310997 0.46003956 -0.69338673 -0.41558343 -0.16159487 -0.16486266 -0.026678288
0.70007974 -0.29643577 0.32805812 -0.6620031 -0.09370077 -0.25266024 -0.11923051 0.37018976
-0.60788965 -0.57241386 -0.27848205 0.23940325 0.3517397 -0.1277746 -0.67620456 -0.63498354
0.37876886 0.5162145 0.4354773 0.861885 -0.27928904 0.14494884 0.48765486 -0.658436
0.106963076 -0.6564984 -0.65492433 -0.29392233 0.34743652 0.055219453 -0.6072024 0.36047697
-0.25829256 0.1009989 -0.2656163 -0.18482478 -0.4349439 -0.6544104 -0.17381686 -0.10112405
0.34878933 -0.5111741 0.2825564 -0.11730504 -0.256071 0.57576555 -0.3160261 0.11725539
-0.59117424 0.7658141 -0.4018331 -0.18863368 0.3675961 -0.5585301 -0.49713877 0.2961321
0.10545498 -0.41389114 0.27110815 -0.23795196 -0.7651269 -0.27573454 0.4027157 0.6322572
0.3443217 0.86651546 -0.06931566 0.6695338 -0.6288705 -0.3809371 0.0080733895 -0.3916865
-0.37567183 0.18461297 -0.2117526 0.15501904 0.05402364 0.0091179665 0.5156514 -0.4883494
0.07771344 0.6225002 -0.5031278 0.078195035 0.46719888 -0.51586235 -0.011046401 -0.23695838
0.14347938 0.6233078 -0.2667398 0.28569204 0.20016164 0.48715252 0.6753909 0.66740626
0.6176645 -0.28323862 -0.5644678 -0.29475465 -0.26717678 -0.049723923 0.62714064 0.465276
0.08932555 0.18291461 0.3483085 0.90318 0.12315577 0.07276815 0.13163915 0.6899915
-0.45161662 0.8340204 0.4790709 -0.58170766 -0.13998587 0.6960793 0.59108514 0.60391015
0.16230327 -0.31344602 -0.6934126 -0.121607125 0.68244904 -0.035399914 0.39138335 0.2986822
0.36309496 -0.318882 -0.48259073 0.06417937 0.10806631 0.0066275476 0.4563994 -0.44887117
-0.19935942 -0.54964375 0.4167461 0.30156696 -0.097117625 0.18378998 0.16080385 -0.08651686
-0.17170794 0.50998104 -0.5504003 -0.2852921 -0.5690056 -0.4983526 -0.27930748 -0.6487999
-0.6191105 0.5339531 -0.66112334 0.79651517 -0.6557593 0.5897762 -0.3607104 0.1411792
-0.03532399 -0.69550997 0.09249883 -0.47383812 -0.72133404 0.4152982 -0.044894774 0.40408316
-0.04332471 -0.218862 -0.112339616 -0.23253283 0.51992184 -0.40395916 -0.5348343 0.30347836
-0.16204274 -0.06437981 -0.38454953 -0.11152977 0.4794002 -0.3358921 -0.65007097 0.75667185
0.40856674 -0.093031116 0.3967271 0.04883886 -0.28188774 -0.5327861 -0.54947627 -0.21549016
0.47476494 0.45860878 0.4142987 0.45235282 -0.04102564 -0.27749065 -0.48205376 -0.3630989
0.68889815 0.59907144 0.19277006 -0.6972729 -0.22237656 0.0758965 0.6729052 -0.27314708

fc_1.bias f4 [128]
00000000: 834a 003f 8182 273f 7eb2 f8be d6d5 a63e
00000010: 6d5f b9be cebf 10bf ecf6 ed3e 2b81 9fbe
00000020: 5c34 823e 8e31 993e ba1c 213d 01c3 ebbe
00000030: b825 bfbd 72b9 23bf 968d cb3d 58a7 413f
00000040: f791 013e 2ae9 24bf f8f0 94bd 3e4a d3be
00000050: 9ab2 f13e 4deb 87be 1136 a7be e211 293e
00000060: 7b98 2c3f cb8d 27bc e1df 80be e45e 343f
00000070: 931a 93be 1a08 293f 1c6b 6bbe 2728 17bf
00000080: 15e8 e83d ee2e f1b5 c045 e1be 88a5 14bf
00000090: dae0 08bd 39e0 03bf 460b ee3e dbb6 0fbe
000000a0: 0f81 4d3e 251f 003f 4536 0cbf b046 8bbe
000000b0: 5d50 94bd 32b5 ddbe 22fa e4be 4634 dd3e
000000c0: 361a 223f ecf9 093f d87b f4bd 6924 ecbd
000000d0: a033 22bd 4c81 9f3e 00cd 08bd 8c67 7dbe
000000e0: a339 253f 362a 323f 3934 693d 8054 93bb
000000f0: cdf4 173f 1515 e5be 7eee 1c3f 2c3b 59bd
00000100: 39b8 293e f4e6 0fbe d1e9 fa3e aef0 bd3d
00000110: 7656 9b3e 7bfb 5b3e e5fb eebe 2cc1 363f
00000120: 0c39 3bbe 808c 5ebd 7be9 2ebf fc28 e9be
00000130: 4c63 d6be cfc9 963e 2ad9 0abf cfba dd3e
00000140: 6a76 ba3e 612d 17ba fda3 ad3e 7cac 5f35
00000150: bdd1 eb3e b91a e6be f6c1 8abe 18fd 51be
00000160: 50e7 bc3e 7079 8b3e 30f9 103f 1b4d 0dbe
00000170: 2d5b c3be acf0 72bd 3993 b53e 5d5f 06bf
00000180: a407 943e 5050 94bd da33 f6be 1bc2 30bf
00000190: a7a6 cfbe d64a 813e 038d eabe 4043 72be
000001a0: c77d 8c3e 89dc c13e 6084 5b33 f8ca b13b
000001b0: 8e84 0bbf 00ac a7bd 44cb 4cbe c652 8bbe
000001c0: acd3 08bf 7e32 5fbe 8352 113f 6f7f ed3e
000001d0: ab79 623e d5eb 5ebe dc05 c7be c8fd bbbd
000001e0: cd7b cb3e 92f0 04bf 4a59 01bf d91b 023f
000001f0: dc1f c3be 803f f9be 391c 30bf a866 303d
0.50113696 0.6543351 -0.4857368 0.3258502 -0.36205617 -0.5654267 0.4647745 -0.31153235
0.25430572 0.2992062 0.039334036 -0.46047214 -0.09333366 -0.6395484 0.09939115 0.7564597
0.12653337 -0.6441828 -0.07272524 -0.4126758 0.47206575 -0.26546708 -0.32658437 0.16510728
0.67420167 -0.010226677 -0.25170806 0.7045729 -0.28731212 0.66027987 -0.22990078 -0.5904564
0.11372391 -1.7969558e-06 -0.43998528 -0.5806508 -0.03341756 -0.5151401 0.46492976 -0.14034598
0.20068763 0.5004752 -0.5477031 -0.27202368 -0.072418906 -0.43302304 -0.44722086 0.43203944
0.63321245 0.53896976 -0.11937684 -0.11530382 -0.039600015 0.31153333 -0.03339863 -0.24746531
0.6454107 0.6959566 0.05693457 -0.004496157 0.5935791 -0.44742647 0.6130141 -0.053034946
0.16574182 -0.14052945 0.49006513 0.09274422 0.30339402 0.21482651 -0.46676555 0.71388507
-0.1828348 -0.05433321 -0.6832501 -0.4553908 -0.41872633 0.29450843 -0.54237616 0.43306586
0.36418468 -0.0005766955 0.33914176 8.332497e-07 0.46058455 -0.44942263 -0.27101105 -0.20506704
0.36895227 0.27241087 0.5663023 -0.13798945 -0.381555 -0.059311554 0.35463884 -0.5248926
0.2891208 -0.07241881 -0.48086435 -0.6904618 -0.40556833 0.25252408 -0.45810708 -0.23658466
0.2743971 0.37863567 5.1110305e-08 0.005425807 -0.5449914 -0.08187103 -0.19999415 -0.2721159
-0.53447986 -0.21796605 0.5676653 0.46386287 0.22116725 -0.2176965 -0.38871658 -0.09179264
0.3974289 -0.5192958 -0.5052687 0.5082374 -0.38110244 -0.4868126 -0.68793064 0.04306665

fc.weight f4 [1, 128]
00000000: 5a72 bc3d 256b c93d d004 d8bc ea16 0c3e
00000010: efab a03d 96cf 353d dc22 173e 1f33 be3c
00000020: 48e5 aa3d 1900 8c3c e10b 2a3d c772 84ba
00000030: 4271 0f3d 007e 76ba 520e 773d aebc 043e
00000040: 27ce 593d d601 92bd cd60 9d3d e395 4ebd
00000050: da41 a93c 6a8e 84bd 8e7c 2cbd fac4 c03d
00000060: c208 ec3d cc49 4c3d 11ad 9f3d e695 043e
00000070: 4efa 073d 11b3 3c3e 0ba9 a4bd 98b0 d83c
00000080: 0c05 d53d 1252 6c3e 96c4 233d 65b7 873d
00000090: d147 ad3d 9401 9dbc f1a6 183e be66 a63d
000000a0: 423a 9e3d d815 c43d 7030 16bc 0cea 82bd
000000b0: 1761 313d 9cfe acbd 68a8 d13c d11b ba3d
000000c0: aaa8 443e 141b 2d3e 08ad cbbc c26b a73d
000000d0: c763 9b3d 3cde 883d 4b36 ad3d 9d97 683e
000000e0: 3f45 4c3e 12b7 143e 6916 70bd e0f1 0bbb
000000f0: 68b6 043e 1dde b3bd d9ca bc3d 38bc 023d
00000100: 0c90 933d 41bb 923d 12af f43c 4b2f 313d
00000110: 34ae f93d 43fc 983d d683 4a3d 9f2b 2f3e
00000120: 175f 64bd 5037 85bd bb8a a63d 58b7 e3bc
00000130: 8829 613c 5e23 233e b4a9 f9bc 3cef 0b3e
00000140: 6011 3b3e 3c2e 1a3d 82f0 413e 7671 393e
00000150: 1e79 333d 67ec 903d 4841 a3bc 1f8f 88bd
00000160: e751 b73d 4299 963d d1df 293e a9a3 a2bb
00000170: dc84 053d 7dfe 403d 8db4 f53d f75c 913d
00000180: bf49 2a3e 1f6f b13d 402e e33c 8f93 9cbd
00000190: 3c83 7abd dee7 493e 6ca7 993d 48ca 4f3c
000001a0: de38 103d 100c b13c 55b7 ea3d 8a52 383e
000001b0: d83c 48bd 9228 5f3d 0382 19bd c498 713d
000001c0: b828 403c 808f 833c de16 923d 172e 4d3e
000001d0: 47bf 273d 2222 c4bc 6ce1 f7bc a041 14bd
000001e0: 3e7b 423e 004a 81b9 00fb 613a 99c5 903d
000001f0: d048 30bb 9c0a 9e3c f21d e7bc cda5 84bc
0.09201498 0.09834889 -0.026369482 0.13680616 0.07845294 0.044387423 0.14759392 0.023217736
0.08344513 0.01708989 0.041515235 -0.0010105007 0.03502012 -0.0009402931 0.06031639 0.129626
0.053175118 -0.071292564 0.07684479 -0.050435912 0.020661283 -0.06472476 -0.042110972 0.0941257
0.11525108 0.049875066 0.07796682 0.12947807 0.033197694 0.18427683 -0.08040055 0.026451394
0.10401353 0.23078182 0.0399824 0.066267766 0.084609635 -0.019165792 0.14907433 0.08125065
0.077259555 0.09574479 -0.009166822 -0.06392297 0.043305483 -0.084470004 0.025592998 0.09087337
0.19204965 0.1690486 -0.024862781 0.0817485 0.075873904 0.06683013 0.08457621 0.22714086
0.1994829 0.14522961 -0.058615122 -0.0021353886 0.12960207 -0.08782599 0.092183776 0.03191778
0.07205209 0.07164622 0.029868636 0.043257993 0.1219143 0.0746999 0.049442135 0.17106484
-0.055754747 -0.06504691 0.081319295 -0.027797386 0.013742812 0.1593146 -0.030476429 0.1366548
0.18268347 0.03764175 0.18939403 0.18109688 0.04381668 0.0707634 -0.01992859 -0.06667923
0.089511685 0.0735345 0.16589285 -0.0049633575 0.032597408 0.0471177 0.11997328 0.0709781
0.16629694 0.08663773 0.027732015 -0.07645332 -0.06116031 0.19717357 0.07502636 0.012682505
0.035210483 0.021612197 0.11460749 0.18000236 -0.04888615 0.05448205 -0.037477504 0.05898358
0.011728458 0.016059637 0.07133268 0.20037113 0.0409539 -0.023942057 -0.030258857 -0.036195397
0.18992326 -0.00024659932 0.0008620471 0.07068939 -0.0026898868 0.019292168 -0.028212521 -0.016192341
