backups/2022-05-20/best-model-4.pt (torch, 4623 bytes, 7 tensors)

lstm.weight_ih_l0 f4 [8, 4]
000000 21 45 72 bf 28 c5 88 bf 8d ae b1 bd 48 ea 5f 3e
       -0.9463673 -1.0685167 -0.08675871 0.21866715
000010 58 09 81 3f 4d 01 c7 40 4d 2d 08 3e 0a f8 1b bf
       1.0080976 6.218909 0.13298531 -0.6092535
000020 a8 a1 fb 3d 98 74 2c bf 88 cf 96 3d 6c aa 5a 3e
       0.12286693 -0.6736541 0.07363802 0.21354073
000030 c0 47 03 3c f4 7f 23 3e 0c 49 8c 3e 3a 97 d9 3e
       0.008012712 0.15966779 0.2739948 0.4249819
000040 a6 4f 9f bd 26 30 ee 3e 9b 3d 8f 3f b5 d8 84 3e
       -0.077788636 0.4652111 1.1190675 0.25946584
000050 52 b2 2d 40 65 97 61 3f 34 94 76 40 ad 56 9e bf
       2.7140088 0.88121635 3.8527956 -1.2370201
000060 e0 4a 4e 3e 50 dc 26 3e 79 74 74 3f 83 0a 68 bd
       0.2014575 0.1629498 0.95490223 -0.05665065
000070 67 bc ae 3f c4 23 04 3e 53 e4 c9 3f 37 8a 1f be
       1.3651246 0.12904269 1.5772804 -0.15580069

lstm.weight_hh_l0 f4 [8, 2]
000000 e2 79 e4 be 94 63 98 be 45 85 0f 3f 77 8d 15 3f
       -0.4462424 -0.29763472 0.5606273 0.58418983
000010 c0 86 31 3d 34 11 15 bf 92 7a e0 3e 8e ef cf 3e
       0.0433414 -0.58229375 0.43843514 0.40612453
000020 f8 6d a8 be 96 85 cf 3e 2c 9d 09 bf eb c5 0b 3f
       -0.328964 0.40531605 -0.5375545 0.54598874
000030 50 d7 d7 3d 92 b8 09 bf b6 01 af 3e 95 bb 17 3f
       0.105391145 -0.53797257 0.34180993 0.592706

lstm.bias_ih_l0 f4 [8]
000000 ac 49 4b be cb 31 40 3d 8a f6 91 be 8f c1 2c 3f
       -0.19852322 0.046922486 -0.28508407 0.67482847
000010 a3 91 1c 3f 0f be 56 3e 1a 88 2a be 46 fe 35 bf
       0.61159724 0.20970939 -0.16653481 -0.71091115

lstm.bias_hh_l0 f4 [8]
000000 57 b8 77 3f 93 f8 9a be a0 1e 21 bd 0f 39 2c 3f
       0.96765655 -0.30267772 -0.039335847 0.67274565
000010 4a 95 c2 3f 0e 75 e6 be a6 5e 3a 3f f7 f8 a4 bf
       1.520181 -0.4501118 0.7280067 -1.2888478

fc_1.weight f4 [128, 2]
000000 f5 6b 08 c0 83 ba eb bf a5 85 fc 3e 87 4e 14 bf
       -2.1315892 -1.8416294 0.49320713 -0.57932323
000010 c3 d6 51 bf 9e d3 39 be 3c 53 15 bf b8 15 01 bd
       -0.81968325 -0.18147132 -0.5833013 -0.031514853
000020 b1 b1 bc 3d 3f 84 0a be 76 9f c8 be 7a 82 fc 3e
       0.092135794 -0.1352701 -0.3918416 0.49318296
000030 f8 a7 97 bd ce c3 a9 3e d8 a0 8c bd f0 b0 8b 3d
       -0.07405084 0.331572 -0.06866616 0.068208575
000040 e4 ef ad 3d eb 91 ad bf 4a 94 f3 3f c1 1e 85 3f
       0.08493021 -1.3560156 1.9029629 1.040001
000050 e2 c4 f3 3e 10 7c 06 be 3e 49 88 bf e9 70 50 bf
       0.47611147 -0.13133264 -1.0647352 -0.8142229
000060 6a 8f cb bd cb 8b 1e be 2e 77 5b bf 1e da aa be
       -0.099394634 -0.15483014 -0.8572873 -0.33369535
000070 98 57 83 3d e3 97 0f bf 90 cf a3 bf 07 ea 9f bf
       0.064131916 -0.56091136 -1.2797718 -1.2493294
000080 b6 db fb 3f dd 28 69 3f a2 e3 87 be 2c 23 bc bf
       1.9676425 0.9107798 -0.26540858 -1.4698234
000090 58 da cf bd 3f 55 8c be 40 1f c0 bb a9 39 a1 3e
       -0.10149068 -0.27408788 -0.0058631003 0.31489304
0000a0 6d 33 99 bf 8e a6 7f bf 35 6f ff 3e 7d 58 58 bf
       -1.1968819 -0.9986352 0.49889532 -0.8451002
0000b0 b0 0d 91 3e 85 71 38 bf e0 48 32 be 2a 34 d9 3e
       0.28330755 -0.7204822 -0.17410612 0.4242261
0000c0 0b 64 21 40 41 28 9c 3f e8 8b e7 3d 6d 0e 2d bf
       2.5217311 1.2199785 0.11305982 -0.67600137
0000d0 e8 56 5f be 14 70 cc be 09 22 b7 3e 5a 99 7a 3d
       -0.21810496 -0.3992926 0.35768154 0.061181404
0000e0 11 bb 82 be a4 41 13 bf c8 85 7f be 37 45 1a 3f
       -0.25533345 -0.57522035 -0.24953377 0.60261863
0000f0 4d 9a a2 3f 75 07 30 c0 c4 47 d7 3d 59 48 66 bf
       1.2703339 -2.7504551 0.10511735 -0.89954144
000100 91 82 33 bf b1 71 d4 be 7d c3 94 bf 12 38 0c bf
       -0.70121104 -0.4149299 -1.1622158 -0.54773057
000110 ac c4 02 be 83 db 9a be 45 30 34 bf 62 da 30 bf
       -0.12770337 -0.302456 -0.70386153 -0.69083226
000120 8b 82 d5 be ec 88 c9 be 2a 61 f5 be 40 89 a0 3c
       -0.4170116 -0.39362276 -0.47925693 0.019596696
000130 2b 5d a1 3f 08 a3 a3 bf f6 88 80 be 80 97 7f bd
       1.2606558 -1.2784128 -0.25104493 -0.06240034
000140 b9 79 93 be ae db df be df ba c7 3d b0 ba ac be
       -0.28803805 -0.4372229 0.0975244 -0.3373618
000150 93 c7 85 bf 93 f7 6d bf 60 4f 73 3e f8 79 44 3e
       -1.045153 -0.92955893 0.23760748 0.19187152
000160 ca 4a 82 be 84 40 5d be aa a3 15 bf db 3f 2e 3f
       -0.25447685 -0.21606642 -0.58452857 0.68066186
000170 b7 b7 92 be 11 6a 4a bf 60 86 10 3e bb be 20 bf
       -0.28655788 -0.79068094 0.1411376 -0.6279103
000180 1c 3a 4f be 20 95 47 3d 1f 17 76 bf c2 ad 80 bf
       -0.2023701 0.0487262 -0.9612903 -1.0053027
000190 32 77 7c be b7 7c f0 be 20 09 9f bd 80 53 f7 bd
       -0.24654844 -0.4697015 -0.07765412 -0.12076473
0001a0 4e b5 a5 3d 88 0e 3c bf cb 57 ef bd 1d 44 5f bf
       0.08091222 -0.7345967 -0.11686667 -0.8721331
0001b0 b2 8f dd be 28 67 1b bf b8 01 ba be f8 e1 66 bd
       -0.43273693 -0.6070428 -0.36329436 -0.056367844
0001c0 e4 9b 0a c0 37 18 f2 bf f2 76 96 bf bf 8f 93 bf
       -2.1657648 -1.891364 -1.1755049 -1.1528243
0001d0 f0 dc 47 bd 7c 7f 48 be 99 7e 8a 3e 57 25 91 bf
       -0.048794687 -0.19579881 0.2704971 -1.133952
0001e0 5b 84 01 3e 63 9f f5 be ca 9e 5e 3e c1 62 ac bf
       0.12648146 -0.47973165 0.2174026 -1.3467637
0001f0 a3 89 a5 be 54 f5 20 bf 80 43 47 bd 00 0a 4c 3c
       -0.3233157 -0.6287434 -0.048648357 0.012453556
000200 50 e5 ed be 45 c8 c1 be 51 1e bb be 92 86 23 bf
       -0.46464014 -0.37848106 -0.36546567 -0.63877213
000210 8b d7 91 be 83 f2 4c bf 49 b5 24 bf 6b d9 09 bf
       -0.2848476 -0.80057544 -0.6433912 -0.5384738
000220 ad 75 75 be 61 a6 1a bf d6 db 0d c0 9b ec 10 c0
       -0.23970671 -0.60410124 -2.2165427 -2.2644413
000230 94 cd 00 3e be 90 26 bf 94 43 c4 3d 42 af 66 be
       0.12578422 -0.6506461 0.09583202 -0.22527793
000240 dd d4 a0 bf c2 a5 33 be 73 8f a6 bd 27 1e f9 bd
       -1.2564961 -0.175437 -0.081328295 -0.12163954
000250 4e 9f 12 be fd a1 32 bf ab 6c 52 bf 45 d4 37 3d
       -0.14318582 -0.69778425 -0.82197064 0.04488017
000260 71 67 65 bf 8b fa a5 bf cf 8c d3 3e 30 76 0d bf
       -0.89610964 -1.2967085 0.41318366 -0.55258465
000270 46 a4 a5 3e 43 3e 94 bf 2b d0 1f 40 d5 f3 67 3f
       0.32351893 -1.1581501 2.4970806 0.90606433
000280 25 ac 3f 3e 71 0b 01 3f ba 43 98 3e e0 95 57 3e
       0.18718012 0.50408083 0.2973917 0.21053267
000290 c7 5a 28 3d 10 38 45 be cc a3 37 c0 e8 fc 2c c0
       0.041102197 -0.19259667 -2.8693724 -2.7029362
0002a0 6c 45 aa 3e 07 bc ec bf 2f e9 91 bf 02 3e 83 bf
       0.3325609 -1.8494881 -1.1399287 -1.0253298
0002b0 c8 0e d5 3f a7 7d fd 3e 80 4d 7a 3e 58 8e 1b bf
       1.6645136 0.49509928 0.24443626 -0.60764074
0002c0 a6 5f c6 bf 5a 9c cb bf dc 18 6f be a5 66 bd be
       -1.549794 -1.590709 -0.23349327 -0.36992374
0002d0 17 f9 1f 3f 80 8f e7 bb 83 aa 66 bf 49 b6 a4 bf
       0.62489456 -0.007066667 -0.9010393 -1.2868129
0002e0 d0 0b bb 3e 9c 3e 57 bf e0 8a 5e 3d d6 0a b1 be
       0.3653245 -0.8407991 0.05433166 -0.3457858
0002f0 2d fd 0d bf 60 0f e9 3c 05 94 aa be 38 bb fc be
       -0.5546444 0.028449714 -0.33316055 -0.49361587
000300 60 21 a5 3c c8 6f 15 bf b1 56 98 3e 49 79 01 3d
       0.020157516 -0.5837369 0.2975364 0.031609807
000310 9b f6 08 be 69 21 b4 3e a4 b6 f4 bf 00 7e 91 3f
       -0.13375323 0.3518174 -1.9118237 1.1366577
000320 de 0f c1 bf 05 c1 4f 3f a9 db a7 bf fb df ca 3f
       -1.5082967 0.811539 -1.311391 1.5849603
000330 5b c6 9e 3d 46 38 a2 be 3a c0 8d be ee e5 a0 bf
       0.07752677 -0.31683558 -0.2768572 -1.2570169
000340 bc c9 04 bf 2f 83 b0 be 3f ed 5d bf 71 be 0a bf
       -0.5187032 -0.34475085 -0.86690134 -0.5419684
000350 4a 57 f0 be 4c 8c 32 bf 69 23 0b bf 54 ac 42 be
       -0.46941596 -0.69745326 -0.54350907 -0.1901105
000360 94 7a 00 3e 73 be 90 be 97 4e 45 3e ca 65 fc bf
       0.1254676 -0.282703 0.19268261 -1.9718564
000370 ee 90 81 bf c4 88 bd be 51 9d fa 3e c2 5f 66 bf
       -1.0122354 -0.37018406 0.48948148 -0.89989865
000380 a0 ef a3 3c 26 5f db 3e c8 70 7a 3e d1 1f 15 bf
       0.020011723 0.4284603 0.24457085 -0.58251673
000390 0c 21 1d 3e 10 2b 5b be 6e 88 35 3e a6 ed 1c bf
       0.15344638 -0.21403146 0.17727825 -0.6130012
0003a0 60 d5 aa bf 5b f2 d1 bf 8e ae 9d 3f 73 6c 80 3e
       -1.3346367 -1.6402086 1.2318895 0.2508274
0003b0 c4 ac fa be 8c 23 da be 25 56 f1 3d a5 51 6a bf
       -0.48959935 -0.42605245 0.11784009 -0.9153083
0003c0 0d 0c 0f 3f 3a 2d 20 3d 64 a5 8c bf c2 09 a4 3c
       0.55877763 0.03910563 -1.0987973 0.020024184
0003d0 59 5d 53 3e 24 2c c3 be ce b3 e2 bd f9 61 74 bf
       0.20641078 -0.38119614 -0.11069451 -0.95461994
0003e0 3f f7 cc 3d b6 49 27 bf 95 e2 91 3d 5b 76 e8 be
       0.10008096 -0.6534685 0.07123295 -0.45402798
0003f0 7e 1d b8 3e dc ac 9f be 20 4d d2 3d 80 ff 3d 3d
       0.3596 -0.3118657 0.10268617 0.046386242

fc_1.bias f4 [128]
000000 4e bf 42 c0 9a 2b 90 be 5c 96 46 bf b5 69 b4 bd
       -3.0429263 -0.28158265 -0.7757318 -0.088092245
000010 7e b1 bc bd 55 bb 05 bf a1 14 03 bf 7f 0c b7 be
       -0.092135414 -0.5223897 -0.5120335 -0.3575172
000020 7b 63 20 be 50 9b 97 3e 90 ef fb be a0 d6 02 bf
       -0.15662949 0.29610682 -0.4920621 -0.5110874
000030 99 05 f2 bd f2 c8 e4 be 97 ee 30 bd 98 3a 3c bf
       -0.11817474 -0.4468456 -0.043196287 -0.73526907
000040 05 81 35 be dd 0b 34 bf c9 ff db be f8 7d 5f be
       -0.17724998 -0.703306 -0.42968586 -0.21825397
000050 53 e2 0f bf bc 2b c6 be ec 2a 47 be 5b 5d b8 be
       -0.5620472 -0.38705242 -0.19449967 -0.36008725
000060 db c7 d1 bf ca 94 87 bd f3 95 c4 be 90 d9 69 be
       -1.6389116 -0.06620176 -0.38395652 -0.228369
000070 04 bd f0 be 30 72 21 bf 27 31 f3 be 94 67 38 bf
       -0.47019207 -0.6306486 -0.47498438 -0.7203305
000080 01 ef 2a bf 7d 3b 02 bf 8e d6 2b bf 92 33 14 bf
       -0.6677094 -0.5087202 -0.6712426 -0.5789119
000090 5b 9c 19 bf f1 da 1e bf c8 95 36 bf d0 82 5e bd
       -0.60004205 -0.6205283 -0.713223 -0.05432397
0000a0 d4 92 09 be d9 38 81 bf 2b 0d 07 bf 68 fa d0 be
       -0.13434917 -1.0095474 -0.5275447 -0.40816045
0000b0 39 e3 c8 be 0a fa 10 bf f3 b4 1d bf d8 70 be bd
       -0.39235857 -0.5663153 -0.6160423 -0.09298867
0000c0 de 15 c1 be 53 c4 46 bf 28 0b 87 bd 0c fb 07 bf
       -0.37711996 -0.77643317 -0.06593925 -0.5311744
0000d0 35 1f 0b be ff 44 38 bf 22 55 fc be 37 bb 39 bf
       -0.13586123 -0.7198028 -0.492837 -0.7255129
0000e0 e8 8c 3d c0 02 0e 19 bf a3 15 8e be a5 e9 19 be
       -2.9617252 -0.59787 -0.27750883 -0.15030535
0000f0 7f f8 95 bd f8 a6 a5 be 8a b9 1e bf 90 aa 45 bd
       -0.073227875 -0.3235395 -0.6200186 -0.048258364
000100 01 cc c6 bd 58 58 b5 bd 5a d7 89 bf 94 5e 14 bf
       -0.097068794 -0.08854741 -1.0768845 -0.57956815
000110 bb af 67 bf ba 16 48 c0 1c fa 43 be ff 10 1b bf
       -0.9050252 -3.1263871 -0.19138378 -0.6057281
000120 4e 7c 1a bf b5 e4 cb be 74 fe 8a bf 25 75 08 bf
       -0.60345924 -0.39822927 -1.0858903 -0.5330375
000130 95 1d d8 be 0e 4b 67 be ed dc 62 be 8d 81 c4 bf
       -0.4221007 -0.22587225 -0.22154589 -1.5352036
000140 d5 9b e9 bd 11 3d 01 bf f9 2c 35 bf be 77 4e c0
       -0.11406676 -0.50483805 -0.7077175 -3.2260585
000150 9a 30 53 be 59 c5 11 bf 1a 45 bf bf 0a 2d 0f bf
       -0.20624009 -0.56941754 -1.4942963 -0.559281
000160 50 e0 40 c0 26 61 85 bf 23 61 17 bf 68 3f ea be
       -3.013691 -1.0420272 -0.59132594 -0.457515
000170 47 ec c4 be d4 0f 27 bf 53 e0 e6 be f0 50 8e be
       -0.38461515 -0.65258527 -0.4509302 -0.27796125
000180 e6 14 27 bf a7 65 37 be ce 46 00 bf 6a 63 32 bf
       -0.65266263 -0.17909871 -0.5010804 -0.69682944
000190 44 db f3 be d4 f3 07 bf 1e 1e 0d bf 33 ff 1a bf
       -0.47628224 -0.5310643 -0.5512408 -0.60545653
0001a0 d8 5b ec bc 10 bb 0d bf fc 6e 37 bf 36 a5 2b bf
       -0.028852388 -0.5536356 -0.71653724 -0.67048967
0001b0 a6 1a 26 bf 95 49 50 be 6f 7f 25 bf 99 5d 96 be
       -0.6488441 -0.2034057 -0.64647573 -0.29368284
0001c0 b8 c9 c5 be aa 6e 0e bf 7a ba 33 bf a4 88 cf bd
       -0.38630462 -0.5563761 -0.70206416 -0.10133484
0001d0 f7 a9 3e c0 3a bb 49 bf ab 4f 2b bf 59 b3 fa bd
       -2.9791238 -0.7880131 -0.6691844 -0.12241239
0001e0 fb a4 ae be e2 a7 28 bf 9a 66 ff bd 6e 39 2a bf
       -0.34110245 -0.6588117 -0.124707416 -0.6649388
0001f0 d4 8e 79 bf 51 44 71 bd 6d d2 e6 be 90 87 11 be
       -0.97483563 -0.058903042 -0.45082417 -0.14211869

fc.weight f4 [1, 128]
000000 b0 1d 8d 3c b0 a7 f5 3d 6c b3 e8 3e 2a 66 4e bd
       0.01722607 0.119948745 0.45449388 -0.0503904
000010 9b ef 61 bd 56 05 68 3d 8b bf 94 3d 30 e4 91 bc
       -0.055160146 0.056645714 0.072630964 -0.017809004
000020 88 e0 8b 3d c9 07 2d 3f 38 d5 d5 3c 37 df 06 3f
       0.06829935 0.67590004 0.026102647 0.5268435
000030 39 09 cc bd 4d 06 18 3f c4 e1 90 3c 51 6b ca 3e
       -0.099626966 0.59384614 0.017685778 0.39535
000040 72 6c ea 3e fb ab bd 3e 55 57 94 3d de 46 a9 3d
       0.45785862 0.37045273 0.0724322 0.0826547
000050 4d 65 15 3f d0 03 fb 3d ed 2a 42 bd 5e b6 72 bd
       0.583577 0.122565866 -0.04740422 -0.05925595
000060 ec 34 0c bf 44 41 1b 3d 00 39 e2 3a 80 53 3a bc
       -0.5476825 0.03790404 0.0017259419 -0.011372447
000070 e4 2d 12 bd d9 c1 88 3d 43 90 a6 bc 29 a3 ce 3e
       -0.035688296 0.066775985 -0.020332461 0.40358856
000080 c8 e2 05 3c 93 2e 0d 3f bd 13 b0 3d e8 c7 ff 3c
       0.008171745 0.5514919 0.08597515 0.031223252
000090 d0 b7 c0 3e af 36 92 3d 6d 9f 4f 3c d8 cb 7d bd
       0.37640238 0.07139336 0.012672287 -0.06196198
0000a0 28 86 ec 3c ce c0 13 bf 6f 2a 17 3f 93 9f 4e bd
       0.028872564 -0.5771607 0.59049124 -0.05044515
0000b0 00 f3 6b bb 40 3d bf ba 7f a2 9a 3e 24 a3 d6 3c
       -0.0036002994 -0.0014590397 0.302021 0.026200838
0000c0 a0 5c 49 bb ba af e3 3e 4e 71 9d bd c8 ac 83 bc
       -0.0030725375 0.44470006 -0.07687627 -0.0160736
0000d0 94 ad cd bc da 2a d7 3e 18 de f5 3c a9 0b 15 3f
       -0.025107183 0.4202488 0.03001313 0.58220917
0000e0 e8 d4 df 3c e4 60 c5 3e b0 8e 92 bc 19 e7 2e 3d
       0.027323201 0.38550484 -0.017890304 0.04270086
0000f0 76 37 88 3c e7 5c a4 bd a5 89 7a bd 58 3b 61 bc
       0.016628008 -0.08025532 -0.061166424 -0.013747059
000100 7e ca ae 3e 04 55 ee 3c 38 43 a3 3e 08 0f 60 bd
       0.34138864 0.029093273 0.3188722 -0.054701835
000110 be a3 32 bf 38 3a 65 3f 78 f0 a2 3c 5f 20 0c 3f
       -0.697811 0.8954196 0.019890055 0.54736894
000120 70 26 13 3f f8 2f 13 3f 6e 80 2b bf e4 b0 16 3f
       0.57480526 0.5749507 -0.66992843 0.58863664
000130 be 3c 0e 3f a3 10 87 bc 65 91 82 3d 86 b2 98 be
       0.55561435 -0.016487425 0.06375388 -0.29823703
000140 4e 7a e1 3c 1e 2f 62 3d 4b c6 0c 3f 1e f7 a4 bf
       0.02752414 0.055220716 0.5499007 -1.2887914
000150 75 45 a3 bc 15 60 04 3f ac 9e 4c bd 7d 91 35 bd
       -0.01993058 0.5170911 -0.04995601 -0.0443282
000160 a8 a0 d8 bd 89 43 2a 3f 62 60 7a 3d db d1 0a 3f
       -0.10577518 0.665093 0.061127074 0.54226464
000170 c6 af a5 3d e0 56 26 bd d6 c9 71 3d d6 8b 88 bd
       0.08090167 -0.040610194 0.059030376 -0.066672966
000180 75 c3 33 bd 44 80 e3 3c e5 64 e6 be 6d fb 18 bf
       -0.043887574 0.027771123 -0.4499885 -0.59758645
000190 16 9d 9d be 8f a8 ed bd 13 e9 11 3f 09 cd 17 3f
       -0.3078391 -0.116044156 0.5699627 0.59297234
0001a0 c3 03 8c 3e af e7 11 3f 51 0d 6a 3e c0 ac 40 bb
       0.2734662 0.56994146 0.22856642 -0.0029399842
0001b0 32 ef 80 bd 8b 2e cc 3d ef 2d f3 3e 06 6a 39 bd
       -0.06295623 0.09969815 0.47495982 -0.045267127
0001c0 64 51 d8 3c 82 c0 37 3d 13 ef 99 3d 7c 70 99 bc
       0.026405998 0.044861324 0.07516303 -0.018730395
0001d0 c0 d8 1e 3e 55 af ef bd 19 ef 3a bd 16 dc 80 3d
       0.15512371 -0.11703364 -0.045638178 0.06291978
0001e0 38 54 ae bc 1d d8 05 3f 55 45 9b bc 38 8a bd 3e
       -0.021280393 0.5228289 -0.018953959 0.37019515
0001f0 6f 4d f4 be 12 72 b1 3c 97 95 81 3d 20 61 84 bd
       -0.47715327 0.021660838 0.0632736 -0.064638376
