backups/2022-05-20/best-model-1.pt (torch, 4687 bytes, 7 tensors)

lstm.weight_ih_l0 f4 [8, 5]
00000000: a42e 2b3f da06 1ebf a5b2 a7bc d3be 373e
00000010: 7532 093f f7dc 933c 5dc3 b0be dda3 573e
00000020: cf9d 003f df8c b43d 0068 593c b09b e9bd
00000030: e4e8 b3be 8543 1b3f 2015 ee3c 68e3 303e
00000040: 8a16 03bf 5e88 ea3e 50b1 523d 656f 143f
00000050: 5b38 9d3e 32b6 2a3e 1a87 30be 7d20 b5be
00000060: a74c 293f 678e c6bd 92f9 273e 3f80 11be
00000070: 3baf 343f 8529 b5bc 425a d0bd 0b61 babe
00000080: a364 8a3d d070 223f 0b47 1f3f 4133 093e
00000090: c3d8 213e e76e aebd 9a4e e93e a763 293e
0.6686804 -0.61729205 -0.020470927 0.17943887 0.53592616 0.0180497 -0.3452405 0.21058603
0.50240797 0.088159315 0.013269424 -0.11406648 -0.3513862 0.606499 0.029062808 0.17274249
-0.51206267 0.45807165 0.05143863 0.57982475 0.30707058 0.16671064 -0.17239037 -0.3537635
0.6613259 -0.0969513 0.16403797 -0.14209078 0.7057988 -0.022114525 -0.10173465 -0.36402163
0.06757476 0.6345339 0.6221778 0.13398458 0.15805344 -0.08517247 0.4556778 0.1654192

lstm.weight_hh_l0 f4 [8, 2]
00000000: 9ef8 e83e fffd 213f 54e1 5abe e897 49be
00000010: 7742 89be f06f 083e c2d4 e73e 38da 4b3e
00000020: 3f15 153f d833 493e 00d7 1abc 5091 3ebd
00000030: 0c84 223e 7060 a6bd a5f0 213f 98ae 273e
0.4550218 0.6327819 -0.21375018 -0.19686854 -0.2680852 0.13323951 0.4527951 0.19907463
0.58235544 0.19648683 -0.009450674 -0.0465253 0.15870684 -0.08123863 0.6325782 0.16375196

lstm.bias_ih_l0 f4 [8]
00000000: d4ff c8be 94fd 8f3e c963 90be 40c1 1d3d
00000010: 4a35 e23e 0a8f 253f 4c11 4a3e b84b 713e
-0.3925768 0.28123152 -0.2820113 0.038514376 0.4418128 0.64671385 0.1973316 0.2356404

lstm.bias_hh_l0 f4 [8]
00000000: 6b9a 173f e972 e43d d2ac f53e c53a 0e3f
00000010: b8ca bdbb 0e03 2a3f 4831 0e3f c66c e43e
0.5922 0.1115473 0.47983414 0.55558425 -0.005791988 0.6641091 0.5554395 0.44614238

fc_1.weight f4 [128, 2]
00000000: ebd7 153f 6217 b43e 9689 f43e 6f0f 7e3f
00000010: 4005 0cbf b669 6c3f ca3b 13bf 5095 103f
00000020: d1b3 97be ce74 33bf ac7a 25be f8d3 883e
00000030: e4f4 bbbd 93d3 3d3e 5ce4 bbbd dbad ae3e
00000040: 3f62 123f 1b2c bbbe 1a5a d63e 0437 afbd
00000050: 221a 963e a86b 843d 690c 313e 3cd2 b4be
00000060: a87d 32be 42b2 00bf 8381 2d3e f106 21be
00000070: 601c 36bd 70f7 cdbd e1dd 3dbf e8eb 303f
00000080: a1fa a43e 18dc afbe 8a19 5cbe d041 4e3e
00000090: d47a dcbd bf29 fe3d 6816 8fbe a0a6 85bc
000000a0: 0c68 263e 0815 d1bd 240e 473e 16fd 09bf
000000b0: 837d 64bf a867 68be 4a5b 9fbe 2464 6cbe
000000c0: 40b4 f63d ed08 2f3f 6d0d 84be c83a 88be
000000d0: b2c2 143f 4886 9f3e c0be 09bc 7ecd bf3e
000000e0: daac f73e f2c9 053e c5ec 32bf 4a1e af3e
000000f0: 5fc3 0f3e 9748 0bbf e62b d6be 375d 323f
00000100: 8b64 c43e 3813 f23e 48f0 e23d 1e75 be3e
00000110: 1839 b43e 9071 56be bf11 8bbe 9bf1 c03e
00000120: 275f 17bd 663e 44bf 0c54 643e 87ad 0dbf
00000130: 9575 16bf 10f2 09bf 76aa edbe 0e1f e73e
00000140: 88a6 1f3e 565f 59be fa7a bd3e 0dfb cfbe
00000150: ac7f f53e fc3e fcbe 82fe a3be 0280 eebe
00000160: 65d9 073e f2db 103f 8a3d e53e d093 0e3d
00000170: 52d3 d63e 8eeb 9dbd f8a4 debc a047 473f
00000180: 979a 01be 35ec 1d3f 48aa b0be c10c 103f
00000190: 58c1 7abe bdc3 8cbe 07ac a13e 9b6f 0c3f
000001a0: 62ad eabe 9715 313f a71d c5be 7f1c 903d
000001b0: 68a4 abbd f949 05bf 60da 10bd 4ef0 2ebf
000001c0: e21a dc3e 32a5 57be c5fc d5be 04c0 863e
000001d0: 987e 823d 3e9f a5be f857 d73e ed1b 623f
000001e0: 80a4 15be c041 e2bc 4838 eebe 6afb b03e
000001f0: 155d d2bd 7fd7 4b3f 5784 1e3f 4a19 32bf
00000200: 099e ffbe 2ca7 49be 699a 64bf 091e de3e
00000210: 3e9b 8bbd 0ae1 883c 9cc1 8b3e b7d2 6a3f
00000220: 5964 c43b 6a81 04bc f02f 343e de1d 3b3f
00000230: 07a6 bcbe de81 76bc 86b2 b13e c802 c23d
00000240: 20e3 8e3c 3cbd 103e 4523 b13e 50db 89bd
00000250: fd35 443e 79d5 f13e 98f7 a9bd 3cbc 51be
00000260: 891b 93be c085 3f3e d923 8fbe 3b91 213d
00000270: 1afd 773d 41e1 f33e 50da 37be 15b9 b43e
00000280: 9f10 d83e be01 823f 6634 0dbf f044 1e3f
00000290: 2d5b debe b073 b2bd e36a 18bf e239 d6bd
000002a0: 8c8c 86be f0c2 7a3c b195 cc3e d183 a83e
000002b0: a85c e03e d6d2 f3be e0cd 763d 003a f1ba
000002c0: 804e 083e 54c9 21bf 3dd4 dbbe 5b1f 9c3e
000002d0: 4821 e5bd e84b 1e3e f0f8 d43e e526 763f
000002e0: f80b 17bf e4c1 04be bd3d ff3e eb1e d1be
000002f0: e663 063f 9089 0c3e d95d 13bf f90e e9be
00000300: 465d c6be 92b1 ac3e f481 63be 3a99 773e
00000310: 9417 45be 99a8 2c3f 8f03 0dbf 6e69 ae3e
00000320: 063c 933e a0ed 983e 4f20 3abf 5743 cdbc
00000330: 70ec 49be 105b b2bd 1c81 f2bd de0f 183f
00000340: e00a c53c 3091 05bd 4e8f 28bf 8475 48be
00000350: d169 e03e 7207 2b3f aa55 9c3e aeed 8b3e
00000360: 7cdf fd3e d70e 9b3c b5c5 f63d 636b 403f
00000370: 3ed5 92bc 3ddb fd3e 5b4d aebe 047a 193e
00000380: ac57 5dbe 1880 8c3e 2a3b 18bf 1b30 39bd
00000390: e5a5 20bf 21fd b33e 5feb 62bd 812b 9dbd
000003a0: daf9 0fbf 4c7e 333e 56e4 1a3e 1c23 ea3e
000003b0: a18f ca3e 75a3 ef3e 8c8c 173f efe5 6ebe
000003c0: 3d29 2c3f 04e5 0ebf 07bb f63d b94d 8b3e
000003d0: b778 b53d c179 013f be32 a73c 6c3e adbe
000003e0: 30d8 65bf feae 163f 869c 1ebf 5065 43be
000003f0: 184e 253f 9460 183f 7a64 c13e 7c8c 1e3f
0.5853259 0.3517409 0.4776122 0.992423 -0.5469551 0.923488 -0.57513106 0.5647783
-0.29629377 -0.70100105 -0.16160077 0.2672422 -0.091775686 0.1853774 -0.091744155 0.34117016
0.5718116 -0.36557087 0.41865617 -0.08555415 0.29316813 0.06465846 0.1728989 -0.35316646
-0.17430747 -0.50272 0.16943936 -0.15725304 -0.044460654 -0.100569606 -0.74166685 0.69109964
0.32222465 -0.34347606 -0.21494117 0.20142293 -0.10765615 0.12410306 -0.27946782 -0.016314805
0.16250628 -0.102090895 0.19438988 -0.53901803 -0.89254016 -0.22695792 -0.31124336 -0.23085076
0.12046099 0.68372995 -0.25791493 -0.26607347 0.5810958 0.31157136 -0.008407295 0.37461466
0.48374063 0.13065317 -0.6989253 0.34202796 0.14039372 -0.5440764 -0.41830367 0.69673485
0.38357958 0.47280288 0.11080986 0.37198728 0.3519981 -0.20941758 -0.27161977 0.3768433
-0.03695598 -0.7665771 0.22297686 -0.55342907 -0.58773166 -0.53884983 -0.46419114 0.4514088
0.1559087 -0.21227774 0.37007886 -0.40621224 0.47948968 -0.49266803 -0.32030112 -0.46582037
0.13266523 0.5658561 0.44773513 0.034808934 0.419581 -0.07710944 -0.027178273 0.77843666
-0.12656628 0.6168855 -0.34504914 0.5626946 -0.24487817 -0.27493086 0.3157656 0.54857796
-0.45835406 0.6917357 -0.38499185 0.07036685 -0.083809674 -0.52066 -0.03536451 -0.68335426
0.4298926 -0.21059111 -0.4179441 0.2631837 0.06371802 -0.32348055 0.42059302 0.8832386
-0.14613533 -0.027619243 -0.46527314 0.34566814 -0.1027166 0.79625696 0.61920685 -0.6956984
-0.4992526 -0.19692677 -0.8929811 0.4338229 -0.068167195 0.01670887 0.2729615 0.91727775
0.0059934077 -0.008087495 0.17596412 0.7309245 -0.3684542 -0.015045611 0.34706515 0.09473187
0.017442286 0.14134687 0.3459722 -0.06731284 0.1916122 0.4723318 -0.08299178 -0.20481962
-0.28731945 0.18703365 -0.27957037 0.039445143 0.06054411 0.47632793 -0.17954373 0.35297456
0.4220018 1.0156782 -0.5515808 0.6182394 -0.43428937 -0.08713472 -0.59538096 -0.10460259
-0.26279104 0.015305266 0.39957955 0.32913068 0.4382069 -0.47621793 0.06025493 -0.0018404126
0.13311195 -0.6319783 -0.42935362 0.30492672 -0.111879885 0.15458643 0.41596174 0.961531
-0.5900264 -0.12964588 0.4985179 -0.408439 0.5249618 0.13724351 -0.57565075 -0.45519236
-0.38743037 0.33729225 -0.22217542 0.24179545 -0.19247276 0.6744476 -0.55083555 0.3406481
0.28756732 0.29868793 -0.7270555 -0.025056524 -0.197191 -0.08708775 -0.11841032 0.5939921
0.024053037 -0.032609165 -0.65843666 -0.19576079 0.43830732 0.66808236 0.30534106 0.27329773
0.49584568 0.018927975 0.120494284 0.7516386 -0.017923947 0.49581328 -0.34043393 0.14987952
-0.21615475 0.27441478 -0.5946528 -0.045211893 -0.62753135 0.3515406 -0.05540025 -0.07674313
-0.5624062 0.17528647 0.15126166 0.4572991 0.39562705 0.46804395 0.5919883 -0.233299
0.67250425 -0.558182 0.120473914 0.27207735 0.08860915 0.50576407 0.020409938 -0.33836687
-0.89783 0.58860767 -0.61957586 -0.19081616 0.64572287 0.59522367 0.3777197 0.6193311

fc_1.bias f4 [128]
00000000: 7590 2cbf b19b 0dbf d2dc f13e f8dd ee3c
00000010: dcce eebe 2369 adbe 2141 3c3f d890 ec3e
00000020: 4bf8 07bf 36ea 553d e26f cfbe ba63 28be
00000030: c03d 03bc 21c4 133f bc45 eabe a224 453d
00000040: abfc 123f 56bc edbe a6da 033e 8092 8ebc
00000050: b8e3 32bf 9a10 ab3e 9812 c83d bb1f a6be
00000060: 2911 01bf 5c32 9ebe 1914 003f 8ed4 26bf
00000070: 19b4 5abd 9450 0dbf 21b3 31be bc55 2dbf
00000080: 0168 9c3e 9c3c 1ebf f6e9 233f e5cf ae3d
00000090: 051b 85bd 984b 2fbf 32a3 dbbe 1541 0fbf
000000a0: 51db 95be 3da7 31bf d1be 67bc f3c8 c0be
000000b0: 13c4 af3c 6802 bfbe 92ae b13d ae04 fe3e
000000c0: a643 353f 408c 773e 508b 2c3e a6de 3fbe
000000d0: 7ea9 e8be 840f 17be 4438 6ebe a80c 8abd
000000e0: a856 08bf 5889 da3e 08cb a13e f894 1e3e
000000f0: c31a 31bf b28a 0dbf 0c77 4a3d 7113 03bf
00000100: 3584 9b3d f520 303e 813a 863e 2a1d 953e
00000110: ee85 49bc 475c 2f3e 643f 9ebd 5a8d 13bf
00000120: e438 14bf 0120 7cbe ea52 603e d6d5 2abf
00000130: 752e 8dbe 02b6 b53e bb0a a23e 5988 8ebe
00000140: 5b4b 163f af7d 343e cd42 e9be 55e8 c33e
00000150: 6941 333f f01f 4cbe 3e7e b1be f4c2 02bf
00000160: a254 34bf 0466 9f3e d079 1dbf 07c8 3b3f
00000170: c084 3e3e c12a 9dbe 5ed2 1c3f f826 e7bd
00000180: 2f12 603e dbec 963d 00f4 04bf 8a8b bebe
00000190: a17a 3a3f 0c47 253c 7e55 32bf 4e82 b63c
000001a0: 88b1 e7be ef1a 96be c60c 9c3e c4f1 003f
000001b0: 7b9a 653c df5c fd3e 9c67 8739 a895 07be
000001c0: f9ae abbe 4ea9 b63e 012c dc3e f359 573e
000001d0: 9746 c8be df8d 053f ca06 ddbe 376f 953e
000001e0: 240f e9bd 169b 543e bf99 223f e977 be3e
000001f0: c772 e13e de29 cbbe 9cae 9bbe 3937 9d3d
-0.67407924 -0.5531569 0.47238785 0.029158577 -0.46642196 -0.33869275 0.7353688 0.46204257
-0.5311324 0.052225314 -0.40515047 -0.16444293 -0.008010328 0.57721144 -0.45756328 0.04813064
0.5741679 -0.4643275 0.12876377 -0.017403841 -0.6987872 0.33411103 0.097691715 -0.32446083
-0.5041681 -0.30897796 0.50030667 -0.6516808 -0.05339441 -0.5520108 -0.17353489 -0.67708945
0.305481 -0.6181123 0.6402887 0.085357465 -0.06499294 -0.6847472 -0.42897946 -0.5595868
-0.29268888 -0.6939581 -0.014144615 -0.37653312 0.0214558 -0.37306523 0.08675875 0.49612945
0.7080635 0.24174595 0.16850019 -0.18737277 -0.45441812 -0.14752012 -0.23263651 -0.06740695
-0.53257227 0.4268291 0.31600213 0.15486515 -0.6918146 -0.5528976 0.04942994 -0.5120154
0.07593576 0.17200072 0.2621651 0.29123813 -0.012299998 0.17125045 -0.077269346 -0.5763756
-0.5789931 -0.24621584 0.21906629 -0.6673254 -0.27574506 0.35490423 0.31648812 -0.278384
0.58708733 0.1762607 -0.45558777 0.38263193 0.7002168 -0.19934058 -0.34666628 -0.51078725
-0.7044164 0.3113252 -0.61513996 0.7335209 0.18605328 -0.3069668 0.61258495 -0.112867296
0.21881936 0.07369395 -0.51934814 -0.37215835 0.72843367 0.01008774 -0.696617 0.022278931
-0.45252633 -0.29317424 0.30478495 0.50368905 0.014013882 0.49484918 0.00025826402 -0.13240683
-0.3353193 0.35676044 0.43002322 0.21030407 -0.39116356 0.52169603 -0.43169242 0.29186413
-0.11379841 0.20762286 0.6351585 0.3720086 0.4403288 -0.3968038 -0.30406654 0.076765485

fc.weight f4 [1, 128]
00000000: 3429 af3c 63c8 823f 70d3 073e cfa8 383e
00000010: 2a8b 7bbd c0ad 2fbc 4738 de3d 0940 283e
00000020: 7d99 8f3d 292f 483c 7ffb a63d de66 96bd
00000030: d583 a83d 1da0 243e 359e 8d3d 1ffa 0f3e
00000040: 34d6 d03d 95f4 3dbd f99e 313d 3a4b 743d
00000050: a255 84bd 1370 0d3d e3a2 ec3d 84ce 94bc
00000060: ae86 3d3d 025a 1a3d 0be0 0a3e 545e 6cbd
00000070: bcf1 fe3c f2d6 493d 2ab1 c13c 3d05 abbd
00000080: 4160 303e 4926 9d3d 6f86 bc3d de13 c83d
00000090: 4bef 1f3d 8e29 aebd f74e 17bd 4aba 623d
000000a0: 3ddf 8c3d 22a9 83bd 6f38 683c 549a c53c
000000b0: 8631 8b3d d3ed 32bd 11c9 2d3d abb4 d63d
000000c0: 0995 0c3e 78e0 413e 2486 963d 7823 5ebd
000000d0: 7d39 84bd 5102 c5bd 5aaf 553d 739d b23d
000000e0: 476f 82bd 76c3 ea3d 687b 223e 5772 e23d
000000f0: fed0 143d 00a6 e73c 0e3a 183e 8a82 90bd
00000100: d010 b23d 54b9 fd3d 1c28 193e 9525 be3d
00000110: b8ef 8c3d 8b10 0c3e 833c 693c 220c 95bd
00000120: a663 afbd 287b 17ba 615a 163e dac5 81bd
00000130: e036 9ebd 7a52 1c3e 005f 003e e7b8 fa3c
00000140: d3a9 213e b470 733e 34e1 afbc 20d8 be3d
00000150: ebc5 203e f0bc 07bd 0e0d 58bd e6b0 393d
00000160: f20d 683d 5bab 2c3e eaf2 3e3d 0e97 283e
00000170: 4f84 b13d 9fe9 fcbc b610 1a3e 0402 a4bc
00000180: 87b3 913d 6540 a73d 1f3f 74bd 6aea 33bd
00000190: b5d3 2a3e 1802 913d a72c 9f3d 3385 333e
000001a0: 87ec a53d 3c2a 6abd 18a5 dd3d c7ef 1a3e
000001b0: 6143 1a3d c797 b63d 5cd9 b23d 6c2b 8cbc
000001c0: adaf 71bd 31d6 533d 75ab 023e f804 ad3d
000001d0: 7e7d 623d 95c8 363e cbc3 a43d 6ac5 083e
000001e0: 62ba 2d3d 7bde bb3d 1cd8 113e 7b5f d03c
000001f0: f1cc d93d 1005 0d3c 8cb5 9fbe 3fe7 443d
0.021381952 1.0217403 0.13264251 0.18033145 -0.061412014 -0.010722578 0.10850578 0.16430677
0.070116974 0.012218275 0.08153438 -0.07343839 0.0822827 0.16076703 0.06914941 0.14060257
0.10197106 -0.04637583 0.0433645 0.059642054 -0.06461646 0.03453071 0.11554506 -0.01816488
0.04627102 0.037683494 0.13562028 -0.057707146 0.031121127 0.049277253 0.023644049 -0.083506085
0.17224218 0.07673318 0.09205329 0.09769414 0.039046567 -0.0850402 -0.03694054 0.05535344
0.06878517 -0.06428744 0.014173611 0.024121441 0.06796555 -0.043683838 0.04242808 0.104836784
0.13728727 0.18933284 0.07349804 -0.054233044 -0.064562775 -0.096195824 0.05216918 0.08721437
-0.06368881 0.114630625 0.15867388 0.11056965 0.036332123 0.028277397 0.14865896 -0.07056148
0.08694613 0.12388864 0.14956707 0.09284512 0.0688166 0.13678186 0.0142356185 -0.07277705
-0.08563928 -0.00057785446 0.14682914 -0.06336565 -0.0772531 0.15265837 0.1253624 0.030605746
0.15787439 0.23773462 -0.02146969 0.09318566 0.157005 -0.03313917 -0.052746825 0.04533472
0.056653924 0.16862242 0.04661838 0.16463873 0.08667814 -0.030873118 0.15045437 -0.020020492
0.0711432 0.08166579 -0.05963051 -0.043924727 0.16682322 0.070804775 0.07772189 0.1753128
0.08101755 -0.057169184 0.10822505 0.1513053 0.037661914 0.08915668 0.08732864 -0.017110549
-0.059005428 0.05171794 0.12760718 0.08448213 0.05529546 0.17849953 0.08045157 0.13356557
0.042414077 0.09173294 0.14242595 0.025436154 0.106347926 0.008607164 -0.31193197 0.048072096
