backups/2022-05-20/best-model-7.pt (torch, 4687 bytes, 7 tensors)

lstm.weight_ih_l0 f4 [8, 5]
-0.0771714 0.37939766 -0.51392186 -0.118659906 -0.550852 0.32827377 0.058750145 0.47533366
0.12240004 -0.68596435 0.6338224 -0.10354859 -0.08130205 0.70333093 0.038722992 -0.15367323
0.4647233 -0.08200657 -0.61412525 -0.5497619 -0.21353936 0.064165495 -0.18655485 -0.26029396
0.021130456 -0.13393304 -0.0017784975 -0.13986218 0.047911383 -0.41523102 -0.16518334 0.4323643
-0.0060319384 0.013807971 0.25052652 -0.060725044 -0.05049182 -0.17406754 -0.046947118 -0.25199464
00000000: 0a0c 9ebd 6940 c23e 6290 03bf f703 f3bd
00000010: a304 0dbf 8013 a83e fea3 703d ef5e f33e
00000020: dfac fa3d 5c9b 2fbf 2f42 223f 4811 d4bd
00000030: b081 a6bd 7f0d 343f 009c 1e3d 845c 1dbe
00000040: 36f0 ed3e 10f3 a7bd 5037 1dbf 32bd 0cbf
00000050: 10aa 5abe 3369 833d 3c08 3fbe 4045 85be
00000060: c719 ad3c be25 09be 791c e9ba 0838 0fbe
00000070: ba3e 443d 2999 d4be d225 29be db5e dd3e
00000080: 91a7 c5bb d43a 623c 0345 803e d3ba 78bd
00000090: 83d0 4ebd c33e 32be 9f4b 40bd 7105 81be

lstm.weight_hh_l0 f4 [8, 2]
-0.029622495 -0.28461978 0.015662193 -0.344976 0.6189782 0.10075104 0.3783645 -0.13567692
0.34957248 -0.65007746 0.02136898 0.19746757 -0.5414058 -0.53912663 -0.5772363 0.2000776
00000000: e0aa f2bc afb9 91be 004e 803c b2a0 b0be
00000010: 5b75 1e3f 9056 ce3d feb8 c13e e4ee 0abe
00000020: 2afb b23e 7a6b 26bf 000e af3c f034 4a3e
00000030: 9299 0abf 3404 0abf c2c5 13bf 24e1 4c3e

lstm.bias_ih_l0 f4 [8]
-0.8375745 0.14199688 -0.1896674 0.24913937 -0.6368246 0.64511174 0.5798624 0.199245
00000000: 486b 56bf a167 113e 2c38 42be 641e 7f3e
00000010: f006 23bf 0b26 253f dd71 143f e206 4c3e

lstm.bias_hh_l0 f4 [8]
-0.55148137 -0.13875847 -0.085588336 -0.14095718 -0.32153317 0.32272428 -0.33961847 0.09317604
00000000: e22d 0dbf b316 0ebe f048 afbd 1457 10be
00000010: ff9f a4be 1e3c a53e 79e2 adbe 14d3 be3d

fc_1.weight f4 [128, 2]
0.18636252 0.5885289 0.2317004 -1.0791924 -0.5564841 -0.043177485 -0.3358019 -0.15873331
0.49118268 -0.6949894 -0.12350011 0.35818142 0.7137694 -0.9153186 -0.17508052 -0.21112607
0.35491997 0.23070645 -0.3680322 -0.5184986 -0.44637427 -0.43231136 -0.5911027 -0.7494803
-0.16943504 -0.34660602 -0.32946903 -0.5874953 -0.49293107 -0.24666753 -0.05563012 -0.7889032
0.5356512 0.62530315 0.27046955 -0.6004991 0.35058355 -0.8056472 -0.66746914 -0.6701124
-0.45705494 -0.18474917 0.041902125 -0.51702595 0.009600222 -0.3181165 -0.048705637 0.13056433
-0.2911109 0.039928913 -0.20599987 -0.097250685 -0.13016239 -0.5238529 0.79075664 -0.52786845
-0.13584298 -0.42582074 -0.688937 0.5783717 -0.023616135 -0.68144643 0.29718214 0.56861234
-0.42433345 -0.70908964 -0.35500273 0.30155176 -0.37601504 0.20880029 0.5141417 -0.6922866
-0.062185228 -0.065476716 -0.5746967 -0.7054167 -0.105677724 -0.2643162 -0.62364227 -0.49185878
-0.18988656 0.03483223 0.40020615 -0.6041175 -0.24112278 0.41476825 -0.040590536 -1.0836594
-0.24646397 -0.98908836 -0.6188947 -0.4465586 -0.41523796 -0.24081193 0.42335236 -0.88858765
0.42601675 0.37704557 0.2653075 -0.19736433 0.3490988 0.3302298 -0.42992473 -0.9601193
0.106387466 -0.0051382743 0.4765501 0.2531001 -0.7776331 -0.078427784 0.50715905 -0.5316507
0.5715753 -0.4533878 0.036902606 -0.3059159 -0.47228563 0.62639326 -0.24802801 -0.08502458
-0.55056185 0.0696705 0.5237554 0.594783 0.42171913 -0.5852209 0.7784158 -0.7468996
-0.093812265 0.24994272 0.015022993 -0.028265 0.65086144 -0.57703817 0.12069715 0.27128667
-0.7893803 -0.2115756 -0.2806796 0.22578289 0.2159707 -0.25318897 0.43088913 0.1720195
-0.45800894 0.59301335 0.7986336 -0.44581923 -0.61380494 -0.58202773 0.21420744 -0.08831613
-0.13568509 -0.34221214 0.22312999 -0.6151674 -0.21716493 -0.73433775 0.05799944 -0.40560552
-0.2954027 -0.4308952 0.020715134 -0.80104387 -0.29943344 0.1977354 0.44948587 -0.31192264
-0.34911212 -0.13669217 0.55357856 0.09075353 0.17258686 -0.5054333 0.5448751 0.55541116
-0.51377225 -0.6864035 -0.5572151 0.3411041 -0.7646155 -0.055298157 0.1693616 0.1667154
-0.4116433 -0.4580915 -0.57578653 0.23845458 -0.6570004 -0.17564446 -0.5254529 -0.11077683
0.23619229 0.08465624 0.36785695 0.0273727 0.0889645 0.14512374 -0.31878838 0.36640394
0.0067256093 -0.113245904 0.057970703 -0.46979836 -0.0061735045 -0.41389593 0.35376808 0.042759117
-0.030345798 -0.53484374 0.1702843 0.1253407 -0.035232723 -0.93984216 0.58113426 0.05022049
-0.57437915 -0.31599957 -0.40372026 -0.20172173 0.02085053 0.0085551 -0.4213657 -0.21746498
-0.20671599 -0.32063654 0.036815174 -0.85294276 0.31498912 -0.45285034 -0.7552258 -0.97132605
0.3017357 0.03432685 -0.4241919 -0.13772804 0.6626171 -0.41593522 -0.5882859 -0.38332468
0.5343432 -0.42682573 -0.2377674 0.48754352 -0.00039362907 -0.13658965 -0.14687753 0.6887147
-0.14231224 0.42297235 0.50617284 -0.41833243 0.331349 0.22513197 0.4003047 -0.6244432
00000000: d1d5 3e3e d4a9 163f df42 6d3e fa22 8abf
00000010: be75 0ebf e0da 30bd 3aee abbe fc8a 22be
00000020: 4c7c fb3e d3ea 31bf a0ed fcbd 8e63 b73e
00000030: 97b9 363f 5252 6abf 4f48 33be 6f31 58be
00000040: 12b8 b53e 503e 6c3e b76e bcbe 53bc 04bf
00000050: 2b8b e4be ea57 ddbe 8252 17bf f1dd 3fbf
00000060: 6180 2dbe 5876 b1be 2ab0 a8be 1866 16bf
00000070: 7661 fcbe 6a96 7cbe 69dc 63bd 8ff5 49bf
00000080: 7020 093f de13 203f fc7a 8a3e 4fba 19bf
00000090: b07f b33e e53e 4ebf 42df 2abf 7c8c 2bbf
000000a0: 1b03 eabe e32e 3dbe 90a1 2b3d d05b 04bf
000000b0: 404a 1d3c 2ae0 a2be 907f 47bd a8b2 053e
000000c0: 7d0c 95be 808c 233d a1f1 52be 5e2b c7bd
000000d0: 4a49 05be 391b 06bf 076f 4a3f 6322 07bf
000000e0: 6c1a 0bbe 2d05 dabe 2d5e 30bf 2b10 143f
000000f0: a076 c1bc 4673 2ebf 4228 983e 9490 113f
00000100: 3c42 d9be e686 35bf ebc2 b5be fe64 9a3e
00000110: 0b85 c0be becf 553e ca9e 033f b239 31bf
00000120: f0b5 7ebd a818 86bd 531f 13bf 3096 34bf
00000130: 906d d8bd 7454 87be 05a7 1fbf ead4 fbbe
00000140: 9f71 42be 3eac 0e3d d2e7 cc3e 72a7 1abf
00000150: e4e8 76be 815c d43e 4342 26bd 5ab5 8abf
00000160: 0d61 7cbe e534 7dbf e26f 1ebf 54a3 e4be
00000170: 129a d4be 6797 76be a4c1 d83e 7b7a 63bf
00000180: de1e da3e 1e0c c13e 62d6 873e e019 4abe
00000190: 14bd b23e e113 a93e 181f dcbe 61ca 75bf
000001a0: ace1 d93d f85e a8bb 60fe f33e 5696 813e
000001b0: f612 47bf bf9e a0bd 2dd5 013f 431a 08bf
000001c0: c252 123f 7222 e8be 3027 173d 02a1 9cbe
000001d0: 6ccf f1be 4f5b 203f 0efb 7dbe 5e21 aebd
000001e0: 9ff1 0cbf 68af 8e3d d514 063f b343 183f
000001f0: 92eb d73e 09d1 15bf 4246 473f d034 3fbf
00000200: a520 c0bd fcf0 7f3e 0023 763c 008c e7bc
00000210: db9e 263f c6b8 13bf 1130 f73d 16e6 8a3e
00000220: d414 4abf 46a7 58be 3db5 8fbe a133 673e
00000230: 6c27 5d3e fca1 81be 809d dc3e e125 303e
00000240: 2680 eabe b9cf 173f 4073 4c3f 6b42 e4be
00000250: 5222 1dbf c5ff 14bf 3259 5b3e 16df b4bd
00000260: 08f1 0abe 6e36 afbe 307c 643e 9c7b 1dbf
00000270: 7c60 5ebe 8ffd 3bbf d290 6d3d 87ab cfbe
00000280: 063f 97be 4c9e dcbe c9b2 a93c 3611 4dbf
00000290: 574f 99be 267b 4a3e 0323 e63e 53b4 9fbe
000002a0: d3be b2be 08f9 0bbe 53b7 0d3f fddc b93d
000002b0: 9cba 303e 1464 01bf ef7c 0b3f 6d2f 0e3f
000002c0: 9486 03bf 24b8 2fbf a6a5 0ebf 32a5 ae3e
000002d0: d7bd 43bf 5280 62bd 216d 2d3e 71b7 2a3e
000002e0: e9c2 d2be f88a eabe bf66 13bf 702d 743e
000002f0: 2e31 28bf 24dc 33be 1584 06bf f6de e2bd
00000300: 64dc 713e 4060 ad3d bf57 bc3e b63c e03c
00000310: 0533 b63d 519b 143e 3b38 a3be 4c99 bb3e
00000320: 8062 dc3b 78ed e7bd b072 6d3d 6989 f0be
00000330: 1c4b cabb 2bea d3be 1721 b53e 2f24 2f3d
00000340: c097 f8bc 85eb 08bf 025f 2e3e 5059 003e
00000350: 3050 10bd 7f99 70bf 37c5 143f 00b4 4d3d
00000360: 830a 13bf b2ca a1be 6cb4 cebe 2490 4ebe
00000370: bbce aa3c b12a 0c3c 3fbd d7be 24af 5ebe
00000380: 5bad 53be 792a a4be 82cb 163d 755a 5abf
00000390: 4146 a13e 00dc e7be 7a56 41bf d3a8 78bf
000003a0: 1a7d 9a3e 509a 0c3d ae2f d9be 9408 0dbe
000003b0: 46a1 293f 76f5 d4be e899 16bf 2243 c4be
000003c0: b7ca 083f e788 dabe 4c79 73be 4e9f f93e
000003d0: 0060 ceb9 28de 0bbe 1067 16be 9b4f 303f
000003e0: 4dba 11be d58f d83e 8b94 013f ab2f d6be
000003f0: 93a6 a93e ff88 663e bdf4 cc3e 82db 1fbf

fc_1.bias f4 [128]
0.0017106544 0.15510753 -0.23487663 -0.26122186 0.5451361 -0.27479196 0.71374387 0.090051204
-0.44063753 0.712194 0.34768945 0.5216362 0.46539682 0.08443072 -0.44258463 0.552008
-0.15221988 0.2631644 0.2730385 0.29238912 0.078552864 -0.6565577 -0.5875825 -0.12523413
-0.4801855 0.20881693 0.56612754 -0.29631522 -0.19515634 -0.5650251 -0.046203673 -0.13842867
-0.07911606 -0.23208296 0.40140605 0.6223365 -0.6895272 -0.11134851 -0.295523 -0.20419711
0.20334509 -0.6068665 -0.31162032 0.19169715 0.79379135 -0.62803584 0.15385494 0.6344651
-0.45231196 -0.20932871 0.27461395 0.4809925 0.36627805 -0.11761784 -0.049519587 -0.69990057
0.19721656 -0.7026674 -0.70269424 -0.0790694 -0.5098448 -0.46228945 -0.6652133 0.7555668
-0.11624963 -0.45263118 0.45383504 0.146286 0.3598332 0.3698981 0.24587816 0.756798
-0.68078697 -0.071418434 -0.65819883 0.59390396 0.74640924 -0.67750394 0.1056105 0.175848
-0.39799252 0.115247466 0.6327741 0.4406035 -0.324263 0.047163066 -0.39547214 -0.6430616
0.56448275 -0.24584922 0.14950065 0.7774277 -0.6362431 -0.19112384 -0.11458874 0.047100704
-0.36657146 -0.12959698 0.47633785 0.615481 -0.33504704 -0.4053612 0.5225698 -0.087290004
-0.1002956 0.41615766 0.53318214 -0.7023649 0.13678412 -0.49595863 0.30189964 0.40794417
0.13773832 0.3626505 -0.06797172 0.4286335 -0.21721095 0.58623767 -0.20995651 0.16443802
0.14448662 -0.46933255 -0.35015348 -0.43472502 0.6953177 0.17922646 -0.10903887 0.71489096
00000000: 0938 e03a 82d4 1e3e 8083 70be dfbe 85be
00000010: 0a8e 0b3f 88b1 8cbe ebb7 363f c46c b83d
00000020: 3e9b e1be 5952 363f 5a04 b23e f389 053f
00000030: 7e48 ee3e 03ea ac3d 749a e2be 6550 0d3f
00000040: 87df 1bbe 7cbd 863e b4cb 8b3e 07b4 953e
00000050: 53e0 a03d 2a14 28bf cf6b 16bf 603d 00be
00000060: e0da f5be 1bd4 553e bced 103f a1b6 97be
00000070: 10d7 47be 7ca5 10bf 1040 3dbd 3fc0 0dbe
00000080: 9a07 a2bd 28a7 6dbe 1885 cd3e 7251 1f3f
00000090: db84 30bf b00a e4bd ca4e 97be 0c19 51be
000000a0: b239 503e 9a5b 1bbf b38c 9fbe 424c 443e
000000b0: e935 4b3f f5c6 20bf 268c 1d3e 4e6c 223f
000000c0: 6f95 e7be 445a 56be 339a 8c3e a644 f63e
000000d0: cc88 bb3e 9fe1 f0bd 0dd5 4abd af2c 33bf
000000e0: 23f3 493e 03e2 33bf c5e3 33bf 23ef a1bd
000000f0: 3085 02bf 34b1 ecbe 6b4b 2abf d36c 413f
00000100: 4914 eebd 46bf e7be 115d e83e ffcb 153e
00000110: 0f3c b83e 4963 bd3e 7cc7 7b3e 84bd 413f
00000120: 0e48 2ebf d443 92bd b87f 28bf 170a 183f
00000130: ad14 3f3f e670 2dbf 514a d83d 8011 343e
00000140: adc5 cbbe dd06 ec3d 7cfd 213f c896 e13e
00000150: cd05 a6be 0f2e 413d 537b cabe af9f 24bf
00000160: f181 103f e6bf 7bbe b316 193e 8005 473f
00000170: d4e0 22bf f8b5 43be 80ad eabd abec 403d
00000180: 41af bbbe 12b5 04be 8ee2 f33e 2a90 1d3f
00000190: 498b abbe 818b cfbe 22c7 053f 1ac5 b2bd
000001a0: c867 cdbd 9e12 d53e a07e 083f 30ce 33bf
000001b0: 2311 0c3e 4aee fdbe 9792 9a3e 0fde d03e
000001c0: 460b 0d3e 54ad b93e c234 8bbd da75 db3e
000001d0: 8c6c 5ebe ac13 163f d7fe 56be 7162 283e
000001e0: 4df4 133e 5b4c f0be 5147 b3be 4794 debe
000001f0: 5700 323f 2487 373e c54f dfbd 1803 373f

fc.weight f4 [1, 128]
-0.07632542 0.16788456 0.047041424 -0.009258032 0.16859637 -0.0011193603 0.1993501 0.09801896
0.07688851 0.20892654 0.11598762 0.17243911 0.07165683 0.11117521 -0.012987338 0.2266275
-0.12147119 0.24044341 0.09479476 0.089553475 0.080170915 0.009131707 0.008715324 0.07766267
0.008241057 0.05687307 0.14751628 0.17055331 -0.037946977 0.028900705 0.01380799 -0.21395454
-0.0021875778 0.07189707 0.12192417 0.1417623 0.06612689 -0.0731774 0.021078184 0.050117455
0.0803543 0.061094485 -0.10976906 0.1042459 0.19714658 -0.054489404 0.10969708 0.18329917
0.06708474 0.08355335 0.080099635 0.07995666 0.13700287 0.05506171 0.065466456 -0.038796943
0.06362644 -0.07092081 -0.080283225 0.08677286 0.023624554 -0.047362044 -0.06156017 0.1538339
0.043308206 0.018777736 0.14870383 0.064060085 0.0709566 0.15822004 0.116065696 0.175645
-0.06838529 0.10055661 -0.024913728 0.15843111 0.20869946 -0.032107037 0.096827544 0.21865563
-0.030059036 0.23622563 0.12590644 0.15091342 0.050290205 0.041305978 0.0689146 -0.08666697
0.12984145 0.06897091 0.040182225 0.1900953 0.047817342 -0.06468548 -0.04046487 0.04526575
-0.08655811 0.085621215 0.12422767 0.14784417 0.014135137 -0.042829175 0.18737759 0.01691013
-0.078464225 0.100258924 0.11659365 0.03367515 0.06266149 -0.03161592 0.16898945 0.19723062
0.18051468 0.26617274 0.027648166 0.12199384 -0.024134763 0.15973319 0.12552088 0.11009905
0.09658341 0.06546082 -0.025705896 0.050356902 0.18281347 0.12461278 0.03568657 0.1358644
00000000: 8050 9cbd eee9 2b3e 82ae 403d 00af 17bc
00000010: 87a4 2c3e 80b7 92ba 6f22 4c3e 2abe c83d
00000020: b977 9d3d d7f0 553e eb8a ed3d e193 303e
00000030: d1c0 923d d4af e33d d8c8 54bc 0a11 683e
00000040: e3c5 f8bd cc36 763e c123 c23d d067 b73d
00000050: a630 a43d 289d 153c b8ca 0e3c 9b0d 9f3d
00000060: 8005 073c bcf3 683d 820e 173e 87a5 2e3e
00000070: 4a6e 1bbd 2cc1 ec3c e83a 623c e616 5bbe
00000080: 775d 0fbb c53e 933d 61b3 f93d 232a 113e
00000090: 896d 873d 08de 95bd 28ac ac3c f647 4d3d
000000a0: cc90 a43d 363e 7a3d 9ace e0bd e07e d53d
000000b0: cbe0 493e 4830 5fbd dda8 e03d c7b2 3b3e
000000c0: b963 893d 051e ab3d 470b a43d 51c0 a33d
000000d0: 7b4a 0c3e 6388 613d 4713 863d 8be9 1ebd
000000e0: 944e 823d ee3e 91bd 886b a4bd f8b5 b13d
000000f0: 4888 c13c b4fe 41bd 8426 7cbd a286 1d3e
00000100: f263 313d c4d3 993c d145 183e ef31 833d
00000110: b251 913d 6f04 223e dab3 ed3d 48dc 333e
00000120: 960d 8cbd a0f0 cd3d e017 ccbc c43b 223e
00000130: 50b5 553e ab82 03bd 854d c63d 43e7 5f3e
00000140: 5e3e f6bc 22e5 713e 9eed 003e 0c89 1a3e
00000150: 1afd 4d3d 7530 293d 1923 8d3d 747e b1bd
00000160: 28f5 043e 9f40 8d3d 1e96 243d 58a8 423e
00000170: 1edc 433d d279 84bd 7ebe 25bd 9468 393d
00000180: 6145 b1bd 2d5a af3d 146b fe3d 7664 173e
00000190: 1097 673c a56d 2fbd e9df 3f3e 1d87 8a3c
000001a0: dab1 a0bd 8d54 cd3d a7c8 ee3d f4ee 093d
000001b0: ab54 803d b27f 01bd 920b 2d3e d3f6 493e
000001c0: d7d8 383e cb47 883e 687e e23c e8d7 f93d
000001d0: 44b6 c5bc 1991 233e 8c88 003e 9c7b e13d
000001e0: 86cd c53d 5310 863d 2c95 d2bc 0a43 4e3d
000001f0: 7433 3b3e fc34 ff3d 152c 123d 0a20 0b3e
