backups/2022-06-17/best-model-6.pt (torch, 4623 bytes, 7 tensors)

lstm.weight_ih_l0 f4 [8, 3]
-0.009622894 0.95651263 -0.0885505 0.04978689 0.016785631 0.20769283 -0.6819636 0.109036446
0.6342196 -0.02406019 -0.57420087 -0.30973938 1.0763413 -0.40785334 -0.3931281 -0.471841
0.40075487 0.27535138 -0.015436468 0.85568833 -0.06039816 0.37085268 0.49498692 -0.536325
00000000: 58a9 1dbc 03de 743f f759 b5bd 57ed 4b3d
00000010: 0582 893c 6ead 543e 2b95 2ebf 804e df3d
00000020: 375c 223f e019 c5bc d4fe 12bf 2996 9ebe
00000030: 8dc5 893f 27d2 d0be 1648 c9be 2595 f1be
00000040: be2f cd3e dbfa 8c3e 3de9 7cbc 640e 5b3f
00000050: 1064 77bd 67e0 bd3e ed6e fd3e 984c 09bf

lstm.weight_hh_l0 f4 [8, 2]
-0.4998569 -0.637439 0.70271367 0.15413725 0.5811464 0.33366197 0.40518886 0.0444749
0.47982305 -0.3529463 -0.6287292 -0.183563 0.25022316 -0.19215411 -0.21129438 -0.33738256
00000000: 3eed ffbe 342f 23bf 0be5 333f 28d6 1d3e
00000010: 03c6 143f bed5 aa3e ea74 cf3e 502b 363d
00000020: 5eab f53e 61b5 b4be 66f4 20bf f0f7 3bbe
00000030: 401d 803e 0cc4 44be 8e5d 58be 68bd acbe

lstm.bias_ih_l0 f4 [8]
0.8943195 -0.6172772 -0.19942534 0.35160702 -0.15651515 0.842694 0.41488948 0.06127438
00000000: 1ff2 643f e105 1ebf 2836 4cbe d605 b43e
00000010: 8245 20be cbba 573f 656c d43e d8fa 7a3d

lstm.bias_hh_l0 f4 [8]
0.2657182 0.6131226 0.13939798 0.6355359 0.6120119 -0.19354339 0.37619913 0.3268886
00000000: 370c 883e 9af5 1c3f 58be 0e3e 7bb2 223f
00000010: d0ac 1c3f 3d30 46be 2c9d c03e f15d a73e

fc_1.weight f4 [128, 2]
0.39009836 0.5209121 0.1868394 0.5232834 -0.7098399 1.0930921 -0.21530086 0.33295316
0.5350958 -0.23098785 -0.12627584 -0.64672077 0.5702744 -0.18409212 -0.30449042 -0.26581064
1.1875683 0.82472 -0.69369495 -0.4931434 -0.02535194 1.1577015 -0.12001759 0.035011828
0.41742486 0.12879632 -0.0753129 0.3843342 -0.4127627 0.13854164 -0.5152476 0.7273699
0.54578483 0.47151062 -0.20237365 -0.380574 0.9629742 1.0701265 -0.27840278 0.58362675
0.8711383 0.65967155 0.43517974 0.36860842 0.07387543 -0.62850374 0.39127317 0.19450031
0.71136516 1.3330613 0.1879884 0.0020409364 -0.43756816 0.1631524 0.61215436 -0.037778497
-0.30357003 -0.081169225 0.21172594 0.6621143 -0.10008999 0.15680937 -0.6822723 0.04299414
0.16053961 0.5779667 0.5377199 -0.40595305 0.4748897 0.74883205 -0.03852278 -0.609041
0.1809079 -0.043865204 0.64481753 0.24439973 0.09594131 -0.18408327 0.44792706 0.13053301
-0.067992926 -0.1850912 0.28994298 0.4152228 -0.32843065 -0.059328914 0.44765902 0.7299173
0.118738115 -0.47321898 0.55727637 -0.20919366 0.6997661 0.22659475 0.21167578 -0.21608064
-0.2633629 0.5330164 0.44774538 -0.15981787 -0.05841114 1.6612699 -0.16796246 0.4358764
-0.68151075 1.154485 -0.21217996 0.19633111 0.055279195 -0.36593747 0.70890963 -0.65624523
1.1765319 0.621435 0.5500025 -0.028390205 -0.14142072 0.011955261 -0.4412695 0.0987919
0.3427319 -0.10820156 -0.13919841 -0.34913048 -0.21999003 0.73153734 0.69861865 0.5025769
-1.2419689 0.77359205 -0.40372458 0.65391684 0.49284476 0.54466754 0.52599853 0.37558517
-0.44730198 -0.040332634 -0.020399088 0.5257962 0.34135336 -0.48258445 0.4752018 0.36587572
-0.049534857 0.00613153 -0.30435443 -0.30658463 -0.22839525 -0.84797776 -0.4963127 0.30042702
0.3993645 -0.6720518 0.36779097 0.42956766 -0.5660261 -0.36196488 0.52424514 0.4529784
0.66843534 0.63646173 -0.26113638 -0.48792765 0.5070835 0.5670687 -0.33408377 0.7382288
0.30415708 0.10297979 0.09589577 0.39695066 -0.36229834 -0.21108463 -0.4361398 0.3090691
0.08438231 0.061447483 0.4027366 -0.59214145 -0.478404 -0.35343394 0.41252205 1.0159659
-0.30296957 0.42035633 -0.41124716 0.33521327 0.5254049 -0.02084434 0.68856126 0.48757157
-0.10838187 -0.0036833882 -0.47532046 0.68407524 0.056205034 -0.69326913 1.3981214 -0.59657776
-0.45778954 0.64129335 0.31426224 0.11504083 0.4177222 0.21669945 -0.5147718 -0.19713092
0.029729605 0.006862581 -0.52074134 0.08009535 -0.021230102 -0.2522782 0.7460071 0.2879172
-0.10825911 0.49713516 0.5189691 0.017363422 0.49164277 -0.45314682 0.60077006 -0.08373851
0.041842762 -0.38776422 -0.44612548 -0.19325519 0.45006192 -0.104450956 0.040004373 -0.15489852
0.46403036 0.05221707 -0.2131367 -0.27999955 0.575711 0.43879706 0.046186566 0.07479626
0.63055044 0.6517971 -0.4454432 1.5615028 0.093665175 -0.63305587 0.24019726 -0.51126176
0.004961883 -0.30088818 0.42986506 0.6118477 -0.5807241 -0.3229071 0.49987084 0.36678737
00000000: f9ba c73e 7f5a 053f d452 3f3e e7f5 053f
00000010: 11b8 35bf 71ea 8b3f d477 5cbe d678 aa3e
00000020: 0afc 083f 1488 6cbe 744e 01be 7e8f 25bf
00000030: 81fd 113f a582 3cbe 2be6 9bbe 5518 88be
00000040: 3d02 983f da20 533f fe95 31bf 4b7d fcbe
00000050: dfae cfbc 902f 943f c8cb f5bd 9068 0f3d
00000060: b6b8 d53e 2fe3 033e a63d 9abd 74c7 c43e
00000070: a255 d3be dcdd 0d3e 44e7 03bf ea34 3a3f
00000080: 8eb8 0b3f d769 f13e 0a3b 4fbe 98da c2be
00000090: 7a85 763f e8f9 883f cf8a 8ebe 9068 153f
000000a0: eb02 5f3f 3ce0 283f e1cf de3e 3eba bc3e
000000b0: 004c 973d 9fe5 20bf f554 c83e 172b 473e
000000c0: 071c 363f c1a1 aa3f 0880 403e 3bc1 053b
000000d0: ef08 e0be 6c11 273e 26b6 1c3f a0bd 1abd
000000e0: 886d 9bbe 0d3c a6bd afce 583e 5380 293f
000000f0: fbfb ccbd a392 203e 66a9 2ebf a01a 303d
00000100: 7f64 243e a0f5 133f 03a8 093f 14d9 cfbe
00000110: be24 f33e 75b3 3f3f 10ca 1dbd 1cea 1bbf
00000120: ec3f 393e 00ac 33bd c312 253f ec43 7a3e
00000130: e17c c43d 5380 3cbe b256 e53e 72aa 053e
00000140: e03f 8bbd 8c88 3dbe 6873 943e 1598 d43e
00000150: 1028 a8be e002 73bd 9033 e53e dcdb 3a3f
00000160: f82c f33d c249 f2be aaa9 0e3f dd36 56be
00000170: df23 333f 7408 683e 89c1 583e 3e44 5dbe
00000180: 81d7 86be c373 083f e23e e53e 4ca7 23be
00000190: 8540 6fbd 7ea4 d43f 5afe 2bbe 312b df3e
000001a0: 7d77 2ebf 2ac6 933f b445 59be 060b 493e
000001b0: 706c 623d 285c bbbe 1a7b 353f b0ff 27bf
000001c0: 9998 963f 5d16 1f3f f7cc 0c3f 9392 e8bc
000001d0: 98d0 10be 00e0 433c 13ee e1be 6853 ca3d
000001e0: 8e7a af3e c898 ddbd 078a 0ebe 3bc1 b2be
000001f0: 1145 61be 0846 3b3f acd8 323f e1a8 003f
00000200: d6f8 9ebf 210a 463f fdb4 cebe 1867 273f
00000210: 2656 fc3e 556f 0b3f d7a7 063f b34c c03e
00000220: c404 e5be d533 25bd fd1b a7bc 949a 063f
00000230: dec5 ae3e 4f15 f7be a64d f33e 1054 bb3e
00000240: 10e5 4abd 00eb c83b 58d4 9bbe a9f8 9cbe
00000250: 72e0 69be 1215 59bf b31c febe 92d1 993e
00000260: 8179 cc3e 960b 2cbf 194f bc3e 4bf0 db3e
00000270: 16e7 10bf 7653 b9be ee34 063f c9ec e73e
00000280: 941e 2b3f 28ef 223f abb3 85be a7d1 f9be
00000290: 39d0 013f 6a2b 113f 070d abbe 90fc 3c3f
000002a0: 7aba 9b3e 11e7 d23d 0065 c43d 1e3d cb3e
000002b0: 2b7f b9be 9226 58be b74d dfbe 4e3e 9e3e
000002c0: a2d0 ac3d 5bb0 7b3d 7e33 ce3e 9596 17bf
000002d0: 5ef1 f4be 4bf5 b4be 1736 d33e 2c0b 823f
000002e0: d41e 9bbe f238 d73e fd8e d2be 13a1 ab3e
000002f0: ef80 063f c0c1 aabc 8d45 303f fba2 f93e
00000300: 50f7 ddbd 0065 71bb 345d f3be 8e1f 2f3f
00000310: 4037 663d 167a 31bf a4f5 b23f 52b9 18bf
00000320: 6463 eabe cd2b 243f fbe6 a03e 879a eb3d
00000330: afdf d53e 76e6 5d3e 16c8 03bf b0dc 49be
00000340: 808b f33c 80df e03b 4e4f 05bf 0809 a43d
00000350: c0ea adbc 9c2a 81be 52fa 3e3f e269 933e
00000360: f4b6 ddbd 8088 fe3e 29db 043f bc3d 8e3c
00000370: 9ab8 fb3e dc02 e8be 11cc 193f 197f abbd
00000380: 5163 2b3d 0889 c6be 8f6a e4be b0e4 45be
00000390: 846e e63e 62ea d5bd a0db 233d b89d 1ebe
000003a0: 6395 ed3e 91e1 553d 8240 5abe 1a5c 8fbe
000003b0: cc61 133f 02aa e03e 202e 3d3d c82e 993d
000003c0: c16b 213f 2ddc 263f 2211 e4be 53df c73f
000003d0: 87d3 bf3d f30f 22bf 45f6 753e 0de2 02bf
000003e0: 4b97 a23b 040e 9abe 4617 dc3e 0da2 1c3f
000003f0: 56aa 14bf 1454 a5be 12ef ff3e 8ecb bb3e

fc_1.bias f4 [128]
0.6583986 -0.47489205 -0.33765748 -0.6628957 0.70615506 0.17122136 0.12641186 -0.1258238
-0.2565396 -0.16601026 -0.039396636 -0.58293 0.6921452 0.5793484 -0.13089317 0.29626024
-0.14488728 0.68446404 -0.08269931 0.65507513 -0.070080236 0.36570337 -0.28730816 0.68631285
-0.45761088 0.6688565 -0.17112082 0.020742934 -0.0017365771 0.34725553 0.31309074 -0.060367107
0.2792975 -0.67805135 0.7673244 -0.0770725 -0.32057685 0.25036556 0.61840075 0.18317637
-0.21641192 0.4980218 -0.19351697 0.26640764 -0.39237216 0.7434844 -0.6541353 0.57184404
-0.45640382 -0.3230433 -0.0782667 0.2110252 0.06244989 0.37655026 -0.44800717 0.11628546
-0.5598618 0.55863607 -0.25579682 -0.3327642 -0.277786 -0.006800822 0.0870152 0.03157567
0.21242656 0.15962179 -0.59004456 0.32311293 0.7036866 0.5501342 0.21678306 0.21298766
-0.06720245 0.1900812 0.1518154 0.5061929 -0.20507629 0.7882243 -0.4686876 -0.13917568
0.25501186 -0.63005215 0.02318168 0.6218386 0.36893243 -0.37218717 -0.27166846 -0.26617014
0.10407041 -0.3587753 0.36557716 -0.3549555 0.12134422 0.6064688 -0.6711212 0.79082465
-0.4998697 0.18909296 -0.28002223 0.0011431469 -0.6736527 0.131312 0.5007591 -0.6624841
-0.026984274 -0.6611072 -0.12773114 -0.4083324 -0.12351098 0.16034742 -0.39983383 0.36188218
0.33586898 -0.19248307 0.30618593 -0.10984403 0.59172475 -0.34651697 0.6507705 -0.4485196
0.16325746 -0.4823991 0.4304188 0.7957064 0.45568714 0.49841693 0.72106546 -0.5612744
00000000: d08c 283f 0d25 f3be 71e1 acbe 88b3 29bf
00000010: 94c6 343f a754 2f3e 1c72 013e f4d7 00be
00000020: 2959 83be 98fe 29be 5e5e 21bd e73a 15bf
00000030: 6e30 313f 2d50 143f dc08 06be 6caf 973e
00000040: 555d 14be 0939 2f3f 415e a9bd 01b3 273f
00000050: 3a86 8fbd 793d bb3e 0e1a 93be 33b2 2f3f
00000060: f94b eabe 2e3a 2b3f 4c3a 2fbe 16ed a93c
00000070: dc9d e3ba 7acb b13e 6e4d a03e 8043 77bd
00000080: 1500 8f3e c694 2dbf 5f6f 443f 30d8 9dbd
00000090: a622 a4be ea2f 803e 834f 1e3f 9692 3b3e
000000a0: 169b 5dbe b7fc fe3e 5029 46be 9566 883e
000000b0: 01e5 c8be fe54 3e3f 6975 27bf 5f64 123f
000000c0: c3ad e9be ee65 a5be 4b4a a0bd fd16 583e
000000d0: 75cb 7f3d 32cb c03e 3261 e5be 1227 ee3d
000000e0: 1a53 0fbf c602 0f3f cdf7 82be 1260 aabe
000000f0: f739 8ebe 6ed9 debb 0635 b23d 7d55 013d
00000100: 5986 593e e573 233e 290d 17bf 0f6f a53e
00000110: ce24 343f 98d5 0c3f 61fc 5d3e 7019 5a3e
00000120: 70a1 89bd a5a4 423e 7f75 1b3e dc95 013f
00000130: 85ff 51be 11c9 493f d2f7 efbe 1284 0ebe
00000140: ea90 823e 194b 21bf 82e7 bd3c d130 1f3f
00000150: b6e4 bc3e 518f bebe 2118 8bbe 7447 88be
00000160: de22 d53d 65b1 b7be ee2c bb3e babc b5be
00000170: 5283 f83d 8a41 1b3f 99ce 2bbf 7c73 4a3f
00000180: ecee ffbe 96a1 413e 135f 8fbe a5d5 953a
00000190: 8174 2cbf a776 063e c031 003f 8f98 29bf
000001a0: 200e ddbc 523e 29bf f4cb 02be f210 d1be
000001b0: 53f3 fcbd 1d32 243e 05b7 ccbe 9f48 b93e
000001c0: 05f7 ab3e 481a 45be 67c4 9c3e e8f5 e0bd
000001d0: 467b 173f ac6a b1be e598 263f 5ca4 e5be
000001e0: f72c 273e 04fd f6be da5f dc3e 6ab3 4b3f
000001f0: d34f e93e 8130 ff3e bf97 383f aeaf 0fbf

fc.weight f4 [1, 128]
0.0910266 0.059644632 -1.068952 -0.027459946 0.11268788 0.049520403 -0.008681591 -0.004057795
-0.7230264 -0.056886654 0.48233914 0.016272753 0.040083215 0.12881169 0.06144596 0.12882516
-0.056544002 0.04244121 0.54745215 0.1641609 0.16985708 0.11721475 -0.031537034 0.036968417
-1.6813784 0.0747087 0.064313106 0.19934362 -0.004304512 0.12732036 0.1329921 -0.0067682266
0.14833012 -0.06744207 0.08565894 -0.07327237 0.076416664 0.043711763 0.031310696 0.02128567
-0.029421799 0.012144086 0.06583183 0.12650679 -0.08639336 0.13427156 0.048042335 0.10728681
0.086444356 0.044100456 0.92763853 0.02940014 0.74808645 0.09100721 0.02538883 0.19153763
-1.0962042 0.007113892 0.0036239028 -0.07945602 0.025476493 -0.003776445 0.26812544 0.18557496
0.4108425 0.029759128 -0.00023332238 0.055260796 0.097333916 0.09913495 -0.0021517677 0.07187127
0.023518987 0.07501893 0.082633145 0.105870605 -0.01570128 0.13546024 -0.03500009 -0.6280955
0.026831465 0.07032358 0.16521646 0.1421928 0.123674974 -0.015555888 0.008606978 0.08807213
0.03144583 0.033460505 0.036049936 2.5056798 0.15477009 0.013191873 -0.03365727 0.09963922
0.054138012 0.020726651 -0.07160561 0.79218835 0.03558843 0.16146867 0.10484393 0.03717286
0.060907386 -0.0695964 0.047775365 4.0547614 0.3838897 0.05251492 0.0048710033 0.0913566
0.12538072 0.04846456 0.15373026 0.047102727 0.13117741 -0.026641361 0.11746917 -0.03357185
0.0145553155 -1.6731296 0.01399432 0.1031258 0.13903534 0.062380128 0.10913057 -0.0065926835
00000000: 276c ba3d ee4d 743d 6bd3 88bf aef3 e0bc
00000010: e7c8 e63d e8d5 4a3d 3b3d 0ebc 40f7 84bb
00000020: 4218 39bf fb01 69bd 28f5 f63e 704e 853c
00000030: 4c2e 243d 36e7 033e c2ae 7b3d beea 033e
00000040: af9a 67bd d6d6 2d3d d325 0c3f cc19 283e
00000050: 04ef 2d3e 490e f03d fa2c 01bd 326c 173d
00000060: 6837 d7bf e000 993d 97b6 833d bc20 4c3e
00000070: dd0c 8dbb 4560 023e 152f 083e 00c8 ddbb
00000080: dae3 173e 111f 8abd f46d af3d d30f 96bd
00000090: 5780 9c3d 1b0b 333d a53f 003d 495f ae3c
000000a0: fc05 f1bc fdf7 463c d7d2 863d ff8a 013e
000000b0: 00ef b0bd 7c7e 093e 0ac8 443d 30b9 db3d
000000c0: bd09 b13d aea2 343d b879 6d3f 90d8 f03c
000000d0: 9882 3f3f fd61 ba3d 3cfc cf3c 7122 443e
000000e0: 6b50 8cbf a71b e93b 007f 6d3b d6b9 a2bd
000000f0: 14b4 d03c 3c7e 77bb bd47 893e 5d07 3e3e
00000100: f359 d23e 6ac9 f33c 00a8 74b9 2559 623d
00000110: 0157 c73d 4407 cb3d ac04 0dbb 3f31 933d
00000120: e4aa c03c 86a3 993d 913b a93d b0d2 d83d
00000130: f99f 80bc 17b6 0a3e 415c 0fbd deca 20bf
00000140: a9cd db3c cf05 903d 812e 293e fd9a 113e
00000150: 4e49 fd3d 20de 7ebc 4804 0d3c 295f b43d
00000160: 58cd 003d e20d 093d 19a9 133d 0f5d 2040
00000170: 0d7c 1e3e ba22 583c 35dc 09bd a60f cc3d
00000180: d2bf 5d3d f0ca a93c f6a5 92bd dbcc 4a3f
00000190: 2cc5 113d 0b58 253e 6ab8 d63d 9242 183d
000001a0: 067a 793d 8f88 8ebd 1ab0 433d 9bc0 8140
000001b0: 318d c43e e219 573d f09c 9f3b 2b19 bb3d
000001c0: ce63 003e c682 463d 776b 1d3e caee 403d
000001d0: 5f53 063e fc3e dabc ad93 f03d a382 09bd
000001e0: 6b79 6e3c 1c29 d6bf 6f48 653c 9f33 d33d
000001f0: 485f 0e3e 4e82 7f3d d97f df3d 7007 d8bb
