models/LSTM1/res1/lstm1-1.pt (torch, 4559 bytes, 7 tensors)

lstm.weight_ih_l0 f4 [8, 2]
0.68235147 0.15694378 -0.507784 -1.1383289 -0.33499968 0.09733778 -0.3467791 0.3737386
0.38863358 -0.111176684 -0.60479856 -0.1483969 0.43676126 0.56450653 -1.1839466 -0.6289549
00000000: 96ae 2e3f dfb5 203e 22fe 01bf c3b4 91bf
00000010: 1485 abbe 0859 c73d 088d b1be aa5a bf3e
00000020: fbfa c63e 9ab0 e3bd 14d4 1abf 5bf5 17be
00000030: 2c9f df3e 8083 103f 908b 97bf 3003 21bf

lstm.weight_hh_l0 f4 [8, 2]
-0.038821995 -0.11005318 -0.04685211 0.40284175 0.05105585 -0.066919684 0.19107467 -0.5639858
-0.6794851 0.5779633 -0.45471627 0.6572148 -0.5533446 0.5438586 0.44301456 -0.33837125
00000000: d003 1fbd 9063 e1bd 00e8 3fbd 4641 ce3e
00000010: f01f 513d 300d 89bd 14a9 433e 6061 10bf
00000020: bcf2 2dbf 67f5 133f 92d0 e8be 3b3f 283f
00000030: fea7 0dbf 513a 0b3f ced2 e23e ff3e adbe

lstm.bias_ih_l0 f4 [8]
-0.8095704 -1.2665629 -0.09662753 0.6810685 -0.7848455 -1.1296202 -0.9612727 -0.6651818
00000000: 0140 4fbf bc1e a2bf a8e4 c5bd 815a 2e3f
00000010: a2eb 48bf 6597 90bf f815 76bf 5b49 2abf

lstm.bias_hh_l0 f4 [8]
0.033844147 -1.197897 -0.43802655 0.70495015 -0.6489805 -1.1616815 -0.56788266 0.07922159
00000000: 29a0 0a3d b054 99bf 0445 e0be 9d77 343f
00000010: 9623 26bf fbb1 94bf c260 11bf ee3e a23d

fc_1.weight f4 [128, 2]
-0.00034230947 -0.46606994 -0.46581063 0.3396287 0.08223069 0.50946814 -0.36570626 0.00087565184
-0.84512746 0.86068755 -0.24257284 -1.074736 0.10259712 0.09862596 -1.0922288 0.070533
0.6824934 0.2461676 -0.37597546 1.2995058 0.05490082 0.63637835 -0.54361796 0.5337141
0.15926373 0.043557405 0.26414287 0.34899718 0.4238469 -0.03986609 -0.005047083 0.5162689
-0.6384916 -0.57186 0.13307536 0.43065935 -0.059105635 -0.42720592 -0.513286 0.051104873
-0.77981335 -1.0707982 -1.1448244 1.2658138 0.28115016 0.09894925 -0.84793967 -0.4064163
0.2602536 0.17956376 -0.46766564 0.30201727 -0.5081068 1.1896679 -0.22112067 0.12902264
-0.23351479 0.39079028 0.1304642 0.2548833 -0.20116866 -0.54859644 0.0066698017 0.18213087
0.16965091 0.51752144 -0.4435063 -0.26803422 -0.40452766 0.30362526 0.6586748 -0.6666158
0.34948927 0.3059408 0.5726475 0.1977278 -0.66891104 0.028303126 -0.15269923 -0.5846397
0.28808635 -0.3968764 0.62278575 0.7063506 0.32219833 0.018607974 0.07690954 -0.2365025
0.39180547 0.08318126 -0.12634745 -0.67170537 -0.98005337 -0.2592331 0.4007581 0.042414725
-0.6152881 0.49512976 -1.3560362 -0.14566492 0.049951255 -0.67490155 -1.143381 -0.24365789
-0.43495268 -0.53484166 -1.0660083 -0.5743588 -1.3794894 0.09222632 -0.04952529 0.68396395
-1.104722 1.2596312 -1.0950271 1.0702065 0.42175525 -0.21834773 -0.22190282 -0.020207854
0.28866446 -0.60640144 -0.70185417 -0.003687776 -1.1276045 0.5509955 -0.86538345 -1.2186325
0.036156595 0.22544777 -0.6611759 0.33478695 0.759674 -0.41107786 -1.1730729 -1.1094416
-0.2482655 0.900682 -0.22398016 0.35937494 -0.047347 1.1714544 -0.64449006 -0.09132695
-1.5261108 -0.041368358 0.37963837 0.19228184 0.1568994 -0.28103325 -0.47802895 0.3279187
-0.25542793 0.024053872 -0.7251237 -0.93144965 -0.3942514 0.12452471 -0.3774509 -0.28246084
-0.9694264 -0.32248127 -0.70128644 0.53474313 0.10295563 1.2234662 0.33581245 -0.88474214
0.04641372 -0.5436981 -0.015594184 0.26709938 -0.62107414 -0.4391645 -0.26617244 0.17628282
-0.9417329 1.2222378 -0.5253717 -0.04029054 -0.5408211 -0.6603763 -0.15952146 -0.124878824
0.15393114 -0.39369977 -1.1114771 -0.2629449 0.1263538 0.30576068 -0.08465129 0.46599942
0.438677 0.37374824 -0.41156 -0.6173307 -0.40824094 -0.6220647 -0.19724888 -0.008060336
-0.8302149 -1.1307195 -0.35158074 0.2990381 -1.433127 -0.16897197 -0.1608836 0.2698859
0.05482638 -0.4470742 -1.2806116 0.37458798 -0.991666 -1.2729249 -0.85367274 -1.2204231
-1.3371838 0.04682016 0.38128394 -0.56594455 -0.70064557 -0.62457395 -0.35176492 -1.0701623
-0.89984596 0.2918577 -0.03682685 0.16744202 -0.336534 -0.5035217 -0.48552752 -0.12114428
-1.1172571 -0.09786726 0.4695634 0.5364304 -0.0046856757 -0.11837527 -1.3246938 -1.1964602
-0.40106976 -0.45076057 -0.6259594 0.033712566 0.68945616 -0.68543965 -0.050897263 0.6248613
0.010111646 0.57176495 -0.5709145 0.4143416 -0.7659055 -0.91949373 0.09887332 0.07692194
00000000: 0078 b3b9 b8a0 eebe bb7e eebe d0e3 ad3e
00000010: 9068 a83d 816c 023f da3d bbbe 008c 653a
00000020: 465a 58bf 0556 5c3f 0465 78be f390 89bf
00000030: 701e d23d 68fc c93d 27ce 8bbf 9b73 903d
00000040: e3b7 2e3f 5c13 7c3e db7f c0be 3556 a63f
00000050: afdf 603d b1e9 223f 8c2a 0bbf 7da1 083f
00000060: 0816 233e 4069 323d bc3d 873e c2af b23e
00000070: 7602 d93e a04a 23bd 0062 a5bb 332a 043f
00000080: 2f74 23bf 6b65 12bf e844 083e 627f dc3e
00000090: c018 72bd bcba dabe b666 03bf 5853 513d
000000a0: d9a1 47bf ea0f 89bf 9b89 92bf 3006 a23f
000000b0: eaf2 8f3e e8a5 ca3d 9312 59bf cc15 d0be
000000c0: f63f 853e 90df 373e df71 efbe 02a2 9a3e
000000d0: 4a13 02bf 0a47 983f 756d 62be 831e 043e
000000e0: 801e 6fbe aa15 c83e 6898 053e 1080 823e
000000f0: 28ff 4dbe d170 0cbf 5a8e da3b 8480 3a3e
00000100: f8b8 2d3e 497c 043f 4213 e3be c83b 89be
00000110: 401e cfbe c574 9b3e e99e 283f 55a7 2abf
00000120: 42f0 b23e 46a4 9c3e 0799 123f 2879 4a3e
00000130: c13d 2bbf f5db e73c 305d 1cbe f3aa 15bf
00000140: 0e80 933e 6233 cbbe e36e 1f3f 65d3 343f
00000150: 2ef7 a43e c06f 983c c082 9d3d b62d 72be
00000160: ba9a c83e f05a aa3d 3a61 01be e2f4 2bbf
00000170: c7e4 7abf 33ba 84be 2a30 cd3e 10bb 2d3d
00000180: 8583 1dbf a681 fd3e 9892 adbf 2f29 15be
00000190: b099 4c3d 59c6 2cbf 4f5a 92bf 7481 79be
000001a0: 1eb2 debe 62eb 08bf f672 88bf 2e09 13bf
000001b0: 1c93 b0bf 27e1 bc3d 08db 4abd 4318 2f3f
000001c0: 8867 8dbf 983b a13f d929 8cbf 87fc 883f
000001d0: 4ef0 d73e 8c96 5fbe 7e3a 63be f18a a5bc
000001e0: d4cb 933e 203d 1bbf b7ac 33bf 9dae 71bb
000001f0: 5855 90bf 0b0e 0d3f c589 5dbf 26fc 9bbf
00000200: f018 143d c8db 663e d342 29bf 3269 ab3e
00000210: ff79 423f cc78 d2be 4127 96bf 2f02 8ebf
00000220: 5039 7ebe 1893 663f 0e5b 65be feff b73e
00000230: eeee 41bd 38f2 953f 4dfd 24bf a009 bbbd
00000240: 9957 c3bf de71 29bd f65f c23e 88e5 443e
00000250: 3caa 203e 97e3 8fbe 36c0 f4be f6e4 a73e
00000260: 73c7 82be a00c c53c b5a1 39bf 7c73 6ebf
00000270: 52db c9be d006 ff3d 3f41 c1be b59e 90be
00000280: 542c 78bf 441c a5be 8287 33bf ede4 083f
00000290: 67da d23d 8a9a 9c3f 9cef ab3e 767e 62bf
000002a0: 501c 3e3d cc2f 0bbf c07e 7fbc 40c1 883e
000002b0: b7fe 1ebf 2bda e0be c147 88be 7c83 343e
000002c0: 6815 71bf 4a72 9c3f c27e 06bf b107 25bd
000002d0: 4073 0abf 6c0e 29bf 9859 23be 78c0 ffbd
000002e0: 20a0 1d3e 0493 c9be e244 8ebf b7a0 86be
000002f0: e462 013e aa8c 9c3e a85d adbd 7a97 ee3e
00000300: 469a e03e ee5b bf3e feb7 d2be 6209 1ebf
00000310: f504 d1be a23f 1fbf 9cfb 49be 800f 04bc
00000320: f788 54bf 6bbb 90bf 6402 b4be 861b 993e
00000330: b570 b7bf fd06 2dbe acbe 24be 7c2e 8a3e
00000340: a091 603d e9e6 e4be 15eb a3bf ffc9 bf3e
00000350: d3dd 7dbf 34ef a2bf 4c8a 5abf d336 9cbf
00000360: d728 abbf 7fc6 3f3d a637 c33e bee1 10bf
00000370: 825d 33bf 14e4 1fbf 881a b4be 14fb 88bf
00000380: 4e5c 66bf 5f6e 953e c0d7 16bd ec75 2b3e
00000390: 2f4e acbe cce6 00bf 1097 f8be 7e1a f8bd
000003a0: 4802 8fbf a16e c8bd 9d6a f03e 8153 093f
000003b0: 4c8a 99bb bc6e f2bd 918f a9bf 9c25 99bf
000003c0: 0459 cdbe 17ca e6be e03e 20bf 3016 0a3d
000003d0: 3380 303f f978 2fbf a679 50bd e9f6 1f3f
000003e0: 51ab 253c 305f 123f 7427 12bf 9524 d43e
000003f0: 6212 44bf f163 6bbf 187e ca3d 4089 9d3d

fc_1.bias f4 [128]
-0.52413034 0.4818271 -0.5251607 -0.046299577 0.2387437 0.35671088 -0.587746 0.34421378
-0.32210863 0.13622779 0.49023828 -0.44345236 -0.6956323 -0.26176032 -0.35222206 -0.2092194
-0.72949123 -0.25415072 -0.123894036 0.26566803 -0.41760507 0.5023035 -0.4797462 0.23749228
-0.25733787 -0.3504234 -0.41026625 0.60621613 -0.5492897 -0.59359074 -0.58408517 -0.6806164
-0.7863152 -0.08981907 0.53978354 -0.29133612 -0.25003466 -0.41453996 0.46266782 -0.44751826
-0.20525193 -0.27779672 -0.5438705 -0.33858266 -0.17101431 0.05951062 -0.5279765 -0.56308246
-0.41765696 -0.63197696 -0.30202532 0.10808441 -0.2154321 -0.5734829 -0.7383216 -0.43917632
0.28923923 0.64388055 -0.45351955 -0.15963447 -0.6140408 0.18833227 0.37170053 -0.5679735
-0.62774485 -0.4357742 -0.5832789 -0.16715816 0.26080823 -0.51823705 0.6901334 0.39382032
-0.7200605 -0.68181705 -0.10925102 -0.62126637 -0.39684933 -0.508894 -0.39774477 -0.39927024
-0.17058791 0.16768834 0.47118908 -0.5691541 -0.049563408 -0.63901687 -0.5134503 -0.53592753
-0.034318417 -0.39346817 -0.46410447 -0.34232834 -0.17655224 -0.48513532 -0.49613965 -0.6514334
-0.2069192 -0.6377979 -0.031981945 -0.5264846 -0.6805318 -0.6252298 -0.6865434 -0.34187147
-0.5249455 -0.45926777 0.19192457 -0.6316421 -0.48799652 -0.32438076 -0.08189082 0.253332
-0.2244849 -0.312982 0.17130603 -0.51523083 -0.7464109 -0.6105267 -0.0727879 0.11410755
-0.5458089 -0.29264554 -0.51888394 0.13436872 -0.28130862 0.015577027 -0.17377365 -0.35597917
00000000: 682d 06bf 0bb2 f63e ee70 06bf a0a4 3dbd
00000010: 3a79 743e cfa2 b63e 8676 16bf ca3c b03e
00000020: 6ceb a4be 4c7f 0b3e 8300 fb3e 300c e3be
00000030: f514 32bf 7305 86be 7356 b4be 9c3d 56be
00000040: f0bf 3abf 0b20 82be 28bc fdbd a405 883e
00000050: 55d0 d5be f696 003f 4ba1 f5be 2d31 733e
00000060: cac1 83be b26a b3be 6b0e d2be fb30 1b3f
00000070: 409e 0cbf 90f5 17bf 9b86 15bf e03c 2ebf
00000080: f44b 49bf 10f3 b7bd 412f 0a3f 022a 95be
00000090: 8b04 80be 953e d4be cce2 ec3e 1d21 e5be
000000a0: 902d 52be 5f3b 8ebe 193b 0bbf b55a adbe
000000b0: 601e 2fbe 68c1 733d 7829 07bf 2c26 10bf
000000c0: 22d7 d5be 3ec9 21bf 10a3 9abe 5c5b dd3d
000000d0: 3c9a 5cbe c6cf 12bf a502 3dbf b8db e0be
000000e0: 2a17 943e 5bd5 243f b733 e8be 3877 23be
000000f0: c731 1dbf 2dda 403e 884f be3e b666 11bf
00000100: e3b3 20bf cc1d dfbe c451 15bf 822b 2bbe
00000110: a888 853e 2fab 04bf 95ac 303f d1a2 c93e
00000120: e355 38bf 908b 2ebf 00bf dfbd 500b 1fbf
00000130: d62f cbbe e146 02bf 34a5 cbbe 266d ccbe
00000140: 99ae 2ebe 7eb6 2b3e b23f f13e 15b4 11bf
00000150: 0003 4bbd 9c96 23bf 7b71 03bf 8c32 09bf
00000160: 7891 0cbd a974 c9be 1a9f edbe a945 afbe
00000170: 1cca 34be a863 f8be 0406 febe 57c4 26bf
00000180: a0e2 53be b946 23bf 80ff 02bd b2c7 06bf
00000190: 5537 2ebf 0f0f 20bf 4fc1 2fbf c709 afbe
000001a0: d462 06bf 2525 ebbe e087 443e 4cb3 21bf
000001b0: aeda f9be 3c15 a6be 60b6 a7bd bbb4 813e
000001c0: 5fdf 65be 2d3f a0be d96a 2f3e 2be6 03bf
000001d0: c914 3fbf 7a4b 1cbf d311 95bd 38b1 e93d
000001e0: 22ba 0bbf a3d5 95be 94d5 04bf f497 093e
000001f0: af07 90be c936 7f3c b8f1 31be e742 b6be

fc.weight f4 [1, 128]
-0.032075543 0.31455284 -0.024595425 -0.052828133 0.22772308 0.324465 -0.03580637 0.28561905
0.040705644 0.12907512 0.32993448 0.0024014115 -0.031974178 0.08558821 0.0881223 -0.023987502
0.36361882 -0.05187771 0.080080666 0.3188771 0.5437061 0.32935932 0.03920459 0.32216302
0.075368546 -0.05136764 -0.51172405 0.32738855 -0.08684604 0.019250497 0.086802594 0.52540475
-0.49276882 0.05218578 0.34856442 -0.048140414 -0.062158246 0.009911455 0.30633324 -0.025993552
0.009680107 -0.03742775 -0.037176427 -0.02513405 0.054371096 0.23747243 0.5685111 -0.045358848
-0.06171664 0.56502765 0.08548597 0.29141653 0.004258305 0.54634875 0.52173805 -0.3848944
0.25805035 0.37489244 -0.044846974 -0.12897335 0.07164029 0.29995587 0.29059288 0.52550143
0.080021895 -0.06710583 0.48264518 0.35875976 0.21601035 0.07387582 0.38458103 0.28335103
0.48297453 -0.063246086 0.07450657 -0.017333016 -0.022613406 0.51507777 -0.025827408 -0.03556312
0.30077288 0.17069522 0.29333508 0.56891876 0.06532853 -0.029928192 0.34478703 -0.013468571
0.009474965 -0.4141292 0.022494711 -0.040903978 0.0842591 0.35235468 0.06617344 0.013463229
0.022283226 -0.027014107 -0.048091672 -0.020040661 0.5223862 -0.020940632 0.42301425 -0.006478384
0.06384418 -0.21865544 0.29749173 0.53463817 0.49334568 -0.027443383 -0.07047582 0.31105527
-0.24761498 0.031944938 0.28494132 0.5875265 0.50483197 0.5412904 0.30303693 0.27327606
0.559297 -0.039614074 0.06382271 0.14747986 -0.2679902 0.06126462 0.33284518 0.033675417
00000000: a561 03bd 120d a13e 587c c9bc 5062 58bd
00000010: 3d30 693e 4720 a63e b3a9 12bd a93c 923e
00000020: f6ba 263d 452c 043e 2ced a83e 0061 1d3b
00000030: 5bf7 02bd df48 af3d 7779 b43d 7081 c4bc
00000040: 3f2c ba3e b97d 54bd 5501 a43d dc43 a33e
00000050: 5330 0b3f c9a1 a83e fe94 203d 8df2 a43e
00000060: d35a 9a3d e066 52bd 5900 03bf 799f a73e
00000070: 56dc b1bd 38b3 9d3c 8fc5 b13d ed80 063f
00000080: 324c fcbe c2c0 553d 0977 b23e e22e 45bd
00000090: a599 7ebd a863 223c b6d7 9c3e 6ef0 d4bc
000000a0: 5099 1e3c d74d 19bd 4f46 18bd ece5 cdbc
000000b0: 3ab4 5e3d f92b 733e f289 113f 33ca 39bd
000000c0: 96ca 7cbd a7a5 103f 4513 af3d 8c34 953e
000000d0: 4089 8b3b 83dd 0b3f a090 053f e110 c5be
000000e0: 2d1f 843e e7f1 bf3e 76b1 37bd 9711 04be
000000f0: 25b8 923d d193 993e 97c8 943e 4387 063f
00000100: 85e2 a33d c86e 89bd 451d f73e 5caf b73e
00000110: d131 5d3e 354c 973d cee7 c43e 6313 913e
00000120: 7048 f73e 2a87 81bd e796 983d f8fd 8dbc
00000130: c03f b9bc 23dc 033f 0094 d3bc a2aa 11bd
00000140: e7fe 993e baca 2e3e 0430 963e a9a4 113f
00000150: f7ca 853d f82b f5bc ed87 b03e 48ab 5cbc
00000160: e23c 1b3c be08 d4be d446 b83c ee8a 27bd
00000170: 0990 ac3d d567 b43e f185 873d e094 5c3c
00000180: 508b b63c b04c ddbc c6fb 44bd 502c a4bc
00000190: 1abb 053f b08b abbc 5395 d83e a048 d4bb
000001a0: bdc0 823d 36e7 5fbe d650 983e 0cde 083f
000001b0: ce97 fc3e f2d0 e0bc a055 90bd a342 9f3e
000001c0: c88e 7dbe b2d8 023d d4e3 913e 2368 163f
000001d0: ab3c 013f 0292 0a3f a827 9b3e d7ea 8b3e
000001e0: 172e 0f3f 5e42 22bd 7bb5 823d f604 173e
000001f0: 0336 89be 9cf0 7a3d af6a aa3e 3cef 093d
