models/LSTM1/res1/lstm1-8.pt (torch, 4623 bytes, 7 tensors)

lstm.weight_ih_l0 f4 [8, 3]
0	0x3e8de71e	0.2771539
1	0xbde01350	-0.109411836
2	0x3f03760d	0.51352006
3	0xbe7d5382	-0.24738887
4	0xbd3514be	-0.044209234
5	0x3edc4be1	0.4302664
6	0xbf212c1a	-0.6295792
7	0x3ed8c7fe	0.42340082
8	0xbe411f0c	-0.188595
9	0x3f2f3061	0.68433195
10	0x3f233205	0.637482
11	0x3deee4f8	0.11664766
12	0x3ec52b13	0.38509426
13	0x3f708eeb	0.93968076
14	0xbe0612f0	-0.13093162
15	0xbddabc65	-0.10680465
16	0xbd3d1308	-0.046160728
17	0x3effa138	0.49927688
18	0x3d043ed8	0.032286495
19	0xbf045cfe	-0.51704395
20	0x3e3e71a2	0.18598035
21	0x3cff94be	0.031198855
22	0xbc0dd890	-0.00865759
23	0x3eb3bd25	0.35105243

lstm.weight_hh_l0 f4 [8, 2]
0	0x3f3331f7	0.69998115
1	0xbf285698	-0.6575713
2	0x3eb72e3e	0.35777467
3	0x3ed07b3a	0.40719014
4	0x3f126689	0.57187706
5	0xbecb7d3e	-0.3974399
6	0xbf2493f4	-0.6428826
7	0x3e937840	0.2880268
8	0x3f0fa26b	0.56107205
9	0x3ee00866	0.43756407
10	0x3f1d349d	0.61408406
11	0xbe73da4e	-0.23813745
12	0xbece516e	-0.402965
13	0x3e810720	0.25200748
14	0x3e5999c4	0.21250063
15	0xbedd73ef	-0.43252513

lstm.bias_ih_l0 f4 [8]
0	0x3ed39be4	0.41329873
1	0x3f073327	0.5281243
2	0xbc358000	-0.011077881
3	0x3e23ccc0	0.15996075
4	0x3c9936ec	0.018702947
5	0x3f31c6df	0.6944408
6	0x3cdaf42d	0.02672776
7	0xbe445207	-0.19171916

lstm.bias_hh_l0 f4 [8]
0	0x3d2bff51	0.041991536
1	0x3f4eec21	0.80829054
2	0xbeab8c7b	-0.33505616
3	0x3f2bc923	0.67103785
4	0x3f0c36f4	0.5477135
5	0x3e496e3e	0.1967096
6	0x3de8ad12	0.113611355
7	0x3de5574d	0.11198292

fc_1.weight f4 [128, 2]
0	0xbdc93eb4	-0.09826413
1	0x3f2b84e4	0.6699965
2	0x3f0714e4	0.5276625
3	0x3f5e3a96	0.86808145
4	0xbdbe5ec3	-0.09295418
5	0xbe65b72a	-0.22433153
6	0xbf08eb57	-0.534841
7	0x3f408a0d	0.7521065
8	0x3c90df71	0.01768467
9	0x3f4fc1f8	0.8115535
10	0x3eb7eb68	0.35921788
11	0x3f084c2a	0.5324122
12	0xbedbbc03	-0.4291688
13	0x3f27dcc5	0.6557124
14	0xbe580722	-0.21096471
15	0xbde6a4d8	-0.1126191
16	0xbdfb2b9b	-0.122641765
17	0x3ee4fbab	0.44723257
18	0xbeda713f	-0.42664525
19	0x3f016ac5	0.5055354
20	0xbe0af554	-0.13570148
21	0x3f00c17f	0.5029525
22	0x3e8c44f6	0.27396363
23	0x3e414b18	0.18876302
24	0x3e0750a7	0.1321436
25	0x3f0d272b	0.5513789
26	0x3e829389	0.25503185
27	0xbe4e266c	-0.20131844
28	0xbedd54ff	-0.4322891
29	0xbf2de8bf	-0.6793327
30	0xbe385c50	-0.18003964
31	0xbecf0fe9	-0.40441826
32	0x3d4807e0	0.048835635
33	0x3e9798c2	0.29608732
34	0xbf254d84	-0.64571404
35	0x3f022fd0	0.50854206
36	0x3ea97160	0.3309431
37	0x3e904bb5	0.2818276
38	0xbf14a2f9	-0.58061177
39	0x3d76ab70	0.06022209
40	0x3f13fd75	0.5780862
41	0xbefd5d28	-0.49485135
42	0xbf20c4ae	-0.6280011
43	0xbed9caa7	-0.42537424
44	0xbec022a2	-0.37526423
45	0x3de60638	0.11231655
46	0xbec2c93d	-0.38044158
47	0x3f43e69f	0.76523775
48	0x3e7e82d0	0.24854589
49	0x3f2cca34	0.6749604
50	0xbd8187f0	-0.06324756
51	0xbf32c82f	-0.69836706
52	0x3f3224fd	0.6958769
53	0x3f80a8ca	1.005151
54	0xbf08a545	-0.5337718
55	0x3eac9d37	0.33713695
56	0xbefa5d27	-0.48899195
57	0x3f672a1d	0.90298635
58	0x3f31cc63	0.69452494
59	0xbec8da4f	-0.39229056
60	0x3e0bbe0f	0.1364672
61	0x3e51e8c2	0.20498946
62	0xbebfa324	-0.37429154
63	0xbe25a47a	-0.16176024
64	0xbf0e64d7	-0.5562262
65	0xbd6056c1	-0.054770235
66	0xbf05b8cd	-0.5223511
67	0x3e61be4c	0.22045249
68	0x3ef5c808	0.48004174
69	0xbebea0cf	-0.37232062
70	0x3edfe3f8	0.43728614
71	0x3f136b07	0.57585186
72	0xbe7dcda2	-0.24785474
73	0x3eb6a66a	0.3567384
74	0xbe51b727	-0.20480023
75	0x3f0a339d	0.53985006
76	0x3f28a8dd	0.65882665
77	0xbe7d8b4a	-0.24760166
78	0xbe260e3a	-0.16216365
79	0x3ec3a180	0.38209152
80	0xbec97757	-0.39348862
81	0xbe68daf4	-0.22739774
82	0xbf20f02e	-0.62866485
83	0xbf2be98a	-0.6715323
84	0x3edf2679	0.4358404
85	0xbf346cef	-0.7047872
86	0xbe7f8498	-0.24952924
87	0xbeb8589b	-0.360051
88	0x3ccae980	0.024769545
89	0x3eb3ab3f	0.35091588
90	0xbedaaafc	-0.42708576
91	0xbe9ddc1c	-0.30831993
92	0xbf33d8cb	-0.70252675
93	0xbf3f715d	-0.74782354
94	0xbf2e2026	-0.68017805
95	0x3ec44ef2	0.3834148
96	0x3c9e7ea0	0.019347489
97	0xbd829bd0	-0.06377375
98	0xbeeed1b4	-0.46644366
99	0xbf11cc11	-0.56952006
100	0xbd1170d0	-0.035507977
101	0x3e5671c4	0.20941836
102	0x3e4109cd	0.18851395
103	0xbed1f506	-0.4100725
104	0x3ee72f3c	0.45153224
105	0xbcfbcbd0	-0.030736834
106	0x3f0f1ddb	0.5590493
107	0xbf3488e5	-0.70521384
108	0xbe2cd6a8	-0.1687876
109	0xbf15e782	-0.5855638
110	0xbf076346	-0.52885854
111	0xbd9478a0	-0.0724957
112	0x3e892430	0.2678542
113	0xbeea7af7	-0.4579694
114	0xbeb0b7b4	-0.34515154
115	0xbde95229	-0.11392624
116	0x3ef9c874	0.48785746
117	0x3e91b134	0.28455508
118	0xbed6bd1c	-0.41941154
119	0xbe292aa0	-0.16520166
120	0x3e491a94	0.19639045
121	0x3e324b27	0.17411481
122	0xbe852d05	-0.2601091
123	0x3eae785a	0.34076196
124	0x3e463048	0.19354355
125	0xbe575f10	-0.21032357
126	0xbdd3ffd0	-0.10351527
127	0x3e60cb84	0.21952635
128	0x3ee61c30	0.4494338
129	0x3f383cad	0.71967584
130	0x3e99e4d6	0.300574
131	0xbe3cb108	-0.18426907
132	0x3e49d533	0.19710235
133	0x3f296de9	0.66183335
134	0x3e6dc3e2	0.23219255
135	0x3e772fcc	0.24139327
136	0xbdebe6a0	-0.115185976
137	0x3e91a15f	0.2844343
138	0xbdbe597b	-0.09294411
139	0xbdf63b30	-0.12023008
140	0xbca9eb40	-0.020742059
141	0xbf089541	-0.53352743
142	0x3e22fb74	0.15916234
143	0xbf1730f2	-0.5905906
144	0x3f0204a5	0.50788337
145	0x3d5f3120	0.05449021
146	0xbec625be	-0.3870067
147	0xbf003451	-0.5007983
148	0x3ed42cc3	0.414404
149	0x3f4d5726	0.802111
150	0xbe4a3830	-0.19747996
151	0xbef00696	-0.46880025
152	0xbeb5c1cb	-0.35499415
153	0x3f149730	0.58043194
154	0xbe08506c	-0.13311929
155	0x3f053303	0.5203096
156	0xbe854102	-0.2602616
157	0x3f37b432	0.7175933
158	0x3ea68ece	0.32530826
159	0x3f2fea77	0.6871714
160	0x3f1c7e43	0.6113016
161	0x3eee42ba	0.46535283
162	0x3f0bbbfd	0.5458372
163	0x3e96b27e	0.29433054
164	0x3e54defd	0.20788188
165	0x3e25bfe2	0.16186479
166	0xbf19e973	-0.6012184
167	0x3f0df009	0.5544439
168	0x3dbd352f	0.092386596
169	0x3c707927	0.0146773225
170	0xbf17b13d	-0.5925482
171	0x3e388580	0.18019676
172	0xbe04b6a4	-0.12960297
173	0xbe811a12	-0.25215203
174	0xbeb14da5	-0.3462955
175	0xbe6e4e3a	-0.23272029
176	0x3ee06562	0.4382735
177	0x3e3858d8	0.18002641
178	0xbdd9988e	-0.106248006
179	0xbe440ff8	-0.19146717
180	0xbd7d5d50	-0.061856568
181	0x3f084e31	0.5324431
182	0x3f16e731	0.5894652
183	0xbe883ccb	-0.2660888
184	0x3e80c8c9	0.25153187
185	0xbedc1661	-0.42985824
186	0xbef19a01	-0.47187808
187	0x3e5005bb	0.20314686
188	0x3ec7f156	0.39051312
189	0xbef3c18b	-0.476086
190	0xbf2eb1d0	-0.6824007
191	0x3e95670e	0.29180187
192	0x3f212fad	0.6296337
193	0xbcd94da0	-0.026526272
194	0x3e29dbae	0.16587707
195	0x3e61e57f	0.22060202
196	0x3f369d34	0.7133362
197	0x3e52ba28	0.20578825
198	0x3aa24f34	0.0012383224
199	0x3e37ac02	0.1793671
200	0x3eca004a	0.39453346
201	0x3e2eeef8	0.17083347
202	0xbe45ecd8	-0.1932863
203	0x3f219ede	0.6313304
204	0xbeb71eb0	-0.357656
205	0xbe952909	-0.2913287
206	0x3ed9900b	0.4249271
207	0x3e89486b	0.26813063
208	0xbf0b1f63	-0.5434477
209	0xbe529374	-0.20564061
210	0xbf0017bc	-0.50036216
211	0x3f32f04c	0.69897914
212	0x3e69c9e4	0.22830921
213	0x3f610a4e	0.8790635
214	0x3f0ad8bb	0.54236954
215	0x3e15d8f8	0.14633548
216	0xbefcf64a	-0.49406654
217	0x3dfc1448	0.12308556
218	0x3f02c987	0.51088756
219	0xbee3814d	-0.44434586
220	0x3efa4ae2	0.48885256
221	0xbe9af7af	-0.30267093
222	0x3d9c8544	0.07642606
223	0xbe916a44	-0.28401387
224	0xbddce7af	-0.10786378
225	0x3ef01fb7	0.46899197
226	0xbeacc5b7	-0.33744594
227	0xbe9510fc	-0.2911452
228	0xbebc9ce0	-0.36838436
229	0xbdb71e18	-0.08941287
230	0xbf3b56b5	-0.7317918
231	0xbf064f91	-0.5246516
232	0xbde1b1f6	-0.110202715
233	0x3e8fc53f	0.28080174
234	0x3d3bdb47	0.045863416
235	0xbde29d12	-0.11065115
236	0x3dbc33bb	0.09189554
237	0xbecbe0ca	-0.39819938
238	0xbed63747	-0.41839048
239	0xbf26e983	-0.6520006
240	0x3ec67715	0.38762727
241	0x3e27dfc9	0.16393961
242	0x3e7109a8	0.2353884
243	0x3f1ae4b3	0.6050522
244	0xbf171cc7	-0.59028286
245	0x3f233aba	0.63761485
246	0x3e9593d4	0.29214346
247	0xbe2aed86	-0.1669217
248	0x3eca1ff5	0.39477506
249	0x3f0b5f58	0.5444236
250	0xbec7f5e4	-0.39054787
251	0xbf0ec66c	-0.5577152
252	0x3ede11ea	0.43373042
253	0xbd6ca313	-0.057772707
254	0x3ed83be2	0.42233187
255	0xbea4fa94	-0.32222426

fc_1.bias f4 [128]
0	0x3c1fcf2d	0.009753984
1	0x3d738ac9	0.059458528
2	0x3f34a5cb	0.7056548
3	0x3eb20814	0.34771788
4	0x3f249641	0.6429177
5	0xbe222c5f	-0.15837239
6	0xbeb3aaf1	-0.35091355
7	0xbdcd4118	-0.10022181
8	0x3ef9184c	0.4865135
9	0xbab59fdb	-0.0013856845
10	0xbe921a4b	-0.28535685
11	0xbef71a0c	-0.4826206
12	0xbf0e7ec6	-0.5566219
13	0xbe27a35b	-0.16370909
14	0xbe8a0ab0	-0.2696128
15	0x3ea3f2e4	0.32021248
16	0xbe9431f8	-0.28944373
17	0xbe95747a	-0.29190427
18	0x3f390442	0.7227212
19	0xbdd9ed80	-0.10641003
20	0xbe7d63b8	-0.24745071
21	0xbea544af	-0.32278964
22	0xbf1121d2	-0.5669223
23	0x3e453884	0.1925984
24	0xbcc37fbd	-0.023864621
25	0xbf0360a5	-0.5131934
26	0xbd88d2e3	-0.066808484
27	0x3c86e182	0.016464952
28	0x3f05988c	0.52185893
29	0xbf0a7576	-0.5408548
30	0xbe9658bf	-0.29364583
31	0x3b9cd02e	0.004785559
32	0x3eef8de2	0.46787935
33	0xbe66bf5e	-0.22533938
34	0xbda71ea9	-0.08160145
35	0x3e029e94	0.12755805
36	0xbf1666ba	-0.587505
37	0x3ea9eb51	0.33187345
38	0xbe73b238	-0.23798454
39	0x3eaf21e7	0.34205553
40	0xbf2c1947	-0.6722607
41	0xbe155ba0	-0.14585733
42	0xbe488e9f	-0.19585656
43	0xbe1a26a4	-0.15053803
44	0xbe7a7220	-0.24457598
45	0xbb751a5c	-0.0037399745
46	0x3d3458f5	0.04403015
47	0xbf27898e	-0.65444267
48	0xbf09c5d4	-0.53817487
49	0x3cd27db8	0.025694713
50	0xbf152e49	-0.5827375
51	0x3e5ebaa9	0.21750893
52	0x3f36ca43	0.71402377
53	0xbe6db8a8	-0.23214972
54	0xbee04b17	-0.4380729
55	0xbf0d28bc	-0.5514028
56	0x3e3935f5	0.18086989
57	0x3ed8168a	0.42204696
58	0x3edabb44	0.42720997
59	0xbf1ce6a2	-0.6128942
60	0xbe23a6c5	-0.15981586
61	0xbe9ede79	-0.31029108
62	0x3f2b3192	0.66872513
63	0xbee027fb	-0.43780503
64	0xbd2e4edb	-0.04255567
65	0xbf1ea428	-0.6196923
66	0xbe198db8	-0.14995468
67	0xbe48a75e	-0.19595096
68	0xbcc22d36	-0.023703199
69	0x3ec627ee	0.3870234
70	0xbdced3e0	-0.10099006
71	0xbdfb79e8	-0.12279111
72	0xbeaec45e	-0.3413419
73	0xbf0c3812	-0.54773057
74	0x3d933b69	0.07189066
75	0xbdddccb0	-0.10830057
76	0xbcce2e48	-0.025168553
77	0xbf3032ac	-0.6882732
78	0x3e70708d	0.23480435
79	0x3ee6b02a	0.45056278
80	0xbee39361	-0.4444838
81	0xbeb2f0da	-0.3494938
82	0x3e1e40fe	0.1545448
83	0xbf06af14	-0.526109
84	0xbdb1af9c	-0.08676073
85	0xbeeec2e2	-0.4663306
86	0xbf341880	-0.70349884
87	0xbd3bff50	-0.04589778
88	0xbecba3b6	-0.3977334
89	0x3ed9c7c4	0.42535222
90	0x3f195afd	0.5990446
91	0x3f0038d9	0.5008674
92	0xbe135c7c	-0.14390749
93	0x3eb7021a	0.3574379
94	0xbee2f99d	-0.44331065
95	0xbebc17dc	-0.36736953
96	0xbef78d73	-0.48350105
97	0xbe5589a0	-0.20853281
98	0x3eefde3f	0.46849248
99	0x3ec89704	0.39177716
100	0xbe9c26bf	-0.3049831
101	0x3e90fd9e	0.28318495
102	0x3e55c006	0.20874032
103	0x3e2225ef	0.15834783
104	0xbe8ec76f	-0.2788653
105	0x3ee83557	0.45353195
106	0x3ee8531f	0.45375916
107	0xbf1c132e	-0.60966766
108	0x3e4f30d4	0.2023347
109	0xbf15461f	-0.5831012
110	0xbf26ef61	-0.65209013
111	0xbd7b338b	-0.061328452
112	0x3e8db370	0.27675962
113	0xbe3ebd30	-0.18626857
114	0xbdb5bb00	-0.08873558
115	0xbc0abc8a	-0.008467803
116	0x3e9f72ab	0.31142172
117	0x3d9af05c	0.07565376
118	0x3f3e3a0c	0.7430732
119	0xbaac8000	-0.0013160706
120	0x3ec32544	0.3811437
121	0xbf2d4d21	-0.67695814
122	0x3f26bca9	0.6513162
123	0xbc89d568	-0.016825393
124	0xbe921285	-0.28529754
125	0x3ecd146a	0.40054637
126	0x3f198565	0.5996917
127	0x3f2ea76b	0.6822421

fc.weight f4 [1, 128]
0	0x3df630fa	0.1202106
1	0x3e393734	0.18087465
2	0x3e3c1a9f	0.1836953
3	0x3e3cc35a	0.18433896
4	0x3e180bbf	0.14848231
5	0x3dccada9	0.099940605
6	0x3d02d1de	0.031938426
7	0xbd5e99cd	-0.054345895
8	0x3d85ec4f	0.06539213
9	0x3e1c222c	0.1524741
10	0xbc902624	-0.017596312
11	0x3c4adc68	0.0123816505
12	0x3cf10395	0.029420653
13	0x3cb80932	0.022465322
14	0x3da5d453	0.08097138
15	0x3e054158	0.13013208
16	0xbc11fa48	-0.008909769
17	0x3d645653	0.055746388
18	0x3e52be0e	0.20580313
19	0xbd343bd8	-0.044002384
20	0x3d72ea06	0.059305213
21	0x3d419d12	0.047268935
22	0xbd9eafff	-0.07748412
23	0x3e6c4137	0.23071752
24	0x3ddb670a	0.107130125
25	0x3d6ea9da	0.05826745
26	0x3f302e3d	0.68820554
27	0x3e108262	0.14112237
28	0x3e5e832c	0.21729726
29	0x3cead8a0	0.028667748
30	0xbc32c587	-0.010911352
31	0x3dd2989e	0.10283016
32	0x3e45dd09	0.193226
33	0xbcf10d96	-0.029425424
34	0x3d6f0c26	0.058361195
35	0x3e0d4646	0.13796338
36	0xbd94bec4	-0.07262948
37	0x3dd17ae4	0.10228518
38	0xbc9de866	-0.019275855
39	0x3d765552	0.06013996
40	0x3da4d5a9	0.08048565
41	0x3d119760	0.035544753
42	0x3cc14446	0.023592126
43	0xbc53bf60	-0.012924045
44	0xb9a55f6e	-0.00031542353
45	0x3d71c599	0.059026334
46	0x3dd8d88c	0.10588178
47	0xbdb07bf8	-0.08617395
48	0x3aa26d00	0.0012392104
49	0x3da7b2be	0.08188389
50	0x3ce3499c	0.02774506
51	0x3d60dedf	0.054900046
52	0x3e0d84a9	0.13820137
53	0x3d8defd1	0.06930507
54	0xbd1d40df	-0.038391944
55	0x3d373ffe	0.044738762
56	0x3d08aa81	0.03336573
57	0x3df99d85	0.121882476
58	0x3e248fdd	0.16070504
59	0xbd3e9e6c	-0.0465378
60	0xbbb3064b	-0.0054633967
61	0xbd904ff8	-0.07046503
62	0x3df766be	0.120801434
63	0x3ccf443c	0.025301091
64	0x3dd6580d	0.10466013
65	0x3d3d5e26	0.046232365
66	0x3da3aa04	0.07991412
67	0x3d1171e2	0.035508998
68	0x3dae4ec3	0.08511116
69	0x3d50df1c	0.050994024
70	0xbd1c8199	-0.03820953
71	0x3d7cf35a	0.061755516
72	0x3c8d5788	0.017253652
73	0xbcae2988	-0.021260038
74	0x3e3a8e62	0.18218377
75	0xbbd2f610	-0.0064380243
76	0x3e1bbb60	0.15208197
77	0x3c6b9728	0.0143793
78	0x3de21237	0.110386305
79	0x3e4323f7	0.19056688
80	0xbd6796f8	-0.05654046
81	0xbd725e1f	-0.059171792
82	0x3e174243	0.1477137
83	0xbdb03576	-0.08603947
84	0x3d785028	0.060623318
85	0xbd9caec8	-0.076505244
86	0xbd92796d	-0.071520664
87	0x3c8f66b5	0.01750503
88	0x3dacbb35	0.084341444
89	0x3dce532d	0.10074458
90	0x3e36c552	0.17848709
91	0x3e1c3400	0.15254211
92	0x3d2d96cf	0.04238015
93	0x3dedbd2b	0.116083466
94	0x3d281916	0.04103955
95	0xbd0a1006	-0.033706687
96	0x3c580a48	0.013186045
97	0xbbd68e0c	-0.006547695
98	0x3e28c3ce	0.16480944
99	0x3dd4552c	0.10367808
100	0x3d6b8b16	0.05750569
101	0x3e273019	0.16326942
102	0x3c9d95b1	0.019236417
103	0x3dba0eb0	0.09084833
104	0x3d161622	0.0366422
105	0x3e227c86	0.15867814
106	0x3e2e548c	0.1702444
107	0x3cd17c1c	0.025571875
108	0x3dc09ffc	0.094055146
109	0x3da465f1	0.08027256
110	0xbcdbfee4	-0.02685494
111	0x3da5449a	0.08069725
112	0x3dc52eab	0.09628042
113	0x3d96ec17	0.07369249
114	0xbd253f48	-0.040343553
115	0x3c682c9d	0.014170793
116	0x3d97cbbf	0.07411908
117	0x3d81e7bc	0.06343028
118	0x3e250610	0.16115594
119	0xbd2731f8	-0.04081914
120	0x3e1eb183	0.15497403
121	0x3d5dbf2a	0.054137386
122	0x3dfd3813	0.12364211
123	0x3d486170	0.04892105
124	0xbf54d816	-0.8314222
125	0x3d95d7af	0.07316529
126	0x3df1282b	0.117752396
127	0x3decb673	0.11558237
