models/LSTM1/res1/lstm1-7.pt (torch, 4623 bytes, 7 tensors)

lstm.weight_ih_l0 f4 [8, 4]
0.12514932 -0.17767212 -1.4811444 -0.2028417 -4.978227 -0.69642615 -1.8614998 6.3979297
0.050667584 -0.6218626 -0.11987388 -0.45039892 0.40946883 0.50447077 0.13356209 -0.11964941
1.4582686 -0.91083544 -0.89323825 -0.62122774 0.05860792 1.1223779 1.8865138 1.2449588
-0.09216226 0.006620673 0.06321459 1.0189767 -0.6086387 0.27973264 -1.3376046 0.5229986
00000000: 2527 003e aeef 35be 2496 bdbf bcb5 4fbe
00000010: a34d 9fc0 fc48 32bf a045 eebf d7bb cc40
00000020: d088 4f3d 6332 1fbf 7080 f5bd b09a e6be
00000030: e6a5 d13e ff24 013f 80c4 083e c00a f5bd
00000040: 8ca8 ba3f 832c 69bf 43ab 64bf c808 1fbf
00000050: dc0e 703d 14aa 8f3f 4979 f13f cf5a 9f3f
00000060: 91bf bcbd 3bf2 d83b a776 813d d46d 823f
00000070: bfcf 1bbf 1e39 8f3e a136 abbf 3ce3 053f

lstm.weight_hh_l0 f4 [8, 2]
-0.23522282 0.27621377 -0.38696918 -0.049821854 -0.40895423 -0.01616484 0.07887697 0.006267309
-0.2482869 -0.21397465 0.15133595 -0.3662883 -0.5718088 -0.021232247 0.18679482 0.28367305
00000000: 40de 70be e46b 8d3e d320 c6be 0012 4cbd
00000010: 7362 d1be 206c 84bc 408a a13d 005e cd3b
00000020: ec3e 7ebe 2c1c 5bbe d0f7 1a3e 248a bbbe
00000030: 1062 12bf 40ef adbc 2447 3f3e 983d 913e

lstm.bias_ih_l0 f4 [8]
-1.3706819 0.8214943 -0.09658307 -0.36891767 2.5866356 -0.21641241 1.0084441 -1.11237
00000000: 8172 afbf 734d 523f 58cd c5bd c7e2 bcbe
00000010: 708b 2540 379b 5dbe b214 813f 2462 8ebf

lstm.bias_hh_l0 f4 [8]
-0.28889593 1.2797391 -0.32326135 -0.5668065 3.1296632 -0.17240252 1.3547843 -0.83178276
00000000: 2bea 93be 7ece a33f 8382 a5be 3b1a 11bf
00000010: 674c 4840 498a 30be 9269 ad3f b7ef 54bf

fc_1.weight f4 [128, 2]
-1.4280921 -0.97292954 -2.4890015 -1.1285084 -0.49260333 -0.031126738 -1.175608 -1.0107489
0.064106464 0.5652799 0.118385345 -0.60647684 0.27685407 0.18335816 -2.141167 -0.657336
0.14630476 0.09542391 -0.8581782 0.10883785 -0.43343404 -0.16709876 -0.21894857 -0.076781094
-0.28770837 -0.31648725 -0.25340208 -1.018895 -0.5690772 0.2031036 0.06981259 -0.13797292
-1.1066111 -0.942565 -0.3174531 0.20614064 -1.1218601 -0.7930469 -0.59772915 -0.40737548
-0.11884123 0.64785284 -0.96800715 -0.37582332 0.3380627 0.28273928 -0.51109743 -0.4682375
0.45018393 -0.26811817 0.13978666 0.4597817 0.16232866 0.223786 -0.17122112 0.19038798
-0.08124637 -0.56138194 0.101021506 -0.9853575 -1.2232715 -0.6457521 -0.9056913 -0.3135641
-3.8658774 -0.3936238 0.36373812 0.070411086 -1.0408847 -0.28867608 -1.3233954 -0.8401109
-1.0205104 -0.29696998 0.2865765 -0.6512202 -1.7735695 -1.1753571 -0.104513586 0.1459465
-0.21676326 -0.63729084 0.4213707 -0.4554374 -4.361968 -1.2476333 -1.5083978 -0.58443636
-0.15354438 -1.265791 -0.08327983 -0.5069582 -3.6131406 -2.5991201 -0.5446493 0.2107817
-0.8217305 -1.0175614 0.38629872 -0.30806842 -1.7463621 -0.5972118 -0.5124751 -0.21795486
-0.78737 0.096071355 -0.048659395 -0.26237223 -0.15491581 0.02073729 -0.025409222 -0.12719566
0.5415544 -0.15519947 -1.1323242 -0.9329576 0.13532853 -0.32289332 -1.2816483 -0.8221242
0.248128 -0.13745004 -0.08814926 -0.9961398 0.6759656 0.17348039 -0.11059772 -0.6537339
-0.053107798 -0.10169017 -0.23974222 0.18742436 -0.93359816 -1.2626139 -1.5095137 -1.099977
-0.14875698 -0.3576171 0.03920442 -0.47651404 0.035143614 -0.67399263 -0.5377499 -0.8872312
-1.1783508 -0.25344497 -0.25655866 -0.36246368 -2.3161287 -1.1398453 -2.3272398 -1.8960627
-0.15901601 -0.2774114 0.12536411 0.027052686 -1.9746022 -2.139642 0.21937293 -0.24270043
-0.34153226 0.10783279 -3.6761172 -3.6165257 -0.52302444 0.09545947 0.6246779 -0.49388966
0.060172148 -0.7711509 -1.0933899 -0.5989826 -2.7188382 -1.9737586 -1.1186104 -0.3686305
-0.5271042 0.32522786 0.26472205 -0.30693072 -1.3525019 -1.2631027 0.27946377 -0.4425536
-6.129294 -3.4873545 -0.26292014 -0.2454929 -1.3894552 -0.83489966 -0.024179399 -0.4928655
-0.40794486 -0.7985042 -0.2779142 -0.5567409 -1.09796 -0.4196354 -0.47055545 -0.36151624
-0.58324325 0.56373495 0.37747008 0.1754061 -0.43404943 -1.0383766 -2.2070794 -1.6078624
-1.4409211 1.5868932 -0.8132014 0.060242627 -0.4067788 -1.1217014 -0.4059162 -0.4316728
-0.61120385 -0.33987272 -0.69824123 -0.46077666 -1.0525489 -0.040263675 -1.071254 0.28035054
-0.23779127 -1.2842396 0.66689426 -0.15560997 -0.19448748 -0.78591007 -0.92640567 -0.61329406
-0.17365867 -0.77193457 -0.6946539 -0.11763672 0.52061635 -0.62707007 0.0048732758 -0.4354728
-0.4779621 -0.0703606 -0.270408 -0.34419876 -0.17434543 0.37262756 -0.51391685 -0.29739213
-0.09529734 0.3150887 0.6948773 0.40730757 0.44038898 0.0074121356 -1.4333894 -0.38760057
00000000: b9cb b6bf e911 79bf cd4b 1fc0 f772 90bf
00000010: 8136 fcbe 80fd febc 537a 96bf 3860 81bf
00000020: 404a 833d 2fb6 103f 0474 f23d 1142 1bbf
00000030: d1bf 8d3e 3ec2 3b3e e108 09c0 2c47 28bf
00000040: ead0 153e 9c6d c33d 91b1 5bbf 61e6 de3d
00000050: 11eb ddbe f01b 2bbe 0e34 60be 683f 9dbd
00000060: 834e 93be 9e0a a2be ebbd 81be 276b 82bf
00000070: 0baf 11bf 64fa 4f3e e7f9 8e3d c648 0dbe
00000080: 6fa5 8dbf f14b 71bf 3689 a2be 8816 533e
00000090: 1d99 8fbf 1f05 4bbf c704 19bf 8593 d0be
000000a0: 0863 f3bd afd9 253f 51cf 77bf ea6b c0be
000000b0: 8e16 ad3e 34c3 903e 48d7 02bf d3bc efbe
000000c0: 827e e63e c946 89be 3c24 0f3e 8268 eb3e
000000d0: 7c39 263e 2828 653e 9754 2fbe 11f5 423e
000000e0: 7f64 a6bd bab6 0fbf 5de4 ce3d 6440 7cbf
000000f0: 2994 9cbf 0250 25bf 63db 67bf 798b a0be
00000100: 896a 77c0 0f89 c9be e23b ba3e b033 903d
00000110: b63b 85bf 5acd 93be 0565 a9bf 8211 57bf
00000120: 16a0 82bf 730c 98be 28ba 923e 5eb6 26bf
00000130: 5304 e3bf 1a72 96bf 380b d6bd 0073 153e
00000140: 30f7 5dbe 7e25 23bf e6bd d73e 172f e9be
00000150: 3e95 8bc0 73b2 9fbf 2e13 c1bf 9f9d 15bf
00000160: bd3a 1dbe 7105 a2bf 9e8e aabd 03c8 01bf
00000170: b23d 67c0 fc57 26c0 236e 0bbf 28d7 573e
00000180: ee5c 52bf 743f 82bf f2c8 c53e 25bb 9dbe
00000190: cb88 dfbf dfe2 18bf 9131 03bf 8f2f 5fbe
000001a0: 1591 49bf 0fc1 c43d 134f 47bd a755 86be
000001b0: 40a2 1ebe 40e1 a93c 0027 d0bc 943f 02be
000001c0: 4fa3 0a3f 9cec 1ebe 00f0 90bf 4fd6 6ebf
000001d0: 9093 0a3e 4652 a5be 0d0d a4bf bb76 52bf
000001e0: 4415 7e3e b4bf 0cbe 9987 b4bd 0503 7fbf
000001f0: 150c 2d3f d8a4 313e 0f81 e2bd 1b5b 27bf
00000200: 9087 59bd f042 d0bd fc7e 75be 2cec 3f3e
00000210: 4a00 6fbf 559d a1bf bf37 c1bf 0ccc 8cbf
00000220: c053 18be 9719 b7be d094 203d a6f9 f3be
00000230: c0f2 0f3d c88a 2cbf faa9 09bf 9521 63bf
00000240: 33d4 96bf 8ac3 81be a85b 83be d794 b9be
00000250: 743b 14c0 73e6 91bf 7ff1 14c0 2fb2 f2bf
00000260: 18d5 22be de08 8ebe 735f 003e 989d dd3c
00000270: c4bf fcbf e5ef 08c0 4ca3 603e 7686 78be
00000280: 51dd aebe 70d7 dc3d 8145 6bc0 2875 67c0
00000290: eee4 05bf 4180 c33d e4ea 1f3f 1bdf fcbe
000002a0: 1277 763d 256a 45bf 33f4 8bbf ec56 19bf
000002b0: 7201 2ec0 1fa4 fcbf a02e 8fbf 23bd bcbe
000002c0: 4df0 06bf 4484 a63e a689 873e 0626 9dbe
000002d0: c81e adbf 59ad a1bf e015 8f3e 6396 e2be
000002e0: 2d23 c4c0 d130 5fc0 789d 86be 7e62 7bbe
000002f0: abd9 b1bf fcbb 55bf e013 c6bc de58 fcbe
00000300: 26de d0be c56a 4cbf c54a 8ebe 9286 0ebf
00000310: f489 8cbf 73da d6be a5ec f0be a818 b9be
00000320: 6e4f 15bf ef50 103f c243 c13e a89d 333e
00000330: ba3b debe 86e9 84bf ca40 0dc0 6fce cdbf
00000340: 1a70 b8bf 511f cb3f f82d 50bf f9c0 763d
00000350: 5045 d0be e993 8fbf 40d4 cfbe 3804 ddbe
00000360: db77 1cbf cc03 aebe f0bf 32bf ebea ebbe
00000370: ecb9 86bf 86eb 24bd da1e 89bf 1b8a 8f3e
00000380: 8e7f 73be f761 a4bf 95b9 2a3f 3858 1fbe
00000390: ba27 47be 6731 49bf ec28 6dbf d700 1dbf
000003a0: 94d3 31be 819d 45bf d7d4 31bf 85eb f0bd
000003b0: 1d47 053f aa87 20bf 00b0 9f3b 4af6 debe
000003c0: 73b7 f4be 3819 90bd eb72 8abe d23a b0be
000003d0: 9c87 32be 0ac9 be3e 0e90 03bf c843 98be
000003e0: 402b c3bd 4e53 a13e 7be3 313f 9e8a d03e
000003f0: aa7a e13e 80e1 f23b 4e79 b7bf 9573 c6be

fc_1.bias f4 [128]
-0.19198607 -1.7366842 -0.24306712 -0.4358478 -0.6460371 -0.7174318 -0.80025315 1.2023897
-0.5613475 -0.09913836 -0.6025158 -0.09179795 -0.57594335 -0.053737726 -0.6931646 -0.7497848
-0.3537399 -0.5639093 -0.67188424 -0.053473055 -0.47016847 -0.63327205 -0.43545425 -0.42034307
-0.37806126 -0.5515769 -0.32441634 -0.09404376 -0.1512952 -0.14585409 -0.5408148 -0.25174817
-0.5094154 -0.47052404 -0.7810323 -0.37303966 -0.74507797 -0.24101803 -0.49508113 -0.11224669
-0.63440526 -0.45232072 -0.4780857 -0.29757038 -0.09336513 -0.19125809 -0.88805705 -0.63783133
-0.5410345 -0.3170773 -1.3087436 -0.24313144 -0.7272023 -0.8560157 -0.091950655 -0.04384601
-0.6544974 -0.8361466 -0.5711818 -0.3999641 -0.37881586 -0.6339687 -0.66871107 -0.3104454
-0.22815421 -0.124337435 -0.5526317 -0.877503 -0.3238966 -0.11613065 -0.19515347 -0.56420743
-0.614487 -0.042513587 -1.665163 -3.0118632 -0.42818558 -0.66278094 -0.69608676 -0.50634074
-0.5462623 0.14923938 -0.93190765 -2.0523193 -0.8928296 -0.5472029 -0.8185575 -0.3946093
-0.65429956 -0.5536984 -0.22985657 -0.21227966 0.57485884 -0.4885922 -0.68071896 -0.41954085
-0.4507692 -0.48790035 -0.25856465 -0.14863999 -0.4333168 -0.5182779 -0.40948364 -0.7686187
-0.6663544 -0.9515213 -0.5617349 -0.4752626 -0.032334477 -0.70626974 -0.23705187 -0.5781242
-0.5365849 -0.63137656 -0.00241789 -0.37251875 -0.56227845 -0.07243444 -0.6226375 -0.6962317
-0.557583 -0.07853408 -0.3513476 -1.0596808 -0.42897904 -0.6854671 -0.4085181 -0.39613736
00000000: ff97 44be ab4b debf 96e6 78be 7127 dfbe
00000010: b062 25bf 9ca9 37bf 64dd 4cbf e8e7 993f
00000020: 78b4 0fbf 0d09 cbbd 7a3e 1abf 9000 bcbd
00000030: 0671 13bf 171c 5cbd 3c73 31bf e6f1 3fbf
00000040: 651d b5be 5c5c 10bf 9b00 2cbf 9006 5bbd
00000050: ecb9 f0be 1e1e 22bf dcf3 debe 3537 d7be
00000060: 3f91 c1be 2534 0dbf e619 a6be 049a c0bd
00000070: 21ed 1abe c65a 15be d772 0abf 23e5 80be
00000080: 0c69 02bf 87e8 f0be bcf1 47bf 0eff bebe
00000090: 6ebd 3ebf 6ecd 76be 467b fdbe 98e1 e5bd
000000a0: 6268 22bf 9596 e7be a6c7 f4be 255b 98be
000000b0: 3836 bfbd 29d9 43be b557 63bf ea48 23bf
000000c0: 3d81 0abf f557 a2be e984 a7bf 73f7 78be
000000d0: ee29 3abf d823 5bbf a050 bcbd e097 33bd
000000e0: 248d 27bf b40d 56bf f838 12bf 18c8 ccbe
000000f0: 27f4 c1be c64b 22bf a630 2bbf b3f2 9ebe
00000100: 42a1 69be a0a4 febd 4579 0dbf 09a4 60bf
00000110: c6d5 a5be e8d5 edbd 50d6 47be e66f 10bf
00000120: 054f 1dbf ba22 2ebd 1024 d5bf 5ec2 40c0
00000130: 243b dbbe 03ac 29bf be32 32bf 8c9f 01bf
00000140: d9d7 0bbf 35d2 183e 8091 6ebf 3359 03c0
00000150: 7b90 64bf 7d15 0cbf fc8c 51bf 3b0a cabe
00000160: 2d80 27bf 2ebf 0dbf 855f 6bbe d75f 59be
00000170: f329 133f c228 fabe 9943 2ebf 0fce d6be
00000180: 38cb e6be 13ce f9be 9662 84be 1535 18be
00000190: b3db ddbe dcad 04bf d7a7 d1be 32c4 44bf
000001a0: 3496 2abf e696 73bf dccd 0fbf 9f55 f3be
000001b0: 2871 04bd 18ce 34bf babd 72be f3ff 13bf
000001c0: a15d 09bf e5a1 21bf 7675 1ebb c7ba bebe
000001d0: 7bf1 0fbf 8258 94bd 2c65 1fbf 3e3c 32bf
000001e0: c2bd 0ebf 7ad6 a0bd d5e3 b3be 9fa3 87bf
000001f0: 24a3 dbbe c67a 2fbf 4929 d1be 84d2 cabe

fc.weight f4 [1, 128]
0.11090254 0.99000955 0.0077013895 0.15520483 0.028199352 -0.4237219 -0.38836625 0.82677007
-0.33426914 -0.033402756 -0.077047884 -0.08264878 0.01958897 -0.0036630228 -0.34053108 0.52069867
0.5837446 -0.25140658 0.14987144 -0.037147757 -0.040377628 0.31496394 -0.06420497 -0.003965661
-0.013727501 -0.021695703 0.019315265 -0.053539734 -0.09781075 0.00020629882 0.36100322 -0.12455812
-0.2382625 -0.044158928 0.55744565 -0.24522074 0.450934 -0.0741338 -0.44380227 -0.05743529
0.08575038 -0.010903686 -0.2740521 0.39265567 0.0014905009 -0.11440088 0.7581963 -0.017995209
0.533021 0.08776618 0.8595368 -0.28596175 0.5877266 0.48244274 -0.0754012 -0.0073645636
-0.014311291 -0.11884228 -0.04945728 0.031391464 0.011373341 0.57377577 -0.0007965788 -0.09777087
-0.044249143 0.011751413 0.3625315 0.31279272 -0.08778659 0.06362296 0.007949874 0.5318849
0.3280288 -0.059931315 0.9002426 2.4735186 0.024795234 -0.39202946 -0.14439651 0.0464269
-0.048842948 1.2591251 0.5711935 -0.20400226 -0.26208696 0.58584774 0.6865479 0.2971934
-0.32211864 0.0056648403 0.1055889 -0.18509522 0.57902527 -0.061837222 0.12018391 0.019484572
0.55020165 -0.059930034 0.014603765 -0.1651952 0.035177216 0.0058491677 0.5598293 0.5108576
-0.14430363 0.524953 0.59840304 -0.010180078 -0.0441569 0.014599465 -0.22212754 -0.28948542
0.42801002 -0.042381078 0.042507812 0.5626718 0.5654516 -0.069052555 0.080393694 -0.00477311
0.015297368 -0.155097 0.01722072 -0.29311424 -0.00037682801 -0.028751485 -0.06768471 0.42825115
00000000: df20 e33d 4471 7d3f f05b fc3b 04ee 1e3e
00000010: 5402 e73c 14f2 d8be f1d7 c6be 34a7 533f
00000020: 5325 abbe 54d1 08bd 48cb 9dbd c343 a9bd
00000030: 0c79 a03c 530f 70bb 175a aebe 824c 053f
00000040: 4970 153f 5db8 80be e677 193e 3f28 18bd
00000050: 0363 25bd f442 a13e e57d 83bd 60f2 81bb
00000060: 50e9 60bc 30bb b1bc 0c3b 9e3c 7b4c 5bbd
00000070: 0151 c8bd eb51 5839 6ad5 b83e 5418 ffbd
00000080: 16fb 73be fedf 34bd c2b4 0e3f 251b 7bbe
00000090: d2e0 e63e 76d3 97bd 0d3a e3be 4441 6bbd
000000a0: e59d af3d 60a5 32bc 8f50 8cbe 2a0a c93e
000000b0: e95c c33a 024b eabd 2719 423f b06a 93bc
000000c0: 1074 083f c1be b33d 9b0a 5c3f 9469 92be
000000d0: 4075 163f bc02 f73e f26b 9abd 7052 f1bb
000000e0: e879 6abc 9563 f3bd b893 4abd 5694 003d
000000f0: 4057 3a3c f8e2 123f 80d1 50ba 183c c8bd
00000100: 973e 35bd 0089 403c bb9d b93e 5e26 a03e
00000110: 75c9 b3bd c14c 823d 3040 023c 9c29 083f
00000120: 64f3 a73e 8a7a 75bd 4d76 663f 214e 1e40
00000130: 601f cb3c 16b8 c8be aedc 13be 222a 3e3d
00000140: 8b0f 48bd 032b a13f bd39 123f f8e5 50be
00000150: 4330 86be 1efa 153f 9ac1 2f3f bc29 983e
00000160: bcec a4be 20a0 b93b fe3e d83d 9a89 3dbe
00000170: 003b 143f 0749 7dbd fb22 f63d 1c9e 9f3c
00000180: 04da 0c3f 3279 75bd a144 6f3c ee28 29be
00000190: fc15 103d 60aa bf3b f950 0f3f 90c7 023f
000001a0: 55c4 13be 5263 063f f130 193f 58ca 26bc
000001b0: dedd 34bd 9832 6f3c 6775 63be 6f37 94be
000001c0: 2124 db3e c897 2dbd ac1c 2e3d 420b 103f
000001d0: 70c1 103f 6d6b 8dbd 73a5 a43d c067 9cbb
000001e0: d0a1 7a3c bfd1 1ebe 7812 8d3c 1213 96be
000001f0: 0091 c5b9 3c88 ebbc 489e 8abd bc43 db3e
