models/LSTM1/res1/lstm1-6.pt (torch, 4687 bytes, 7 tensors)

lstm.weight_ih_l0 f4 [8, 5]
0	0xbf617202	-0.8806459
1	0xbf13b1bd	-0.5769308
2	0x3dd73ddc	0.105098456
3	0x3d5fa807	0.054603603
4	0xbf7e0a1e	-0.9923419
5	0xbf07f6e1	-0.5311108
6	0x3d9aeaa7	0.07564288
7	0xbd4eec93	-0.050518584
8	0xbe7bc00f	-0.24584983
9	0xbecce244	-0.40016377
10	0xbde3ab28	-0.1111663
11	0xbf1dc84f	-0.6163377
12	0x3f22e2cd	0.6362732
13	0x3e0156f0	0.1263082
14	0x3eeed606	0.46647662
15	0x3e8156ae	0.25261444
16	0x3ccb5380	0.02482009
17	0x3cdadc80	0.02671647
18	0x3eb90e82	0.3614388
19	0xbf079e7c	-0.529762
20	0xbeced818	-0.4039924
21	0xbf13a41f	-0.57672304
22	0xbd07654f	-0.0330556
23	0x3de4a4fd	0.111642815
24	0xc01843b0	-2.3791313
25	0x3efda385	0.49538818
26	0xbe6ea567	-0.23305283
27	0xbd966fb4	-0.073455244
28	0x3f00fd89	0.50386864
29	0xbfc81371	-1.5630933
30	0xbef11190	-0.47083712
31	0xbdc7200e	-0.09722911
32	0xbdb4f3d1	-0.08835567
33	0x3ecf48e2	0.40485293
34	0xbf22e800	-0.63635254
35	0x3f9069fb	1.1282343
36	0x3e1b8310	0.15186715
37	0x3df8a0bf	0.12140035
38	0xbe55b39d	-0.20869298
39	0xbf408639	-0.7520481

lstm.weight_hh_l0 f4 [8, 2]
0	0x3f1c61d1	0.61086756
1	0x3dd14298	0.1021778
2	0xbde344e8	-0.11097127
3	0xbec7887d	-0.3897132
4	0xbeb459cf	-0.3522477
5	0x3f225dd7	0.6342444
6	0x3e1b03d8	0.15138185
7	0x3f0d1703	0.5511324
8	0x3e32a608	0.17446148
9	0x3ef74602	0.482956
10	0xbd492000	-0.049102783
11	0xbe013e18	-0.12621343
12	0xbe62aed0	-0.22136998
13	0xbddfc7c0	-0.10926771
14	0x3f083a47	0.53213924
15	0xbf1f9290	-0.6233301

lstm.bias_ih_l0 f4 [8]
0	0xbf3fe14f	-0.7495317
1	0xbf1b2007	-0.60595745
2	0xbef9fca8	-0.48825574
3	0xbd71c410	-0.05902487
4	0x3f25325e	0.6452998
5	0x3fbe8de7	1.4887055
6	0xbf7a5fac	-0.97802234
7	0xbe40d956	-0.18832907

lstm.bias_hh_l0 f4 [8]
0	0x3e1b2d19	0.15153922
1	0xbedc8bd9	-0.43075445
2	0xbefd07ad	-0.4941992
3	0xbe840c93	-0.25790843
4	0xbd6056c1	-0.054770235
5	0x3fac04c7	1.3438958
6	0xbf6da732	-0.92833245
7	0xbdba2200	-0.09088516

fc_1.weight f4 [128, 2]
0	0x3e92f30a	0.2870105
1	0x3e7c0ac8	0.24613488
2	0x3e6d41e1	0.23169662
3	0xbf00349f	-0.50080293
4	0x3d8c688f	0.068558805
5	0xbf0ab8fe	-0.54188526
6	0xbede42b5	-0.43410268
7	0xbec23cb8	-0.3793695
8	0xbeb0cf5a	-0.34533197
9	0xbf34810a	-0.705094
10	0xbfb13bfb	-1.384643
11	0xbfe824ad	-1.8136193
12	0xbf74ecc2	-0.95673764
13	0xbf8e5666	-1.1120117
14	0xbf368a2b	-0.7130458
15	0xbd00ed3d	-0.031476248
16	0x3e38b1c4	0.18036562
17	0xbd9a4ca1	-0.07534147
18	0xbf2d5f02	-0.67723095
19	0xbf1bcb90	-0.60857487
20	0x3e3cbf60	0.18432379
21	0xbf3dfd2c	-0.74214435
22	0xbee78cd1	-0.45224622
23	0x3d8d6e40	0.06905794
24	0xbc9ba820	-0.019001067
25	0xbe053d38	-0.13011634
26	0xbf7f2d11	-0.9967814
27	0xbefb89b3	-0.49128494
28	0xbd124610	-0.035711348
29	0xbe4ee87c	-0.20205873
30	0xbf8fa27f	-1.1221465
31	0xbf5f3c0b	-0.87200993
32	0xbf6a9794	-0.9163754
33	0xbf7725ee	-0.9654225
34	0x3f17f86f	0.59363455
35	0xbed63e24	-0.41844285
36	0xbee81dbd	-0.45335189
37	0xbee17e32	-0.44041592
38	0xbf369a18	-0.7132888
39	0xbf995a26	-1.1980636
40	0x3e8d0a70	0.27547026
41	0x3e7ab578	0.24483287
42	0xbdeffad8	-0.117177665
43	0xbc37c740	-0.0112169385
44	0xbf0b7c36	-0.54486406
45	0xbf2721d1	-0.65285975
46	0xbf61c04c	-0.88184047
47	0x3cd4f557	0.025995893
48	0xbf1465ea	-0.5796801
49	0xbf3418cf	-0.70350355
50	0xbf26e3a7	-0.6519112
51	0xbf6cc21f	-0.92483705
52	0xbcbe55e0	-0.023234308
53	0xbdd722b3	-0.10504665
54	0xbeeedbda	-0.46652108
55	0x3eb56d22	0.35434824
56	0xbe819abe	-0.2531337
57	0xbf266c40	-0.65008926
58	0xbee4c425	-0.44680896
59	0xbf85e2a6	-1.0459793
60	0x3c81a766	0.015826892
61	0xbf58db0b	-0.84709233
62	0x3e88c93f	0.2671604
63	0xbe2f4bfd	-0.17118831
64	0xbf4e04e6	-0.80476224
65	0xbf3422fe	-0.70365894
66	0x3dd20d0e	0.10256396
67	0xbf195033	-0.59888
68	0xbf3cbb26	-0.73723066
69	0xbeeb6d66	-0.45981902
70	0x3df21190	0.11819756
71	0xbf2dea3d	-0.67935544
72	0x3edc5406	0.43032855
73	0xbf16db06	-0.58927953
74	0x3f009c03	0.50238055
75	0xbf33c740	-0.70225906
76	0xbf700539	-0.9375797
77	0xbe956ad3	-0.29183063
78	0xbe84b398	-0.2591827
79	0xbe4b85f5	-0.1987532
80	0x3e6e45c4	0.23268801
81	0xbc0efc80	-0.008727193
82	0x3d821c80	0.06353092
83	0x3eba25ca	0.36356956
84	0x3e7b0512	0.24513653
85	0xbf5e270c	-0.8677833
86	0xbed1b1e8	-0.40956044
87	0xbf16ecb6	-0.5895494
88	0xbea5150a	-0.32242614
89	0xbf385dba	-0.72018015
90	0x3f0ea59d	0.55721456
91	0x3e49cd50	0.19707227
92	0x3ed21090	0.4102826
93	0xbe71fb26	-0.23630962
94	0xbebe87f6	-0.37213105
95	0x3e263c30	0.16233897
96	0xbc1c1fc0	-0.009529054
97	0xbf20b558	-0.6277671
98	0xbf99e3c3	-1.2022632
99	0xbf1ca595	-0.6119016
100	0x3db64708	0.08900267
101	0xbeccec2f	-0.40023944
102	0xbf2a6147	-0.66554683
103	0x3e3938f2	0.18088129
104	0xbe8f77bb	-0.28021035
105	0xbf6b949c	-0.92023635
106	0xbf8b58ae	-1.0886438
107	0xbf5955d2	-0.84896576
108	0xbe0a00e4	-0.13476902
109	0xbf02fa14	-0.5116284
110	0xbf3d8412	-0.7402965
111	0xbe3f3987	-0.18674289
112	0xbe9e03f4	-0.3086239
113	0xbf157810	-0.58386326
114	0xbddcc833	-0.107803725
115	0xbe9c08b1	-0.3047538
116	0xbf1dbb2a	-0.61613715
117	0xbe97911e	-0.29602903
118	0xbf508156	-0.8144735
119	0xbf8590a5	-1.0434767
120	0xbea8557f	-0.32877728
121	0xbe220fa4	-0.15826279
122	0x3e545eea	0.20739332
123	0xbf0726fe	-0.5279387
124	0xbfba5aff	-1.455902
125	0xbf84aaa9	-1.0364581
126	0xbf8f9dfb	-1.1220087
127	0xbf8dafe1	-1.1069299
128	0xbe44b681	-0.19210245
129	0xbeae57f1	-0.3405147
130	0x3d6f2428	0.05838409
131	0x3e03a1c9	0.12854685
132	0xbe23eca0	-0.16008234
133	0xbed64ac5	-0.4185392
134	0x3dbf1168	0.09329492
135	0xbeb874cd	-0.36026612
136	0xbf0f9a25	-0.5609458
137	0xbea0c356	-0.3139903
138	0xbde99aa0	-0.114064455
139	0xbd848918	-0.06471461
140	0xbf1f7c76	-0.6229929
141	0xbe97194e	-0.29511493
142	0xbf04b833	-0.51843566
143	0xbee9bdda	-0.45652658
144	0xbee9d018	-0.45666575
145	0x3e9994d2	0.29996353
146	0xbe56b714	-0.20968276
147	0xbf0c5f7e	-0.5483321
148	0xbf92633e	-1.1436536
149	0xbfc7d7aa	-1.561269
150	0xbf4bc5fc	-0.79598975
151	0x3e4879bb	0.19577686
152	0xbf2814d9	-0.6565681
153	0xbfa728b3	-1.3059295
154	0x3eee615a	0.46558648
155	0xbd84cf80	-0.0648489
156	0x3e104d9d	0.14092107
157	0x3e82b991	0.255322
158	0xbeddb315	-0.4330069
159	0x3dd83f48	0.10558945
160	0xbeab1444	-0.334139
161	0xbf5d718c	-0.86501384
162	0x3ece3116	0.40271825
163	0xbf0e4d75	-0.5558694
164	0xbf773357	-0.96562713
165	0xbf20aac4	-0.6276057
166	0xbebb702f	-0.36609027
167	0xbedd201c	-0.4318856
168	0xbd38a36e	-0.045077734
169	0xbef96b76	-0.487148
170	0xbea9a555	-0.3313395
171	0x3d2756e3	0.040854346
172	0xbfbce02e	-1.4755914
173	0xbfc0905d	-1.5044056
174	0xbddcdeba	-0.10784669
175	0xbe758a99	-0.23978652
176	0x3ce465d8	0.027880594
177	0x3e4ae8be	0.19815347
178	0xbf861f5d	-1.0478321
179	0xbe8e96c0	-0.27849388
180	0x3f2b4d3f	0.66914743
181	0x3d4e7550	0.050404847
182	0xbf4a3036	-0.78979814
183	0xbf8e8c0d	-1.113649
184	0x3e97c8e2	0.2964545
185	0x3e7a412c	0.24438924
186	0xbf27a451	-0.654851
187	0x3e608f27	0.21929608
188	0xbd545fb0	-0.051849067
189	0x3e65b718	0.22433126
190	0xbdeedcfb	-0.116632424
191	0x3db20e80	0.08694172
192	0xbe1b5606	-0.15169534
193	0xbe081b8d	-0.1329176
194	0xbf00445f	-0.50104326
195	0x3e13fd70	0.14452147
196	0x3ece5d22	0.4030543
197	0x3efcae2a	0.49351627
198	0xbf1e57fc	-0.61853004
199	0xbf9ce372	-1.2256911
200	0xbe92e23a	-0.28688222
201	0xbecc8f82	-0.39953238
202	0xbeb76ada	-0.3582371
203	0xbf9c1bb0	-1.219595
204	0x3f00b0f7	0.50270027
205	0x3e6bd193	0.23029165
206	0xbf168f96	-0.58812845
207	0xbeace1ea	-0.3376611
208	0x3e856826	0.2605602
209	0xbeb3b47d	-0.3509864
210	0x3eac944a	0.33706886
211	0x3e983d3e	0.29734224
212	0x3e86bff4	0.26318324
213	0xbf32ea72	-0.69888985
214	0x3dd3e1a0	0.10345769
215	0x3e53e3dc	0.2069239
216	0xbfa3fbbc	-1.2811198
217	0xbfa5caf5	-1.2952563
218	0xbedddd71	-0.4333301
219	0xbfa658b5	-1.2995821
220	0xbf0360ea	-0.51319754
221	0x3d52a1ff	0.051424023
222	0xbf4ba517	-0.7954878
223	0xbe380110	-0.17969155
224	0xbf29551f	-0.6614551
225	0xbec40717	-0.3828666
226	0xbef3504c	-0.475222
227	0xbe182b9c	-0.14860386
228	0xbe0b3187	-0.13593112
229	0xbf3f6203	-0.7475893
230	0x3e3041df	0.17212628
231	0xbeb1e013	-0.34741268
232	0xbe44d605	-0.19222267
233	0xbf27a547	-0.6548657
234	0xbf40df90	-0.7534113
235	0x3e5c3d8b	0.21507852
236	0x3d328223	0.04358114
237	0xbebb0fd3	-0.3653551
238	0xbdaf7398	-0.0856697
239	0xbdf81d15	-0.12114922
240	0xbf2fac16	-0.6862196
241	0xbe766ed4	-0.24065715
242	0x3eda4b4e	0.42635578
243	0xbef26085	-0.47339264
244	0xbf21c636	-0.6319307
245	0xbf19a61e	-0.600191
246	0xbf149ff9	-0.580566
247	0x3e719e46	0.23595533
248	0xbf0e1558	-0.5550132
249	0xbe5f4521	-0.21803714
250	0xbf96aaa8	-1.177083
251	0xbf693468	-0.9109559
252	0xbf1d6d2d	-0.61494714
253	0xbf270385	-0.65239745
254	0xbe989c0f	-0.29806563
255	0x3f208505	0.6270297

fc_1.bias f4 [128]
0	0xbee93ce7	-0.45554277
1	0x3f13c8f9	0.57728535
2	0xbf2fddb4	-0.6869767
3	0xbf063a24	-0.52432466
4	0xbe75375e	-0.23946902
5	0x3e6301f4	0.22168714
6	0xbee24a54	-0.44197333
7	0xbca1463f	-0.019686816
8	0xbf198c75	-0.59979945
9	0xbf34d155	-0.70631915
10	0x3ea44acc	0.32088315
11	0xbf2f94bc	-0.68586326
12	0xbe4845dc	-0.19557899
13	0xbf28d592	-0.6595088
14	0xbf1b0eb8	-0.60569334
15	0xbf04233a	-0.5161625
16	0x3f1fd0a2	0.62427723
17	0xbf0de940	-0.55434036
18	0xbec13c87	-0.3774149
19	0x3e668648	0.22512162
20	0xbf1dc2ec	-0.6162555
21	0xbe15a054	-0.14611942
22	0xbf2b7c6b	-0.6698672
23	0xbe7a6a3a	-0.24454585
24	0xbec01d77	-0.3752248
25	0x3de73651	0.11289657
26	0xbf4388a0	-0.7638035
27	0xbecc8101	-0.39942172
28	0xbee031b4	-0.4378792
29	0xbe3a5f77	-0.1820048
30	0xbed85b7c	-0.42257297
31	0x3f064b8d	0.5245903
32	0xbcf90f37	-0.030402763
33	0xbf4a887d	-0.79114515
34	0x3eb45391	0.35220006
35	0xbf25e494	-0.6480191
36	0xbf030c58	-0.5119071
37	0x3f258d50	0.6466875
38	0xbf101c50	-0.562932
39	0xbf224804	-0.6339114
40	0xbea4a4cd	-0.32156983
41	0xbe97b7eb	-0.29632506
42	0xbf3f0678	-0.74619246
43	0x3ecd871b	0.4014214
44	0xbf12ca54	-0.5733998
45	0xbf133ba7	-0.575129
46	0x3e389ab7	0.18027769
47	0xbf0c0375	-0.54692775
48	0xbda14588	-0.0787459
49	0xbf061214	-0.52371335
50	0xbeeeadea	-0.4661706
51	0x3e9cfa8d	0.30659905
52	0xbf228752	-0.6348773
53	0xbf1416c2	-0.57847226
54	0xbf213dc6	-0.62984884
55	0xbf3c7ac1	-0.7362481
56	0xbe0c0980	-0.13675499
57	0xbf5fa7f0	-0.8736563
58	0x3ea3a057	0.31958267
59	0xbeb53428	-0.35391355
60	0x3f141e4b	0.57858723
61	0xbef30181	-0.47462085
62	0x3e308633	0.17238693
63	0xbf0eb1b2	-0.5573989
64	0x3f21c621	0.63192946
65	0xbfb7e1ac	-1.4365745
66	0xbd294450	-0.041324914
67	0xbf28b6fa	-0.659042
68	0xbec74ad0	-0.38924265
69	0xbf048c8a	-0.51776946
70	0xbf05abe8	-0.52215433
71	0xbeb725ff	-0.35771176
72	0x3efa767a	0.48918515
73	0xbe7d68fa	-0.24747077
74	0xbf27abb9	-0.654964
75	0xbd9da984	-0.07698348
76	0xbf091532	-0.53547966
77	0xbeca0172	-0.39454228
78	0xbd1a426c	-0.037661
79	0x3f017e24	0.505831
80	0x3f2493af	0.6428785
81	0xbf2d27c1	-0.67638785
82	0x3dd7ca54	0.10536638
83	0xbf2e8ca3	-0.68183345
84	0xbf16b8ff	-0.5887603
85	0xbfd7cdce	-1.6859682
86	0x3e3df5e0	0.18550825
87	0xbd668736	-0.05628129
88	0x3ecaaa40	0.39583015
89	0xbe8c5531	-0.27408746
90	0xbf2e48bf	-0.6807975
91	0x3f35a131	0.70949084
92	0xbec72bd8	-0.38900638
93	0x3e97b976	0.29633683
94	0xbf073361	-0.52812773
95	0xbd542525	-0.051793236
96	0xbf6db031	-0.9284697
97	0xbe2139a0	-0.15744638
98	0xbf159958	-0.5843711
99	0x3dfb556d	0.12272153
100	0xbf199e50	-0.6000719
101	0x3dce3fa1	0.1007073
102	0x3f344e62	0.704321
103	0xbf262959	-0.6490684
104	0xbf1401dd	-0.57815343
105	0xbf0f9962	-0.5609342
106	0xbed71e13	-0.42015132
107	0xbf2f9101	-0.68580633
108	0x3e238e35	0.15972216
109	0xbf23feca	-0.6406065
110	0xbe5e3bfe	-0.21702573
111	0x3ee4ad89	0.44663647
112	0xbda7e458	-0.0819785
113	0xbec57e50	-0.3857293
114	0xbf492907	-0.7857823
115	0x3e7c63e7	0.24647485
116	0xbf102abf	-0.56315225
117	0xbe21ac0b	-0.15788285
118	0xbf1255ab	-0.5716197
119	0x3f174b9a	0.59099734
120	0xbf0f0d5d	-0.55879766
121	0xbf215cb8	-0.630321
122	0xbcd9b7c0	-0.026576877
123	0xbf19a396	-0.6001524
124	0x3e8462b6	0.2585656
125	0x3e1b26eb	0.15151565
126	0xbf394ca1	-0.7238255
127	0xbef81397	-0.48452446

fc.weight f4 [1, 128]
0	0x3b9a01b0	0.004699908
1	0x3e933bd2	0.28756577
2	0x3f10a9aa	0.56508887
3	0x3d3c14da	0.045918323
4	0xbc8daf00	-0.01729536
5	0x3ead276c	0.3381914
6	0x3f0416b0	0.5159712
7	0x3cebc471	0.028780194
8	0x3e8b8979	0.2725332
9	0x3cc73574	0.02431748
10	0x3e65175c	0.22372192
11	0xbc9ebf90	-0.019378453
12	0x3bcdebe0	0.006284222
13	0x3eff2e9a	0.49840242
14	0xbdaeff01	-0.08544732
15	0x3f064395	0.5244687
16	0x3ed0cdb9	0.40781954
17	0xbd3e7c67	-0.046505358
18	0xbd9f0a60	-0.07765651
19	0x3e81fa84	0.2538644
20	0xbd3a401c	-0.045471296
21	0x3c90cdd4	0.017676271
22	0x3e8ee7e8	0.27911305
23	0xbe7ac79e	-0.2449021
24	0xbd942d47	-0.072351985
25	0x3e515026	0.2044073
26	0x3f1780b7	0.5918078
27	0x3d69f42e	0.057117634
28	0xbd1353fe	-0.035968773
29	0x3e7ef7dd	0.2489924
30	0xbeaae094	-0.33374465
31	0x3e8a931a	0.27065355
32	0x3c54522a	0.012959043
33	0xbee50a68	-0.44734502
34	0x3e6ee9ba	0.23331347
35	0xbc902a28	-0.017598227
36	0xbc2e86a0	-0.010652214
37	0x3ea08917	0.3135459
38	0x3f07b1f1	0.5300589
39	0xbee22d93	-0.44175395
40	0xbd469ae3	-0.048487555
41	0x3d9a969b	0.07548257
42	0xbeaa386f	-0.3324618
43	0x3e72a961	0.23697425
44	0x3f17bd4b	0.59273213
45	0x3d74fdd6	0.05981239
46	0x3e0371f3	0.12836437
47	0x3d7ac416	0.06122216
48	0x3db1f123	0.08688571
49	0x3f0366bf	0.51328653
50	0xbd7adc25	-0.061245102
51	0x3e3f6b54	0.18693286
52	0x3f034394	0.5127499
53	0x3eb9cf12	0.36290795
54	0xbd8d4bd4	-0.06899229
55	0x3ed30ef3	0.41222343
56	0xbd7cdbc5	-0.061733026
57	0xbef0048f	-0.46878478
58	0x3e6de65e	0.2323241
59	0xbec88741	-0.3916569
60	0x3ea82a03	0.32844552
61	0xbeb74274	-0.35792887
62	0x3e8f6ae1	0.2801123
63	0x3f133cbd	0.57514554
64	0x3e9cded2	0.30638748
65	0x3f6754bf	0.9036369
66	0xbda7ba8b	-0.08189877
67	0xbc45e5a0	-0.012078673
68	0x3d03b1be	0.03215193
69	0x3c8eff5c	0.01745575
70	0xbc063be0	-0.008192986
71	0x3c774c90	0.0150939375
72	0x3e871187	0.2638056
73	0x3cb4c050	0.022064358
74	0x3ef1ae62	0.47203356
75	0xbd0d2024	-0.03445448
76	0x3f062a90	0.52408695
77	0x3a84ce00	0.0010132194
78	0xbc129bfd	-0.008948323
79	0x3e94e4f4	0.29080927
80	0x3ec0da9e	0.37666792
81	0x3db2fefb	0.0874004
82	0x3e2c734a	0.16840854
83	0x3f0811f4	0.53152394
84	0xbeb5d198	-0.3551147
85	0x3f2e5d4b	0.68111104
86	0x3ea18cbc	0.31552684
87	0xbd763bc5	-0.060115594
88	0x3e61c3b1	0.22047307
89	0x3e36ad60	0.17839575
90	0x3cd351f4	0.025795914
91	0x3edf9875	0.43671003
92	0xbd182b6b	-0.03715078
93	0x3e2b9cdf	0.1675906
94	0xbcdb39de	-0.026760992
95	0x3ca19422	0.019723956
96	0xbf072ebf	-0.52805704
97	0xbcf3aa6c	-0.02974435
98	0x3d761046	0.060074113
99	0x3e74c784	0.23904234
100	0xbd4dba5a	-0.050226547
101	0x3e58f615	0.21187623
102	0x3ea5c884	0.32379544
103	0x3eb9f55a	0.3632
104	0xbda90621	-0.08253122
105	0x3d188ab6	0.03724166
106	0xbea123d9	-0.31472662
107	0xbdaf8cd4	-0.08571783
108	0x3e808c7e	0.25107187
109	0x3eefaecc	0.46813047
110	0xbdcf7781	-0.101302154
111	0x3e727bfe	0.23680112
112	0x3ce2fd8c	0.027708791
113	0xbd6ec638	-0.058294505
114	0x3f187fd1	0.5957003
115	0x3e38b419	0.18037452
116	0x3f090070	0.5351629
117	0xbe0a0645	-0.13478954
118	0xbebfd72d	-0.37468854
119	0x3e8790aa	0.26477557
120	0x3d498d76	0.049207173
121	0xbd80aa20	-0.06282449
122	0x3c5ada40	0.013357699
123	0xbed1c06f	-0.40967128
124	0x3e1b0892	0.15139988
125	0x3e831de2	0.25608736
126	0x3ece8c35	0.40341344
127	0xbd48a212	-0.048982687
